saved_models/model.pth (torch, 16863 bytes, 4 tensors)

linear1.weight f4 [256, 11]
-0.062473953 -0.17364605 -0.21584459 -0.2557015 -0.1414514 0.19735098 -0.12434083 -0.19745812
0.22758916 -0.13405111 -0.18305899 0.09974285 0.21691576 -0.27193943 0.042909753 0.0025643094
0.17868184 0.1475627 0.20953816 -0.064420454 0.01125224 0.021300854 0.032913607 0.09071875
-0.12219489 0.27646744 -0.2911715 -0.12819183 -0.13622919 0.19557813 -0.23501845 0.15083505
0.20920229 -0.28094807 0.08720958 0.09601813 0.003404842 0.061730657 -0.12873624 -0.23773244
-0.2712043 0.20766461 0.20959426 -0.15994701 0.01034591 -0.19674686 -0.14171277 0.00893312
0.277023 -0.124933645 0.25866747 -0.038958002 0.27272174 0.2338181 -0.15531226 -0.2685737
-0.21748063 -0.058969885 -0.088574946 0.23261397 -0.26324108 -0.29499567 -0.25310722 -0.040101815
-0.061369102 -0.03658948 -0.21601251 -0.29647946 -0.045351356 -0.022003293 0.14792342 -0.061189353
0.08548424 -0.1204136 0.1577293 -0.035304613 0.071071416 0.2819174 0.21912034 0.22539315
-0.18493424 -0.020840842 -0.10395096 0.18247956 -0.29153576 0.0703923 -0.13789639 -0.11970442
0.22229646 0.25216925 0.13132183 0.10220832 -0.23410253 -0.02536762 -0.17590456 -0.2166768
0.25960588 0.0061151832 0.023624454 -0.13769147 -0.006040722 0.1901336 0.2555303 0.17742975
-0.23490259 -0.00095984415 0.009045473 0.038218528 -0.09538501 -0.023197604 -0.09999093 0.046861056
-0.16016169 -0.05944101 0.17087203 0.20384075 0.25589097 -0.29888746 0.11813475 -0.048883416
0.24763323 0.15397747 0.19146226 0.27841735 -0.1193369 -0.26529226 0.123785 -0.19121437
0.08282002 -0.17855677 0.30496827 -0.030249111 -0.30019638 -0.05479605 0.14256881 -0.13634823
0.12074574 0.0670472 0.03168331 -0.14693885 0.2655221 -0.17943706 0.095552064 0.1945698
0.013408318 0.10951668 -0.17825201 -0.19300824 0.17527504 -0.055879883 0.13959487 0.15374735
-0.17882963 0.08953832 0.041701257 0.2036059 0.19535089 -0.2637413 0.038829684 -0.1989798
0.19662519 0.056102 -0.14817439 -0.17074285 0.19276758 -0.17403793 -0.1507385 -0.029135201
-0.17393321 0.19817016 0.25253275 -0.26406693 0.008146414 0.18198091 0.18391138 -0.26876077
0.22225302 -0.16946158 -0.17312154 0.1126564 0.18716569 0.28977248 -0.22827654 -0.099225424
0.040297415 0.17786683 -0.13600537 0.08876704 0.25729275 0.16543147 -0.06784002 -0.21055415
-0.057679467 0.26866898 -0.24969876 0.03368201 0.14888263 0.060095668 0.20665354 0.18226685
-0.2587294 -0.01962672 0.09788168 -0.21163613 0.11378049 -0.27512583 0.20378529 0.2768452
-0.028940894 -0.23232323 0.15378751 -0.26021907 -0.13581207 -0.053226925 -0.15377131 0.067626104
-0.27360386 0.19966726 -0.29607674 -0.3026916 -0.061497603 0.1570715 0.27363974 -0.25936598
0.045789152 0.13398206 0.054263756 -0.1967246 0.1833913 0.11802817 -0.24008407 -0.010940245
-0.16994497 0.29298773 0.16677909 0.26620632 0.22123902 0.21326226 0.03804974 0.02252477
0.03507022 -0.24554826 -0.14222647 0.07547043 0.26460642 0.1551279 0.010838912 0.213085
0.04921588 -0.15205924 0.087429605 -0.13309847 0.14720774 -0.012988478 -0.2087666 0.08934161
00000000: b0e4 7fbd 45d0 31be 5d06 5dbe 4feb 82be
00000010: a3d8 10be 6016 4a3e 68a6 febd 7632 4abe
00000020: 220d 693e b244 09be d173 3bbe fb45 cc3d
00000030: 2a1f 5e3e a53b 8bbe 23c2 2f3d f90d 283b
00000040: 5ff8 363e ad1a 173e 2c91 563e dfee 83bd
00000050: 515b 383c 217f ae3c 6bd0 063d c1ca b93d
00000060: 5141 fabd 248d 8d3e 6e14 95be b844 03be
00000070: aa7f 0bbe a245 483e ada8 70be 8174 1a3e
00000080: 2039 563e 6dd8 8fbe f09a b23d 27a5 c43d
00000090: c523 5f3b 49d9 7c3d 6fd3 03be 2270 73be
000000a0: 4adb 8abe 08a6 543e e19f 563e 26c9 23be
000000b0: e481 293c 0278 49be 271d 11be 395c 123c
000000c0: f5d5 8d3e 36dd ffbd 1070 843e 6d92 1fbd
000000d0: 2fa2 8b3e 036e 6f3e 2d0a 1fbe 7e82 89be
000000e0: 3eb3 5ebe 688a 71bd c866 b5bd 5b32 6e3e
000000f0: 89c7 86be ac09 97be 4597 81be cd41 24bd
00000100: 2b5e 7bbd dade 15bd 6232 5dbe 28cc 97be
00000110: 58c2 39bd 4040 b4bc 3d79 173e b0a1 7abd
00000120: 5c12 af3d 689b f6bd ca83 213e 929b 10bd
00000130: e48d 913d 7a57 903e 1561 603e 76cd 663e
00000140: 675f 3dbe 6aba aabc 3ee4 d4bd ecdb 3a3e
00000150: 2d44 95be d729 903d b634 0dbe 9727 f5bd
00000160: afa1 633e 541c 813e 3b79 063e 9852 d13d
00000170: 93b8 6fbe c1cf cfbc 5320 34be 86e0 5dbe
00000180: 10eb 843e e061 c83b 1288 c13c fefe 0cbe
00000190: 40f1 c5bb 62b2 423e ded4 823e 25b0 353e
000001a0: 4e8a 70be 0d9e 7bba 7733 143c 088b 1c3d
000001b0: 3759 c3bd e708 bebc 0bc8 ccbd 61f1 3f3d
000001c0: 6d01 24be 6b78 73bd 14f9 2e3e a1bb 503e
000001d0: 2404 833e c707 99be a2f0 f13d fa39 48bd
000001e0: 9193 7d3e 45ac 1d3e af0e 443e b88c 8e3e
000001f0: e866 f4bd 63d4 87be fd82 fd3d b3cd 43be
00000200: 8b9d a93d 96d7 36be cd24 9c3e fccc f7bc
00000210: 57b3 99be d371 60bd 8ffd 113e df9e 0bbe
00000220: 8b49 f73d 0b50 893d 5cc6 013d 2377 16be
00000230: 83f2 873e 59be 37be cdb0 c33d 4e3d 473e
00000240: 90ae 5b3c 484a e03d b287 36be f4a3 45be
00000250: 4d7b 333e 4ee2 64bd f5f1 0e3e f26f 1d3e
00000260: 1d1f 37be de5f b73d f0ce 2a3d 117e 503e
00000270: 100a 483e 1a09 87be e00b 1f3d 5cc1 4bbe
00000280: 1d58 493e 36cb 653d 07bb 17be 37d7 2ebe
00000290: dd64 453e 0037 32be 315b 1abe f2ac eebc
000002a0: 8c1b 32be 1eed 4a3e f94b 813e c833 87be
000002b0: 8978 053c 3459 3a3e 4453 3c3e 039b 89be
000002c0: 4c96 633e 5687 2dbe c646 31be 66b8 e63d
000002d0: 5da8 3f3e 0f5d 943e 53c1 69be b336 cbbd
000002e0: e70e 253d b922 363e fe44 0bbe 7ecb b53d
000002f0: e0bb 833e de66 293e b5ef 8abd 829b 57be
00000300: 4e41 6cbd fb8e 893e 08b1 7fbe 26f6 093d
00000310: b074 183e e026 763d fc9c 533e 29a4 3a3e
00000320: 2e78 84be 37c8 a0bc 3176 c83d 24b7 58be
00000330: bf05 e93d 4bdd 8cbe 17ad 503e a7be 8d3e
00000340: 7415 edbc 24e6 6dbe 797a 1d3e 6f3b 85be
00000350: 5212 0bbe 7a04 5abd 3a76 1dbe 8e7f 8a3d
00000360: ce15 8cbe 9375 4c3e 5f97 97be 65fa 9abe
00000370: e9e4 7bbd 5ad7 203e 821a 8c3e 9ecb 84be
00000380: 688d 3b3d 9832 093e ac43 5e3d 2c72 49be
00000390: eeca 3b3e c1b8 f13d 99d8 75be b73e 33bc
000003a0: 0e06 2ebe 7d02 963e 23c8 2a3e 324c 883e
000003b0: 7b8c 623e 6c61 5a3e 0bda 1b3d de85 b83c
000003c0: caa5 0f3d 0171 7bbe d1a3 11be 3e90 9a3d
000003d0: 7e7a 873e d9d9 1e3e b195 313c f432 5a3e
000003e0: 9796 493d 6bb5 1bbe 4b0e b33d f74a 08be
000003f0: a0bd 163e a0cd 54bc e9c6 55be bcf8 b63d

linear1.bias f4 [256]
-0.15867709 0.14620371 0.003912666 -0.1486567 0.12445121 0.039494976 -0.25921738 0.20745867
-0.15570408 0.048864998 0.19062313 0.14518273 0.0035103445 0.10091684 -0.19649033 0.14829439
-0.29996336 -0.22785914 0.00692743 0.25796893 -0.046544865 -0.16306736 0.25791532 -0.29266772
-0.03846097 -0.11904846 -0.12240094 0.15888429 -0.03393901 0.2906419 -0.17420997 -0.16482306
-0.14945896 -0.16900268 -0.27299586 -0.15418755 -0.063772455 0.0474407 0.24003649 -0.0006116269
-0.0951091 0.19945213 -0.14814787 -0.037555657 -0.27851823 0.15116899 0.14573383 -0.14224477
-0.053368464 0.22391291 -0.2080361 0.095004074 0.15461987 -0.072871365 -0.26479006 -0.10601299
-0.14806296 0.30779475 0.28512737 0.10007263 0.2070111 -0.20590761 -0.12649637 0.1313917
0.19386762 -0.23431624 0.10336711 0.1557652 -0.047529157 -0.12671915 0.18497692 -0.06311873
-0.14449021 -0.13530433 0.12417132 0.27060246 -0.17631872 0.040316246 -0.17209174 0.047813863
-0.28746244 -0.035164624 0.2613721 -0.0475365 0.11981054 0.08109946 -0.14278035 0.28485882
0.14646398 -0.06020297 -0.2081961 0.16244617 0.22870523 -0.06574158 -0.28063685 0.21828294
0.1816003 -0.16709083 -0.10923895 -0.025606656 -0.28036782 -0.108660944 -0.14291683 -0.0058952305
0.22208372 -0.24258152 0.04504895 0.09748391 -0.22639884 0.1976963 0.093921 0.03232829
-0.28614643 0.30252838 0.25004354 -0.24586065 -0.15400441 -0.29553476 -0.07736725 -0.14800455
-0.16528356 0.077728145 -0.006607595 0.18643743 0.11604665 -0.2919429 0.18510103 0.26891756
-0.053308517 0.29878277 -0.30021518 -0.15240109 0.19550474 0.15174513 0.27932048 0.027670236
-0.24094364 0.013708443 -0.25668713 0.11210524 -0.26158565 -0.2743526 0.14259139 0.28130367
-0.25782144 -0.25340676 0.034781285 0.30320534 0.1399551 0.0031111625 0.22870107 -0.14564656
0.10307524 -0.014908961 -0.14371908 0.0014501562 0.18331276 0.23971732 -0.16951247 0.2612927
0.015048154 -0.20119405 -0.09310449 -0.262197 0.07918109 -0.27883476 -0.2878797 -0.17149279
0.041867077 -0.09153058 0.20571129 -0.30319294 0.15739213 0.25895587 0.08162044 -0.045240495
-0.111951716 -0.21593393 -0.10414183 -0.19703324 -0.07318808 -0.19226839 -0.24889652 0.07048516
0.08618002 0.1096074 -0.11838752 0.19141345 0.11355067 -0.21719822 -0.085572146 -0.057686564
-0.31279737 -0.25145295 -0.25143477 -0.27547544 -0.02899956 0.03931213 -0.111724764 -0.12644185
-0.3016552 0.28408188 0.15594131 -0.020971768 -0.2671876 -0.07083721 0.17722814 0.23583104
0.12634358 -0.025650699 -0.037641373 -0.19080257 0.20255947 0.18101433 -0.055574965 -0.10498737
-0.23388946 0.2190579 0.22381455 0.06435253 0.23366298 -0.23725031 -0.25910386 0.24331716
-0.05959584 0.06337645 -0.13822074 -0.28631404 -0.098364435 -0.119336694 -0.08507774 0.24066554
0.16955474 0.14282782 0.22448693 -0.19973262 -0.060203385 0.11535633 0.104926676 -0.14429837
-0.2687888 0.18773614 -0.16767626 0.18282215 -0.11927965 0.10983446 0.16780697 -0.28639036
-0.26207882 -0.023442494 -0.06744903 -0.25365174 0.24775295 -0.17778318 0.12737243 0.13624725
00000000: 3f7c 22be 6db6 153e d235 803b 7639 18be
00000010: 47e0 fe3d 7cc5 213d 24b8 84be 0c70 543e
00000020: e470 1fbe aa26 483d b632 433e c8aa 143e
00000030: cf0d 663b 7dad ce3d c334 49be 7cda 173e
00000040: cc94 99be e853 69be 7fff e23b 8114 843e
00000050: d4a5 3ebd 21fb 26be 7a0d 843e 8bd8 95be
00000060: 4089 1dbd aecf f3bd 58ad fabd 90b2 223e
00000070: a203 0bbd 04cf 943e 1964 32be 60c7 28be
00000080: c50b 19be 0a0f 2dbe 1dc6 8bbe 57e3 1dbe
00000090: 229b 82bd 2e51 423d 20cc 753e 9655 20ba
000000a0: 8fc8 c2bd 2e3d 4c3e 13b4 17be f6d3 19bd
000000b0: f199 8ebe 0bcc 1a3e 403b 153e 9da8 11be
000000c0: e498 5abd 6d49 653e 6a07 55be 7f91 c23d
000000d0: ac54 1e3e 953d 95bd 9092 87be 571d d9bd
000000e0: d19d 17be 4697 9d3e 37fc 913e e1f2 cc3d
000000f0: b8fa 533e 72d9 52be 4488 01be 8c8b 063e
00000100: 3c85 463e 99f0 6fbe 23b2 d33d ea80 1f3e
00000110: efad 42bd aac2 01be 976a 3d3e 6544 81bd
00000120: 3ef5 13be 388d 0abe 884d fe3d 688c 8a3e
00000130: e58c 34be a622 253d d138 30be 78d8 433d
00000140: 472e 93be c808 10bd 90d2 853e a2b5 42bd
00000150: 3a5f f53d 7917 a63d 0335 12be 04d9 913e
00000160: a7fa 153e 6497 76bd 5c31 55be 4a58 263e
00000170: b431 6a3e 86a3 86bd a2af 8fbe 9085 5f3e
00000180: 6ef5 393e dc19 2bbe acb8 dfbd 0dc5 d1bc
00000190: 5f8c 8fbe a189 debd ca58 12be c72c c1bb
000001a0: ea69 633e 4a67 78be 3f85 383d a5a5 c73d
000001b0: 19d5 67be e670 4a3e a759 c03d ab6a 043d
000001c0: c981 92be 00e5 9a3e b505 803e e5c2 7bbe
000001d0: 55b3 1dbe 5550 97be b972 9ebd 818e 17be
000001e0: 1840 29be ef2f 9f3d 8684 d8bb 74e9 3e3e
000001f0: dea9 ed3d 8a79 95be 208b 3d3e 90af 893e
00000200: 085a 5abd 0efa 983e ceb5 99be 080f 1cbe
00000210: 6532 483e 1363 1b3e 1803 8f3e b1ac e23c
00000220: eeb9 76be 6199 603c 7f6c 83be 6f97 e53d
00000230: 8eee 85be f277 8cbe 7a03 123e 0907 903e
00000240: 2c01 84be 88be 81be d276 0e3d bb3d 9b3e
00000250: 6450 0f3e a5e4 4b3b 9d30 6a3e 5f24 15be
00000260: 1d19 d33d b744 74bc 182b 13be 2b13 be3a
00000270: 57b6 3b3e 7578 753e ad94 2dbe 28c8 853e
00000280: 888c 763c d005 4ebe 91ad bebd af3e 86be
00000290: b229 a23d 6ec3 8ebe f864 93be ce9b 2fbe
000002a0: d07c 2b3d 6274 bbbd fba5 523e 1b3c 9bbe
000002b0: 672b 213e dd95 843e 9e28 a73d 194e 39bd
000002c0: f146 e5bd c91d 5dbe 5048 d5bd 15c3 49be
000002d0: a2e3 95bd 01e2 44be bbde 7ebe 865a 903d
000002e0: 267f b03d d879 e03d 2875 f2bd e301 443e
000002f0: 418d e83d 3669 5ebe 7340 afbd bf48 6cbd
00000300: fa26 a0be 71be 80be 0fbc 80be 1e0b 8dbe
00000310: 7c90 edbc c205 213d f4cf e4bd f979 01be
00000320: 8d72 9abe 2e73 913e 14af 1f3e fccc abbc
00000330: d0cc 88be 1913 91bd 4b7b 353e b17d 713e
00000340: 3660 013e 6a21 d2bc d72d 1abd c061 43be
00000350: c06b 4f3e d25b 393e 93a2 63bd 9e03 d7bd
00000360: b880 6fbe b750 603e a42f 653e 42cb 833d
00000370: 5945 6f3e bff1 72be 43a9 84be 2228 793e
00000380: c41a 74bd 83cb 813d bd89 0dbe c197 92be
00000390: 4b73 c9bd cc66 f4bd 3d3d aebd 0771 763e
000003a0: c29f 2d3e 7541 123e e7df 653e b586 4cbe
000003b0: d397 76bd f13f ec3d cce3 d63d f4c2 13be
000003c0: b09e 89be e73d 403e 53b3 2bbe bb35 3b3e
000003d0: e448 f4bd e4f0 e03d 97d5 2b3e c2a1 92be
000003e0: 322f 86be 790a c0bc b822 8abd a4de 81be
000003f0: f3b2 7d3e cb0c 36be eb6d 023e 6684 0b3e

linear2.weight f4 [3, 256]
0.038381014 -0.031101357 -0.019067684 0.03442589 0.0039674584 0.019239314 -0.041045718 0.034944415
-0.020374635 0.069367535 0.01815731 -0.015815612 -0.021245869 0.0005253483 0.0126987295 0.06587955
-0.046771295 -0.039193913 0.052247014 0.005961528 0.019758938 -0.021321889 0.035742205 -0.01741119
-0.019859202 -0.007520015 0.009112843 -0.022839895 -0.035613816 0.0011499962 -0.034676373 0.052033197
0.03396085 0.049713645 0.021123251 -0.054594036 0.04858441 0.06947318 -0.024984162 0.05126772
-0.015729453 -0.013363596 -0.050122574 -0.04974253 0.008241923 0.023786576 0.045751818 0.044053864
0.04858932 0.030466327 0.0019794411 0.03822552 -0.041680206 -0.027075682 -0.008872764 0.066083126
0.030613981 -0.005730099 0.04113897 0.037055086 0.050428618 0.053749487 -0.037639726 0.018320212
0.061135076 -0.052080642 -0.035657592 0.025457477 -0.043960962 -0.049813163 -0.04468294 -0.03237186
-0.04858217 0.020703116 -0.0038462905 0.044710487 0.0005226915 0.01801711 -0.032528915 0.020352285
-0.014781556 0.02406498 0.007861336 0.013177935 -0.05214183 -0.01740283 -0.060357157 -0.030142577
-0.037629567 0.014731022 -0.013587355 0.021385694 -0.01738282 -0.032668214 -0.029563984 -0.041715097
-0.038359012 0.055708468 -0.03923763 0.02249376 0.043521114 -0.010917257 0.056688357 -0.03681403
-0.035538167 -0.05234975 0.0088195605 0.037619885 0.056912012 0.04120293 0.006222074 -0.03956859
-0.026735988 0.024457773 -0.041940767 -0.044942226 0.04174093 0.0070350296 0.045823358 0.016373577
0.036277402 -0.026894584 -0.0057814764 0.00892261 -0.020722331 0.048388116 -0.020017587 -0.019175788
-0.049497228 0.058167793 0.037949294 -0.051625874 -0.04531999 -0.0089794565 -0.019495185 0.03994362
-0.011731784 0.052868027 0.010057084 0.026901187 0.044515785 -0.03595082 -0.042271987 -0.010104398
-0.031239953 -0.01488343 0.00461667 0.059648897 -0.0337223 -0.04258164 -0.009086665 -0.002033159
0.08649919 0.011547656 0.049719132 -0.01092335 -0.0076717134 0.030786099 -0.033227444 -0.0005286195
0.057482883 0.023306383 0.054632843 -0.06118026 0.023169067 -0.043560818 0.035938766 0.038096145
-0.03183208 0.049130756 -0.002237596 -0.031050276 -0.010044627 -0.004171407 0.033295777 0.0103374235
0.046939194 0.05322109 -0.047853176 0.052190945 0.08028383 0.002231452 -0.054568525 0.0017090888
0.024293514 0.035073064 0.050194208 0.005932812 0.02066241 -0.0320074 -0.0012559629 -0.026670413
0.021465233 0.021360103 -0.016201418 -0.031193698 -0.00744728 -0.027495775 -0.042012073 -0.017279766
-0.020794457 -0.006717115 -0.04542214 -0.032166317 0.0027806833 -0.03822578 -0.038692202 -0.03145678
-0.028553875 -0.027322672 -0.010916562 0.020722682 0.075271904 0.018752664 -0.0028020183 0.048639953
0.004923688 0.058715083 0.06679879 -0.04006047 0.031666297 -0.052864708 -0.06454492 -0.007488838
0.05554253 -0.028728561 0.0076439376 -0.026636444 0.035306964 -0.019432733 0.012965264 -0.0001138599
-0.017746944 -0.009759421 -0.004205675 -0.053361326 0.0011351118 0.007300116 -0.04053422 -0.05601486
-0.028675934 0.04861607 -0.02736959 0.033380143 -0.05885555 -0.010819373 -0.0044761524 -0.024996893
-0.038189963 -0.0077359937 0.0020603146 0.0005564279 0.06365975 -0.027681692 -0.041519336 -0.024689859
00000000: 6935 1d3d 46c8 febc d533 9cbc 2902 0d3d
00000010: 7401 823b c49b 9d3c 8e1f 28bd e021 0f3d
00000020: b5e8 a6bc 9110 8e3d a4be 943c be8f 81bc
00000030: d10b aebc 87b7 093a 550e 503c dceb 863d
00000040: 4293 3fbd cc89 20bd f700 563d ec58 c33b
00000050: 7fdd a13c 3eab aebc 6b66 123d e9a1 8ebc
00000060: c4af a2bc 756a f6bb 094e 153c bb1a bbbc
00000070: cbdf 11bd 78bb 963a d008 0ebd c320 553d
00000080: 881a 0b3d 89a0 4b3d ab0a ad3c ff9d 5fbd
00000090: 7200 473d f447 8e3d 96ab ccbc 1afe 513d
000000a0: 0edb 80bc fcf2 5abc 544d 4dbd d3be 4bbd
000000b0: 2109 073c 11dc c23c 4266 3b3d d371 343d
000000c0: 9805 473d 8594 f93c 83b9 013b 5d92 1c3d
000000d0: ddb8 2abd d2cd ddbc 125f 11bc 9756 873d
000000e0: 2cca fa3c 8ec3 bbbb 5681 283d 13c7 173d
000000f0: 3d8e 4e3d 6c28 5c3d 1d2c 1abd 4514 963c
00000100: c668 7a3d 8352 55bd b20d 12bd 338c d03c
00000110: 6910 34bd e308 4cbd 7505 37bd 5b98 04bd
00000120: 19fe 46bd 9599 a93c 0c12 7cbb 5822 373d
00000130: 3c05 093a 9e98 933c 0a3d 05bd d6b9 a63c
00000140: 572e 72bc ec23 c53c d5cc 003c 44e8 573c
00000150: ac92 55bd 6190 8ebc 1139 77bd 91ed f6bc
00000160: 7621 1abd 625a 713c 7f9d 5ebc 0d31 af3c
00000170: 6a66 8ebc 1bcf 05bd 2b30 f2bc 73dd 2abd
00000180: 571e 1dbd 902e 643d a3b7 20bd d544 b83c
00000190: 3243 323d 4bde 32bc 0d32 683d 4fca 16bd
000001a0: 7890 11bd b16c 56bd eb7f 103c 4f17 1a3d
000001b0: 921c 693d 67c4 283d 8ae2 cb3b ac12 22bd
000001c0: 6e05 dbbc ab5b c83c 15ca 2bbd 5715 38bd
000001d0: 8af8 2a3d 1b86 e63b 46b1 3b3d e121 863c
000001e0: 9d97 143d 0852 dcbc 8a72 bdbb 2430 123c
000001f0: e1c1 a9bc 9e32 463d ecfb a3bc 8b16 9dbc
00000200: 9bbd 4abd 5a41 6e3d b870 1b3d a775 53bd
00000210: 74a1 39bd 921e 13bc 5eb4 9fbc ec9b 233d
00000220: ab36 40bc 258c 583d 78c6 243c e15f dc3c
00000230: 2f56 363d 2b41 13bd 6425 2dbd eb8c 25bc
00000240: eeea ffbc a1d9 73bc 6f47 973b 6752 743d
00000250: 6520 0abd 166a 2ebd 3ce0 14bc bf3e 05bb
00000260: 7d26 b13d 6132 3d3c 4aa6 4b3d daf7 32bc
00000270: ff62 fbbb 2133 fc3c 8019 08bd 0e93 0aba
00000280: 2c73 6b3d 07ed be3c b0c6 5f3d 2798 7abd
00000290: 0ecd bd3c d46c 32bd 8734 133d b40a 1c3d
000002a0: 5b62 02bd 553d 493d a2a4 12bb 265d febc
000002b0: 3892 24bc 4cb0 88bb 2761 083d 4c5e 293c
000002c0: 5043 403d 5cfe 593d b101 44bd 2cc6 553d
000002d0: d96b a43d 8d3d 123b 3f83 5fbd 8103 e03a
000002e0: 3103 c73c c6a8 0f3d 7198 4d3d 0968 c23b
000002f0: 3744 a93c 311a 03bd 1f9f a4ba e97b dabc
00000300: dbd7 af3c 62fb ae3c d6b8 84bc ed89 ffbc
00000310: 5008 f4bb d23e e1bc da14 2cbd 4c8e 8dbc
00000320: 2359 aabc 3f1b dcbb 910c 3abd d4c0 03bd
00000330: 203c 363b a392 1cbd b77b 1ebd d3d8 00bd
00000340: d1e9 e9bc ccd3 dfbc 61db 32bc 9dc2 a93c
00000350: 2828 9a3d 309f 993c 11a2 37bb b03a 473d
00000360: e356 a13b 3a7f 703d cecd 883d 7316 24bd
00000370: 85b4 013d aa88 58bd 2130 84bd ed64 f5bb
00000380: 9080 633d 2958 ebbc ff79 fa3b ac34 dabc
00000390: 099e 103d 6531 9fbc 426c 543c 11c8 eeb8
000003a0: 0a62 91bc fbe5 1fbc c2cf 89bb 6891 5abd
000003b0: 08c8 943a d035 ef3b 3607 26bd d66f 65bd
000003c0: cbe9 eabc a521 473d 3136 e0bc 9eb9 083d
000003d0: 8412 71bd bd43 31bc b0ac 92bb 49c6 ccbc
000003e0: 146d 1cbd 387e fdbb 5806 073b 3fdd 113a
000003f0: 0b60 823d b7c4 e2bc 2e10 2abd 6342 cabc

linear2.bias f4 [3]
0.07148814 -0.011875234 -0.038378887
00000000: 6068 923d 5790 42bc 2e33 1dbd
