saved_models/model.pth (torch, 16863 bytes, 4 tensors)

linear1.weight f4 [256, 11]
00000000: 9aef 86be 3019 a53d b496 13be dfc8 a53e
00000010: 82b0 36be 65d2 86bc 8feb a53c e42e 683e
00000020: c10c 1cbe b606 b1bd 1e58 a4be 85e9 a2be
00000030: ab35 d0bd 51fa 6d3e ec1e bfbd 84c4 7b3c
00000040: 984f 053e ec52 323e 2f33 153e 26e2 8a3e
00000050: 8a08 8dbd a216 86be 9454 5a3e 4980 e03d
00000060: 126b 6a3e 6a01 21be 96eb 5dbe 3966 9cbe
00000070: 8086 a4bc 2991 90bc f054 e8bd 1b90 e2bd
00000080: 9b47 693e ec7e fcbc 027d 433d aa72 843e
00000090: cf3c 533e e448 5bbe fcf9 09bd 6924 30bd
000000a0: cf76 403e bf1d 0dbc 010a ac3e d834 4bbc
000000b0: 112b 23be c32c 003e 208b d93d 651d 323d
000000c0: 36e4 113e e007 26be 31f4 12be 336a 4e3e
000000d0: fa7a 873e 8568 943e 26c0 823d 5366 813e
000000e0: aa0c 8bbe c31f 493e bdf8 163d ea76 1d3d
000000f0: 7770 b0bd 5ed0 78be d52a 4fbe ce0f ae3d
00000100: 3b41 a13e 9062 af3e 990e 113e cfd8 1c3e
00000110: 5f11 63be 5953 9bbe e48f 8f3e 3a6f aebd
00000120: 809b 57be f772 de3d c19e 29be 8147 193e
00000130: c336 7a3e 0498 b6bd d606 233e b9ce 66be
00000140: b007 7fbd 8160 90be 9189 39bb c7d6 ddbd
00000150: 3cee ea3d fa8b 053e 169e a1bd 0141 f63b
00000160: 2b0c 7fbd 1583 5d3e 4426 91be 45c3 87be
00000170: 705a c83b 584c 4b3e 1bd7 63be 606c 623e
00000180: f441 6a3c 7649 b1bd 863f 3bbd 6e1e 863d
00000190: 4e4c 0d3e 1094 f53b 4ca4 593d d1e6 433e
000001a0: f39f 963e 4326 903e a2a9 263e f8a9 cbbd
000001b0: bd4a 543e 7c2d 7a3e f19d 1dbe 47b8 12be
000001c0: a3de 243d 4186 b6bc 3a07 3e3d 0980 4cbe
000001d0: de22 893e fe2b cabd 04de bebe f93d 38bc
000001e0: 7c0c a63d eda8 47be afee fc3c 028b 883c
000001f0: 7608 88be 60be 2b3e 664f 81bd 6d39 0a3e
00000200: 85b6 813d 533f 6dbe be92 6dbe f057 6bbe
00000210: 9347 043e a692 5b3e d831 aebe 7e9e 69be
00000220: 79cc 353e 9372 b13d ebe6 6d3e 87be 043e
00000230: d810 42be 3a5f bdbd dcf8 4bbd 7ce8 b63d
00000240: 446c 87be 862d bbbd b5d6 85bd 0991 473e
00000250: 555e af3e 5367 2ebe 0509 223a 84a0 6b3e
00000260: 5eb1 673e 0314 80bd c0e4 833e 5c64 8bbe
00000270: 859a 86be f69f 373e 8159 0bbd b9ec 753c
00000280: 31bf 95bd e1c1 303e b083 4f3e 1945 8d3e
00000290: e9a1 863d 706f ad3e 56a2 e43c 94f4 ea3c
000002a0: 034d 453d 33a9 dd3d 4314 23be 903a 663d
000002b0: 4e30 48bc b8ed 4b3d 283e 4c3e 1681 3fbe
000002c0: d530 413e a7c5 3ebe 7900 4cbb 72ea 6bbe
000002d0: 5d06 423e bd25 8a3e c467 e6bd 0dc1 33be
000002e0: 61db 7c3e de41 903c 4776 16bd 1a7e dc3e
000002f0: 563f 923e 6ad1 813e cb4b 763e 245e 873e
00000300: 77c8 8abe 773b 643e f036 e23d bdb0 8bbe
00000310: 6f49 613e 379c 4a3e 5989 0c3e d72c 273e
00000320: 50cb 9e3e d0d2 c13d b546 013d 777b 6f3d
00000330: 5a8b ed3d 0c35 883e 0ba2 493e 5b95 8c3e
00000340: 1a4e a53e c8c5 1ebd ce79 07be d9db 49be
00000350: cfa2 52bc cbc0 493e 64da a83e 48c8 9cbd
00000360: af41 99be e935 81be 4e0b 07be 7104 be3e
00000370: 08a3 a43e c838 a13d cb65 3f3e eef0 ecbd
00000380: edc5 2cbd 98c0 893e bf43 4b3e e83b b33e
00000390: 2e53 05be fdee c6bd c9c0 663d 618d b23d
000003a0: 8933 74bd cdf8 77bd 7d04 39bb 5dc2 8bbc
000003b0: c172 e4bd 0065 e9bd 02b4 33bd ab5f 473d
000003c0: 3378 21be 1c1b 253e 7e61 f03d f4ea 433e
000003d0: f4f6 40be 1109 78be b6b0 5e3e 3c94 9dbc
000003e0: 7551 523d e0fd 993e 0fe8 94bd de07 99bb
000003f0: 675c f13d 279e d03b 91ec e23c 36a4 c5bd
-0.26354676 0.08061445 -0.14412957 0.32379815 -0.1784077 -0.016457746 0.020253925 0.22674137
-0.1523924 -0.08643858 -0.32098478 -0.31818786 -0.10166486 0.2324002 -0.0933207 0.015366677
0.13018644 0.17414445 0.14570306 0.27125663 -0.06886394 -0.26189142 0.21321326 0.109619685
0.22892407 -0.15723196 -0.216719 -0.3054674 -0.020083666 -0.017647343 -0.113443255 -0.11062642
0.22781222 -0.03082224 0.04772664 0.25868732 0.20628665 -0.21414524 -0.03368567 -0.043003473
0.18795322 -0.008613049 0.33601382 -0.012402736 -0.15934397 0.12517075 0.10622239 0.043485064
0.14247212 -0.16213942 -0.14350964 0.201577 0.2646101 0.28985992 0.06384306 0.2527338
-0.271581 0.19641022 0.03685831 0.038443483 -0.08615201 -0.24298236 -0.20231183 0.08499108
0.3149508 0.34254885 0.14165725 0.15317081 -0.22174595 -0.30337027 0.28039467 -0.085173085
-0.21055412 0.108617716 -0.16564466 0.14968683 0.24434952 -0.089157134 0.15920576 -0.22539796
-0.06226319 -0.28198627 -0.0028310756 -0.10831981 0.11471221 0.13041678 -0.078914806 0.0075150733
-0.062267464 0.21632035 -0.28349507 -0.26516166 0.0061142966 0.19853342 -0.22250025 0.22111654
0.014297951 -0.0865659 -0.045714878 0.06548773 0.13798639 0.007494457 0.0531352 0.19131018
0.29418907 0.2815419 0.16275647 -0.09944528 0.20731635 0.24431413 -0.15392281 -0.14328109
0.040251385 -0.022280814 0.04639361 -0.19970717 0.26784414 -0.09871672 -0.3727876 -0.011245244
0.0810785 -0.19498034 0.030875532 0.016667847 -0.26568955 0.16771841 -0.06313972 0.13498469
0.06333641 -0.23168688 -0.23200509 -0.22982764 0.12917928 0.2144266 -0.34022403 -0.22814366
0.17753781 0.086644314 0.2323262 0.12963305 -0.18951738 -0.09246679 -0.049797878 0.089310616
-0.26449788 -0.09139542 -0.06535093 0.1948892 0.34251657 -0.17031603 0.00061811536 0.2301045
0.22626254 -0.06253817 0.2576046 -0.27225006 -0.26289764 0.17932114 -0.034020904 0.015010052
-0.073118575 0.17261459 0.20265079 0.2759178 0.06573851 0.33874083 0.027909439 0.028681077
0.048169147 0.10823288 -0.15925698 0.056208193 -0.012218548 0.049787253 0.19945586 -0.18701586
0.18866284 -0.18630086 -0.0031128211 -0.23038653 0.1894774 0.26981917 -0.112502605 -0.17554112
0.24693061 0.017609533 -0.03673389 0.43064958 0.28563946 0.25355083 0.2405235 0.2643901
-0.27106068 0.22288309 0.11045635 -0.27283278 0.22000669 0.19786154 0.13724269 0.16325699
0.3101449 0.094640374 0.031561572 0.058467355 0.11598845 0.26602972 0.1969072 0.274577
0.3228615 -0.038762838 -0.13230059 -0.19712771 -0.012856199 0.19702451 0.3297912 -0.07655388
-0.29932925 -0.25236443 -0.13187906 0.37112764 0.32155633 0.07872158 0.18691175 -0.11569391
-0.042180944 0.2690475 0.19850062 0.35006642 -0.13020012 -0.09713552 0.056336198 0.08718372
-0.05961946 -0.06054001 -0.0028231435 -0.017060453 -0.111547 -0.11396217 -0.04387284 0.04867522
-0.15768509 0.16123623 0.11737345 0.19132596 -0.18844205 -0.24222209 0.21747097 -0.019235723
0.051347215 0.30076504 -0.07270824 -0.0046701273 0.117852025 0.0063665095 0.027700694 -0.096504614

linear1.bias f4 [256]
00000000: eb52 80be 0fc4 45bd 91e5 86be dd1f 7f3e
00000010: 227e 683e 2e96 16be d971 c3bd 5c56 79be
00000020: fce9 1e3e ed70 283d 6343 ff3d f7b8 80be
00000030: d64a 96bc f0b0 c33e 7e53 423e 8541 783e
00000040: 4580 1fbe 1795 4f3d 6b15 26be 9392 6b3e
00000050: 6c30 47be 54b4 57be 70fb 28be 1142 f03d
00000060: 22b2 00be c394 ca3e db76 a83d 98ba ae3e
00000070: b84d a9bd da7e c53d 3208 1b3e d0c5 6c3e
00000080: 817a 52be 9210 903e 2c90 62be 6a38 18bd
00000090: a8d7 0cbe b910 bbbd 6197 63bd 087d 3f3c
000000a0: ec1a 5c3e fbe9 c73c 10d2 e1bc 04a0 bb3e
000000b0: e874 20bd a150 443e 6332 313e 1517 0cbd
000000c0: 5ea0 41be a6a8 863e 189b ac3e 9ebc 0dbd
000000d0: bb31 2b3e e93a 8abd f9cb ef3e a710 d73d
000000e0: a174 b23d 7e77 26bd a620 20be d14c 8f3e
000000f0: 0888 a93e e883 9ebc 1793 31be fc04 4b3e
00000100: aeed 0c3e f4d4 1bbe a4e2 863c f831 73bd
00000110: 0a6a 7bbe c109 a13e da28 dd3d 9f6a 98bd
00000120: df04 d8bc 2c43 523e 7a72 d53e ad73 fa3d
00000130: b292 123e 34eb 323e 43f9 593c 0382 21bc
00000140: 68ae e73d a324 b83e 2e3c 0d3d d9aa 8bbe
00000150: 9ea7 6c3e 60f5 1dbe 5908 de3b 9d6d 16be
00000160: 4067 e6bd e9d0 82bd 6180 10be 0f4b 31be
00000170: 9991 e8bc 1354 303d 1a84 043e 1207 af3e
00000180: 8879 04be 8c0e 33bc c284 113e 88f3 aabe
00000190: e4e8 6abe b1e4 dabd 909e a1be 8817 82be
000001a0: b9c0 80be 2b07 093e 9320 8ebe ddec 833d
000001b0: 2499 ff3b cb4d 6bbe 4df6 e4bc 2682 1dbb
000001c0: 431c 3e3d e9e4 b23e 01e3 bdbd 7455 843d
000001d0: 78fd 533d 5ea8 38be bea1 9a3e dacf 25bd
000001e0: 8e83 2dbe 84b9 ea3d ab7f 1b3e 0f00 873e
000001f0: 34db e13b 4ae9 2f3e efb9 13bd 0bbd 6d3d
00000200: be10 433e e958 18be 56e3 76be 5d45 123e
00000210: eb6b de3c a27f a43e 25ce f53d 8730 ba3e
00000220: dc05 b13e 0d1c 9a3e 2c04 41be 1589 ac3e
00000230: 9919 0d3d 9675 70be 52b1 ff3b 7ee1 c9bc
00000240: 8554 56bd dacd 4b3e 17f3 dcbd cc2b 0abd
00000250: c7e1 793e f815 603e 57c1 27be d1bd 473c
00000260: 9c3d 8a3e 11a4 e83d 66b8 c1bd 8659 413e
00000270: 4fbf 6fbe 8294 3d3e 2641 923d a6b6 a23d
00000280: a77b 02be dfe5 a53e 0a22 4ebd 7e5a c23e
00000290: f8d0 56be 1bab 373d 7bb1 953e c244 45bd
000002a0: 77a6 7c3e 4fde 243e 0ff4 803e 86a9 b6bd
000002b0: 3b2b 583e 4ddd b23e 28a5 67be 0c0f 1e3d
000002c0: f819 00be 54b2 6d3e 681d 05bd 0fa9 0bbe
000002d0: b0f7 5ebe 185b a63e 8127 a03e 1aca 21be
000002e0: b3fe 723e 251a 8a3e d8f4 ab3e 32c6 853e
000002f0: 6728 4abe 0d23 5cbe 01eb ba3e 0599 933e
00000300: 3aed 60be 6e3a 5ebe e37a 1a3e a858 2a3e
00000310: f982 e43d 4461 c4bd 1866 e93d bf6c 9cbd
00000320: b05a 983d 340d 883b 1d77 ae3d 7eb7 39be
00000330: 8427 de3e 5dae 06bd 2cc8 e4bd 2c8f 673d
00000340: 2686 7cbd 510a 6a3e 7c1b 88bd 957e 55be
00000350: a2f3 dc3d 8a79 743e 8987 153e 5c7d b13c
00000360: 43e5 8abe 4cd5 d03b 1797 ab3e 4bf5 94bd
00000370: bc3a d03e 5f47 f4bd 96de b7bd 77f3 e53d
00000380: 29ac 043e f8bd 4dbe ad75 113b ba78 88bd
00000390: f637 2dbd cf6c 58bc 3eeb a33e d61f 7ebd
000003a0: b673 55be f096 8f3c 16e2 7c3e dfc5 c63d
000003b0: f9b4 92be 72bf 253e 9b68 20be fa65 43be
000003c0: 97ca 2b3e 3163 5cbe f464 c8bd 194d 9a3e
000003d0: cb1a 0cbe ad0a 843e bb6d d7bd 6800 40be
000003e0: 4488 9c3e 9d75 e5bd 3c42 dfbd a81b 07bd
000003f0: 1763 16bc 7e6f 37bd fdf2 b23e 429b 2fbe
-0.2506326 -0.04828268 -0.2634702 0.24914499 0.22704366 -0.14705727 -0.09543199 -0.2434935
0.15518945 0.04112332 0.12464025 -0.25141117 -0.018346231 0.3822093 0.18977162 0.24243744
-0.15576275 0.050679293 -0.16219108 0.23005132 -0.19452065 -0.21064883 -0.16502166 0.11731351
-0.12567952 0.3956662 0.08225795 0.34126735 -0.08266777 0.09643336 0.15139845 0.23122334
-0.20554544 0.28137642 -0.2212531 -0.037163176 -0.13754141 -0.09134049 -0.055564288 0.011687525
0.21494645 0.024403563 -0.027565986 0.3664552 -0.03917399 0.19171382 0.17304377 -0.0342017
-0.18908831 0.26300544 0.33712077 -0.034603707 0.1671819 -0.067495175 0.46835306 0.10501223
0.087136514 -0.0406413 -0.15637454 0.27988294 0.33111596 -0.019350007 -0.17341267 0.1982612
0.13762543 -0.15217954 0.016465493 -0.059373826 -0.2455217 0.31452754 0.107988074 -0.07442211
-0.02636951 0.20533437 0.416889 0.12229095 0.14313772 0.17472535 0.0133040575 -0.009857657
0.11312562 0.35965452 0.03448122 -0.27278784 0.23110816 -0.15425634 0.0067758975 -0.14690252
-0.11250162 -0.06387503 -0.14111473 -0.17313789 -0.028389739 0.04304893 0.12941018 0.34185082
-0.12936985 -0.010928761 0.142108 -0.33388925 -0.22940403 -0.10688151 -0.31566286 -0.25408578
-0.25147036 0.1338164 -0.27759227 0.064416625 0.007800238 -0.22978894 -0.027949477 -0.0024033873
0.04641367 0.3494027 -0.09271813 0.064616114 0.0517554 -0.18032977 0.30201524 -0.040481426
-0.16944715 0.114611655 0.1518542 0.26367232 0.006892586 0.17178836 -0.036065992 0.058041614
0.19049355 -0.14877667 -0.2411016 0.14284272 0.027151069 0.32128626 0.120022096 0.36365148
0.34574783 0.30099526 -0.18849248 0.33698335 0.03444824 -0.23482355 0.0078031207 -0.024643656
-0.052326698 0.19902745 -0.10788553 -0.033733174 0.24402533 0.2188338 -0.16382347 0.012191252
0.2700013 0.11359418 -0.09458999 0.18881807 -0.23412822 0.18513682 0.07141332 0.07944994
-0.12742482 0.3240194 -0.05032543 0.37959665 -0.20978153 0.044840913 0.2923697 -0.048161276
0.24672876 0.16100429 0.25186202 -0.08919053 0.21110241 0.34934464 -0.22621596 0.03858857
-0.12509906 0.23212558 -0.032498747 -0.1363871 -0.21774173 0.32491374 0.3128014 -0.15799752
0.23729973 0.26973072 0.33585238 0.26127774 -0.19741975 -0.21497746 0.3650742 0.28827682
-0.21965495 -0.21701977 0.1508594 0.16635382 0.111577936 -0.095888644 0.11396426 -0.07637929
0.07439172 0.0041519646 0.08518813 -0.18136403 0.43389523 -0.03288113 -0.11170992 0.056533024
-0.06165137 0.22855498 -0.06645867 -0.20849068 0.10788657 0.23874488 0.14602484 0.021666221
-0.27128038 0.006373083 0.3351371 -0.072733484 0.4066981 -0.119276755 -0.08978002 0.11228078
0.12956299 -0.20091999 0.0022195384 -0.06663652 -0.042289697 -0.013209536 0.32015413 -0.06204208
-0.20844921 0.017528027 0.2469562 0.0970571 -0.28653696 0.16186312 -0.15664904 -0.1908187
0.167765 -0.21522214 -0.0978488 0.30136946 -0.13682096 0.25789395 -0.10518976 -0.18750155
0.30572712 -0.112040736 -0.10901305 -0.03298536 -0.009178898 -0.04478406 0.3495101 -0.1714907

linear2.weight f4 [3, 256]
00000000: 696b 203e 1ee7 67bd 6978 b73b 0ac2 abbd
00000010: b5c9 f6bc 8e01 15be 2801 46be 1063 75bd
00000020: 4bea afbc 0ea0 64bd 5a33 89bd 20a6 9dbd
00000030: 9476 9fbd 9fb7 93bd 9716 ecbd 87d4 c4bd
00000040: 0d4c 703c 8587 34be f98d c4bd 2682 85bd
00000050: 4a09 09be a7a2 4e3c 64c4 40be 1c37 27be
00000060: e8e7 d9bd 29bd 06be 3538 9b3d fdcb 9fbd
00000070: 2393 593c 1517 e3bc 43f7 2b3c 1ad0 b3bd
00000080: 7bd8 f1bc 82da 9f3d 877d f2bd 8fc3 bdbc
00000090: d754 05be 05d5 7ebd 6f9f b73b 0d20 743d
000000a0: 376d 443d 8ce5 b5bd 88da 4c3c 5b07 a0bc
000000b0: 8b2c 15bc 92d0 c03b 9382 8abd 7642 15be
000000c0: cc91 09be d284 9b3c f1d6 9abc b97d 4abe
000000d0: d92b 0a3d 4df6 8abd 765e 8ebd f78b b53c
000000e0: c4d0 74bb 97ff 7a3d f1be 11be 0057 1e3c
000000f0: 53c2 adbd d725 bfbc bb9b debd 0310 c6bd
00000100: 413f 813d df1c 1abe c721 20be 2edf fabc
00000110: 67a2 62bc 3ecf a2bd af6d 89bc 1a5b e7bb
00000120: ccf8 33bd 2370 08bb d825 dabd c2c6 063a
00000130: 39cc 1abe 1b48 273d 71cb 933d 7273 00bd
00000140: cfe9 5dbd 54df c2bd 1fa0 51bc 8e08 e83d
00000150: 803c 163d be40 75bd c98f 0bbe 92f1 51bd
00000160: 455f 8abe 94a8 00bd ecba eabc ec0a f83c
00000170: 0089 57be 2c41 cebd 3fc8 103e c0bc 30bd
00000180: 7c29 1fbe a836 0c3c aa25 2ebd 9a32 9fbb
00000190: e584 abbd d55c 04be 811c 44bc 0bc9 fa3a
000001a0: 1e74 87bd 988c de3d 6c90 023e 5a1c 10be
000001b0: aaee 0c3c 00c1 2a3c 16c2 1ebe b09d 4abd
000001c0: 2bad 80bd 9586 84bd 1306 c2bd 6008 533d
000001d0: 4042 cfbd 4e9a 4abe b778 d6bd 18fe 803c
000001e0: 6746 f1bc dbb7 59bc 98d1 3dbd 9b34 07be
000001f0: 868e c0bd e140 a3bd b66a 16bd 42ff 27be
00000200: a726 c9bd eb90 82bd 824e 42be b161 85bd
00000210: 07b9 e6bd 2bca 9bbd fb3d 28be 259b aebd
00000220: b9dd 64bd a136 5bbd e420 f83c dd86 17be
00000230: 8e01 f3bd a0bb 35bd b00c 04be 7297 3b3d
00000240: fa9e 993d da74 0abe 5b9b 85bd 97a1 8a3c
00000250: 2b5c 28bd 5fd7 353d 2223 233c 09d1 263d
00000260: e0a3 b63b 534b 5cbc 8b89 76bd 5339 1fbc
00000270: d6af f7bd 116d e1bd beba ccbd b042 8bbd
00000280: 3350 c2bd 1022 b9bd 8ac8 473b 69d1 21bd
00000290: 87c9 023e ae3d 67bd 3fdf d9bd e30e 81bd
000002a0: 78a2 a5bd d2e5 7dbd 899b 90bd 9807 b7bd
000002b0: 5bb9 8cbd b849 62bd 943a 30be 5ceb 30be
000002c0: 606b ae3d 6be4 c5bc ae63 37be 69ff 57bd
000002d0: 6c12 993c ae26 f3bd 1dab 14bd 31a7 f7bd
000002e0: 178b dcbd 4f9a e0bd 2db7 dbbd 878e 1ebd
000002f0: ba3b e2bd bb91 773c 330e 0bbe 131a bfbd
00000300: 1803 80bc 510c e8bd 2dc6 a23c 9ed0 79bc
00000310: 1b08 e6bd 403c 06be 5d7a 34bc a86b debd
00000320: 9cf8 e5bd e5ca bf3d c8fc 7abd b285 573c
00000330: 4fdf f5bd c349 bcbd 6910 1ebe 93be f7bd
00000340: 9843 5cbc 1dad cfbd 015e 8b3c fa8c a6bc
00000350: 93fc a33d 412d 0abe d8ea cdbd 5c0a 2fbe
00000360: ee56 5dbd b107 333d 53db 99bd 96ee c5bd
00000370: f116 ccbd a0cb f3bd 743a cf3c d8c7 aabd
00000380: d9be 0ebe 69ee 9c3d 649e edbc c3fa 1bbe
00000390: fcab 203e aab5 b3bb d3a9 efbd 1ffc f7bd
000003a0: 8083 0ebe b48f 9ebe e9c9 8cbd 6cb1 4fbc
000003b0: 174c 5d3c 8dcc c2bc 5590 33be cc79 02be
000003c0: 2999 d6bc f6b7 9ebd 2191 b83b 03d2 cebc
000003d0: c66d f9bd 47ab 10bc 88ab 94bd 9bc9 7abd
000003e0: d695 78bb 85bd c43d afc5 d538 9436 fbbc
000003f0: acdc 21be bd1d 09be 4b39 593c 6113 7ebd
0.15665974 -0.056616895 0.005599071 -0.083866194 -0.030125478 -0.14551374 -0.19336379 -0.059908926
-0.021474024 -0.055816703 -0.06699248 -0.076977015 -0.07786289 -0.07212757 -0.11527746 -0.09610849
0.014666569 -0.17629822 -0.09597392 -0.065189645 -0.1338245 0.0126120215 -0.18824917 -0.16329616
-0.10639936 -0.13158096 0.0757908 -0.078025796 0.013279709 -0.027720967 0.0104959635 -0.087799266
-0.029522171 0.07805349 -0.11840349 -0.023164539 -0.13020645 -0.06221487 0.0056037228 0.05960088
0.047955718 -0.08881673 0.012503274 -0.019534757 -0.009104858 0.0058842385 -0.06763186 -0.14576134
-0.13434523 0.018984232 -0.01890132 -0.19774522 0.033733223 -0.067852594 -0.06951611 0.022161467
-0.003735588 0.061278906 -0.14232995 0.009664297 -0.0848433 -0.023333473 -0.10869547 -0.09671023
0.06310893 -0.15050076 -0.15637885 -0.030623998 -0.013832665 -0.079496846 -0.016775934 -0.0070604207
-0.043938443 -0.0020818792 -0.10651749 0.00051413116 -0.15116967 0.04084025 0.07216538 -0.031360097
-0.054178055 -0.09515253 -0.0127945235 0.11329757 0.03667879 -0.059876196 -0.13629068 -0.05125577
-0.2702581 -0.03141077 -0.028653584 0.030278645 -0.21048355 -0.10071024 0.14138888 -0.043148756
-0.15543169 0.008557953 -0.042516388 -0.004858327 -0.08374957 -0.12926038 -0.0119696865 0.0019133402
-0.066139445 0.1086666 0.12750405 -0.14073315 0.008601824 0.010421991 -0.15503725 -0.04946679
-0.06283029 -0.06470982 -0.09473815 0.05152166 -0.10120058 -0.19785425 -0.10472243 0.015746161
-0.029452516 -0.0132884635 -0.046342462 -0.13203661 -0.09402184 -0.07971359 -0.03672286 -0.16405967
-0.098218255 -0.06375297 -0.18975261 -0.06512774 -0.1126576 -0.0760692 -0.16429894 -0.08525685
-0.055875514 -0.053518895 0.030289121 -0.1479754 -0.11865531 -0.044368386 -0.12895465 0.045798726
0.075010255 -0.13521138 -0.06523772 0.016922755 -0.041103523 0.044394847 0.009957107 0.040726695
0.0055737346 -0.013445693 -0.060189765 -0.009718257 -0.12094085 -0.11007131 -0.09996556 -0.06799829
-0.09487953 -0.090397 0.003048452 -0.03950635 0.12772189 -0.056455307 -0.10638284 -0.063016675
-0.08087629 -0.06198675 -0.07060916 -0.08936995 -0.06871291 -0.055246085 -0.17209846 -0.17277282
0.08516574 -0.02415677 -0.17909119 -0.052733812 0.018685542 -0.11872612 -0.036296 -0.12092436
-0.10768717 -0.10966932 -0.107282974 -0.038710143 -0.11046548 0.015110428 -0.13579635 -0.09331145
-0.015626475 -0.11330474 0.019869888 -0.015247492 -0.11232015 -0.13108921 -0.011015502 -0.108603776
-0.11229059 0.09364871 -0.061276227 0.013154434 -0.12005483 -0.091937564 -0.15435947 -0.12096896
-0.01344385 -0.101404406 0.017012598 -0.020330895 0.08007159 -0.13493825 -0.100545585 -0.17093796
-0.05403798 0.043708507 -0.07512536 -0.09664647 -0.09965313 -0.11904073 0.025296427 -0.083388984
-0.1393999 0.07662661 -0.02900619 -0.15232377 0.15690607 -0.0054843025 -0.11702313 -0.12108635
-0.13917351 -0.30969012 -0.06874449 -0.012676578 0.013506911 -0.023779178 -0.17535527 -0.12741774
-0.02619608 -0.077499315 0.005632535 -0.025246626 -0.12179141 -0.008829898 -0.072592795 -0.061227422
-0.0037931106 0.096064605 0.00010193453 -0.030665673 -0.15806836 -0.1339025 0.013258289 -0.0620302

linear2.bias f4 [3]
00000000: f6d0 90bd 51c0 e7bd 233e 96bd
-0.07071106 -0.11315978 -0.073360704
