saved_models/model.pth (torch, 16863 bytes, 4 tensors)

linear1.weight f4 [256, 11]
-0.12063564 -0.09751628 -0.14126195 0.22243251 0.016011272 -0.11350152 -0.2298658 0.11312927
0.22123672 0.20152894 -0.29195234 0.084847815 -0.17302848 -0.29893103 0.27180266 -0.18191677
-0.28365058 0.1052453 -0.16369088 0.12297572 0.19872288 0.17686722 -0.1973506 0.28203502
0.02951034 0.29426944 0.14148179 -0.03353104 0.11251165 0.10682645 -0.000270317 -0.15125236
-0.19281878 -0.16701354 -0.013377398 0.0064525604 -0.072111316 -0.26018232 0.17457713 -0.29567856
-0.11137244 0.015270301 -0.08306912 -0.20862477 0.22391012 -0.05602211 -0.020424366 0.27528727
-0.27699852 0.10918686 0.21336542 -0.17796554 -0.020243963 -0.10201504 -0.053239033 -0.079163104
-0.15988429 -0.26088905 -0.21808088 -0.077174515 0.029448032 0.13216041 -0.04248367 -0.17493169
-0.09635136 0.10076609 -0.28308016 -0.09071577 -0.060149107 0.2664453 -0.052961674 -0.14468843
0.17045406 0.29563385 -0.09480999 0.16191174 -0.009854227 0.14839606 -0.035273634 0.014022576
-0.14144209 -0.2967917 0.09731946 0.28632817 0.15807347 0.19438738 0.038195 -0.11035144
-0.13200217 0.021442622 0.24298616 0.28416583 -0.22265992 -0.05304192 0.22742495 -0.15894763
-0.04694196 0.013890931 -0.21180964 0.25325647 -0.26345366 -0.2815608 -0.052369304 0.1795381
0.1854185 0.119540475 0.24607262 -0.06959691 -0.07450596 0.23843515 -0.0064575234 0.11635604
-0.28741887 0.25693178 -0.08427593 0.12343281 0.29423776 0.26065773 0.20781313 -0.07763191
-0.039022863 -0.26268268 -0.10706222 -0.22782733 -0.21553122 -0.04707503 0.11772445 0.21915428
0.14270476 -0.09782404 0.2939719 -0.28774628 0.2659311 -0.17563736 0.11455497 0.25300404
0.28214794 -0.05265376 0.11681306 -0.18535414 0.031509195 -0.10310299 0.05084279 0.20657375
0.10789577 -0.2985558 0.160514 0.22136563 -0.055873677 0.23396394 -0.037062492 -0.053459033
-0.30034584 0.22762984 -0.013998924 0.09287673 -0.24355897 -0.028740002 0.016533861 -0.040873215
-0.16992109 -0.14223954 -0.19690359 0.012617688 0.031790465 0.2026479 -0.08761669 0.13420868
-0.10922905 0.035916205 -0.22365911 0.19554646 -0.23559768 0.21476576 0.2787922 0.1552032
0.16070482 -0.19502355 0.14261872 0.012694031 0.28319508 0.04028353 0.15302235 -0.18153492
-0.20820951 -0.02346912 -0.101254255 0.24129216 0.029176444 -0.23071998 0.21384515 0.27513546
-0.08210571 0.1465152 -0.17120694 -0.14285272 -0.008435394 0.049051553 -0.22584122 0.19842666
0.20618585 0.035279125 -0.29126427 0.07120058 0.24769536 -0.27802065 0.01250357 -0.27872404
0.030721903 -0.14598209 -0.09081235 0.19511025 0.18197529 0.00027380243 0.16655993 0.20317723
-0.27002668 -0.09815404 -0.11206712 0.12996742 0.10870424 0.2681653 0.08837746 0.23714945
0.007848304 0.020396678 -0.028656816 0.21146978 -0.295261 0.2716273 -0.033862352 -0.2483925
-0.1497307 0.19237499 0.17361063 -0.29841202 -0.17412902 0.18521242 0.2763147 -0.004160228
-0.11788127 -0.27234372 0.2277944 0.10629762 0.16369562 0.02905345 -0.20568809 -0.08981612
0.270596 -0.22606613 0.07140464 -0.14281124 -0.23051018 0.10984889 0.1460608 0.2537114
00000000: d20f f7bd 9eb6 c7bd f9a6 10be 59c5 633e
00000010: 122a 833c 7c73 e8bd f161 6bbe 52b0 e73d
00000020: e18b 623e 9a5d 4e3e c77a 95be b1c4 ad3d
00000030: 612e 31be 7d0d 99be b829 8b3e 6448 3abe
00000040: a63a 91be d98a d73d 959e 27be b2da fb3d
00000050: 037e 4b3e ae1c 353e 4716 4abe e566 903e
00000060: abbf f13c 7caa 963e 9ae0 103e d857 09bd
00000070: 826c e63d d3c7 da3d 55b9 8db9 e6e1 1abe
00000080: 4972 45be 9905 2bbe e02c 5bbc 0070 d33b
00000090: 19af 93bd 9e36 85be 59c4 323e 2e63 97be
000000a0: 3c17 e4bd 4930 7a3c 2520 aabd bba1 55be
000000b0: b248 653e 7177 65bd 0051 a7bc 74f2 8c3e
000000c0: c0d2 8dbe 5c9d df3d 777c 5a3e 993c 36be
000000d0: abd6 a5bc 43ed d0bd 2c11 5abd 4420 a2bd
000000e0: b5b8 23be 4093 85be 9850 5fbe ac0d 9ebd
000000f0: 003d f13c 0f55 073e 5b03 2ebd 4b21 33be
00000100: dd53 c5bd 745e ce3d e2ef 90be 31c9 b9bd
00000110: e95e 76bd 856b 883e 57ee 58bd 3429 14be
00000120: 828b 2e3e 525d 973e bd2b c2bd 31cc 253e
00000130: a073 21bc 23f5 173e 167b 10bd f2be 653c
00000140: 32d6 10be 15f5 97be 6d4f c73d 9b99 923e
00000150: 03de 213e 7c0d 473e 5c72 1c3d f0ff e1bd
00000160: 942b 07be 70a8 af3c 5dd1 783e 2f7e 913e
00000170: f600 64be 7c42 59bd 16e2 683e 2bc3 22be
00000180: 3646 40bd ca96 633c a0e4 58be d5aa 813e
00000190: 66e3 86be bd28 90be 3281 56bd d6d8 373e
000001a0: 59de 3d3e a3d1 f43d 76fa 7b3e d388 8ebd
000001b0: 9596 98bd 5828 743e a299 d3bb 134c ee3d
000001c0: 9128 93be 908c 833e dc98 acbd 57ca fc3d
000001d0: 55a6 963e ee74 853e f7cc 543e 7bfd 9ebd
000001e0: 70d6 1fbd 587e 86be 7043 dbbd 914b 69be
000001f0: 37b4 5cbe bfd1 40bd 8419 f13d fb69 603e
00000200: 3221 123e f857 c8bd 7c83 963e 7b53 93be
00000210: 1f28 883e 48da 33be cc9b ea3d bf89 813e
00000220: b275 903e 78ab 57bd b03b ef3d 7acd 3dbe
00000230: c90f 013d a927 d3bd 8840 503d 1288 533e
00000240: 75f8 dc3d 4edc 98be c85d 243e acad 623e
00000250: ccdb 64bd 3e94 6f3e d7ce 17bd dcf7 5abd
00000260: eec6 99be cc17 693e be5b 65bc 2836 be3d
00000270: 8667 79be 2770 ebbc 0572 873c ac6a 27bd
00000280: cbff 2dbe 3ea7 11be 18a1 49be 6bba 4e3c
00000290: b836 023d ee82 4f3e 6170 b3bd 006e 093e
000002a0: 7bb3 dfbd df1c 133d e506 65be 553d 483e
000002b0: 8540 71be 8eeb 5b3e dabd 8e3e 96ed 1e3e
000002c0: ce8f 243e 41b4 47be a40a 123e a0fa 4f3c
000002d0: f2fe 903e 5800 253d e4b1 1c3e 4ae4 39be
000002e0: e034 55be 5042 c0bc 645e cfbd 4b15 773e
000002f0: 7003 ef3c dc41 6cbe 39fa 5a3e 8ede 8c3e
00000300: 0a27 a8bd 1508 163e df50 2fbe fc47 12be
00000310: 9b34 0abc 48ea 483d ec42 67be 5c30 4b3e
00000320: 6222 533e d880 103d 9720 95be 9cd1 913d
00000330: daa3 7d3e b958 8ebe c6db 4c3c ebb4 8ebe
00000340: 80ac fb3c 547c 15be d3fb b9bd fbca 473e
00000350: bb57 3a3e 248d 8f39 b08e 2a3e b10d 503e
00000360: f040 8abe fc04 c9bd 7283 e5bd 2e16 053e
00000370: 54a0 de3d f64c 893e 3eff b43d 4ed7 723e
00000380: 2c96 003c ef16 a73c b3c1 eabc 898b 583e
00000390: 732c 97be bc12 8b3e 40b3 0abd 9b5a 7ebe
000003a0: 0153 19be f3fd 443e fcc6 313e 76c9 98be
000003b0: e14e 32be 53a8 3d3e 1f79 8d3e 8652 88bb
000003c0: bc6b f1bd a370 8bbe ef42 693e 91b2 d93d
000003d0: d39f 273e 8001 ee3c e69f 52be 84f1 b7bd
000003e0: 8f8b 8a3e e17d 67be 993c 923d 1c3d 12be
000003f0: dc0a 6cbe 74f8 e03d f690 153e 76e6 813e

linear1.bias f4 [256]
-0.11532309 -0.091055304 -0.1586326 0.11727626 -0.033626486 -0.002444485 0.10923426 0.025025263
-0.08229247 0.083912164 0.021605648 -0.10200634 -0.2800474 -0.19881073 0.26509723 0.13132885
-0.08409652 0.052616417 -0.12306144 0.16919644 0.062709734 0.17049424 -0.24788795 -0.005857557
0.15840927 0.15280378 -0.002963367 0.22188137 -0.14362846 -0.044934202 -0.15537661 -0.113606654
-0.24529722 -0.025908554 -0.20419054 -0.20589188 -0.15174969 -0.070670605 0.16592993 -0.02816611
-0.25122076 0.26404414 0.08189767 -0.20193523 0.16535135 0.020693157 0.1350708 0.2730493
-0.09506536 -0.001959041 0.16171323 -0.018313829 0.09847975 -0.28130507 -0.18351401 0.26054904
0.12162486 -0.07433768 -0.1849824 0.1350093 -0.2884082 0.19496368 -0.18735746 0.16000415
-0.25112274 0.20425831 -0.21233639 0.11045382 0.1251431 -0.25450754 -0.038117107 -0.087673835
0.10467993 -0.12796487 0.1348246 0.23564094 0.0123065915 -0.030788047 -0.26436847 0.037375633
0.077534795 -0.06322662 -0.25021863 -0.043429516 -0.14556675 0.2601379 -0.24551287 -0.23763609
-0.29629815 0.12786928 0.05865917 -0.20308584 0.2810429 0.059223086 0.25425625 0.14791349
-0.15760945 -0.27752855 0.17601503 0.16010615 -0.04594048 -0.23932904 0.20794542 -0.14276573
-0.23398589 -0.11486858 -0.03460723 -0.20678446 0.07343855 -0.27098203 -0.19488893 0.127896
0.12582965 0.009957121 0.27286232 0.24471162 0.2561708 0.036768187 0.00040595647 -0.2948723
0.15374237 0.18289721 -0.096954644 0.044124324 0.022270279 0.038346127 -0.12731569 0.07654206
0.21235433 0.22877322 -0.21960294 -0.06527358 0.28601533 0.26359046 -0.047121692 0.18565571
0.06865481 0.128858 0.18959858 0.29153633 0.22909659 0.2135788 0.23305781 -0.092410415
0.26761883 0.2866054 0.12935199 0.10926742 0.008856963 -0.26478463 0.043219738 0.24856314
0.08876528 -0.26757947 0.00047476703 -0.2826051 0.2500577 -0.0374754 0.11833594 0.04847485
0.012341847 0.27778473 -0.07143566 -0.0066335686 -0.14562327 -0.3027066 0.16078392 0.18690206
-0.14716408 -0.002769123 0.27378312 0.091162875 0.14747843 0.102060765 0.2055972 -0.03874393
0.17896423 0.12052211 0.15193096 -0.15222616 -0.18671614 -0.28382984 0.16275156 -0.09796019
-0.04863117 -0.16340347 -0.24167798 0.1787712 -0.071282476 -0.11842567 -0.023961216 -0.22104345
-0.14691362 -0.2804071 0.12474732 0.119753465 -0.07735206 -0.30728856 -0.2935476 -0.11936393
0.1040321 -0.25614595 -0.30120856 0.25361878 0.15477112 0.23704477 -0.2679512 -0.015770907
0.18694177 -0.21920109 -0.08263352 0.24077007 -0.13796327 -0.008100646 -0.13820417 -0.28681415
0.10866584 0.052556753 0.16474555 -0.07874986 0.23828077 0.15428594 -0.22820903 -0.21567191
-0.103547886 0.09336588 -0.05942517 0.016224751 0.26909783 0.04144048 -0.2931958 0.17070213
0.025719102 -0.035181955 0.10388231 0.12127757 0.008738003 -0.11553931 -0.05438195 0.024317354
-0.18250257 -0.2126993 -0.1775558 -0.13859753 -0.24318694 0.21106267 -0.23316237 0.03591959
-0.16679399 0.09310518 0.05013858 -0.01686386 -0.27140972 -0.08743677 0.024520252 0.076749936
00000000: 832e ecbd 347b babd 9670 22be 892e f03d
00000010: edbb 09bd a733 20bb 36b6 df3d c801 cd3c
00000020: f488 a8bd 24da ab3d 54fe b03c b3e8 d0bd
00000030: 5f62 8fbe 0a95 4bbe d3ba 873e 127b 063e
00000040: cc3a acbd 5084 573d a307 fcbd d541 2d3e
00000050: f66d 803d 0b96 2e3e 57d6 7dbe c0f0 bfbb
00000060: 0a36 223e 9878 1c3e 0c35 42bb df34 633e
00000070: 5713 13be ed0c 38bd 0c1b 1fbe 9baa e8bd
00000080: 322f 7bbe 2d3e d4bc 5317 51be 52d5 52be
00000090: 4564 1bbe c0bb 90bd 89e9 293e 9dbc e6bc
000000a0: 02a0 80be cb30 873e f7b9 a73d 1cc8 4ebe
000000b0: dd51 293e b284 a93c 0050 0a3e 1ecd 8b3e
000000c0: a1b1 c2bd 4163 00bb 2798 253e e206 96bc
000000d0: c0af c93d 3807 90be 19eb 3bbe af66 853e
000000e0: 7416 f93d 5b3e 98bd 076c 3dbe e13f 0a3e
000000f0: 3daa 93be 8fa4 473e a2da 3fbe 21d8 233e
00000100: 2993 80be 1729 513e b66e 59be 9d35 e23d
00000110: 8325 003e d04e 82be af20 1cbd 578e b3bd
00000120: 6e62 d63d 3909 03be 760f 0a3e dc4b 713e
00000130: 96a1 493c 3737 fcbc 4e5b 87be 3117 193d
00000140: 90ca 9e3d f57c 81bd a81c 80be 26e3 31bd
00000150: 730f 15be cb30 853e ba67 7bbe e056 73be
00000160: 64b4 97be 2af0 023e 9944 703d bcf5 4fbe
00000170: dbe4 8f3e e893 723d e02d 823e a276 173e
00000180: 5f64 21be 3918 8ebe 493d 343e def2 233e
00000190: 162c 3cbd ac12 75be a5ef 543e 2e31 12be
000001a0: ff99 6fbe 3840 ebbd 50c0 0dbd 4ebf 53be
000001b0: f366 963d 28be 8abe f790 47be 2bf7 023e
000001c0: 7dd9 003e 3123 233c 9cb4 8b3e af95 7a3e
000001d0: d228 833e 3d9a 163d 8ed6 d439 81f9 96be
000001e0: a46e 1d3e 6849 3b3e 2890 c6bd b5bb 343d
000001f0: 2970 b63c d410 1d3d 0b5f 02be 15c2 9c3d
00000200: 6a73 593e 8743 6a3e 98df 60be 28ae 85bd
00000210: 9a70 923e 54f5 863e ad02 41bd 881c 3e3e
00000220: e59a 8c3d 5af3 033e 2126 423e 4044 953e
00000230: 4c98 6a3e 67b4 5a3e b5a6 6e3e ac41 bdbd
00000240: 5605 893e f1bd 923e d974 043e 99c7 df3d
00000250: cc1c 113c da91 87be 2e07 313d 5687 7e3e
00000260: 92ca b53d 2d00 89be 27ea f839 9eb1 90be
00000270: 9007 803e ce7f 19bd 1d5a f23d 908d 463d
00000280: 7535 4a3c cd39 8e3e dc4c 92bd 685e d9bb
00000290: 441e 15be 5cfc 9abe 8aa4 243e 4163 3f3e
000002a0: 2eb2 16be 2d7a 35bb 4d2d 8c3e 9ab3 ba3d
000002b0: 9604 173e 3c05 d13d 1388 523e f5b1 1ebd
000002c0: 6642 373e 4cd4 f63d ca93 1b3e 2de1 1bbe
000002d0: 8432 3fbe 2552 91be 58a8 263e 5a9f c8bd
000002e0: 7a31 47bd 3d53 27be 6f7a 77be cc0f 373e
000002f0: 8cfc 91bd 2889 f2bd 504a c4bc 3759 62be
00000300: 8670 16be 8591 8fbe 867b ff3d 4e41 f53d
00000310: c26a 9ebd ed54 9dbe df4b 96be 1375 f4bd
00000320: c80e d53d 9025 83be 0238 9abe 52da 813e
00000330: 527c 1e3e ddbb 723e e630 89be fd31 81bc
00000340: aa6d 3f3e 4076 60be c33b a9bd 6e8c 763e
00000350: 3e46 0dbe 92b8 04bc 6585 0dbe 4ed9 92be
00000360: 328c de3d c045 573d 0fb3 283e 9b47 a1bd
00000370: e0ff 733e 22fd 1d3e a1af 69be 19d9 5cbe
00000380: ea10 d4bd 9c36 bf3d cf67 73bd c5e9 843c
00000390: 31c7 893e 7ebd 293d c31d 96be 8acc 2e3e
000003a0: deb0 d23c f41a 10bd 40c0 d43d 6060 f83d
000003b0: d729 0f3c e09f ecbd 9cbf 5ebd 3035 c73c
000003c0: f4e1 3abe d8cd 59be 30d1 35be 83ec 0dbe
000003d0: ff05 79be d020 583e 1ec2 6ebe 6c20 133d
000003e0: 0bcc 2abe eead be3d 1d5e 4d3d 1426 8abc
000003f0: 37f6 8abe 0d12 b3bd b2de c83c 122f 9d3d

linear2.weight f4 [3, 256]
0.04665138 -0.0067011523 -0.026534429 -0.018633591 0.0068781106 0.032087795 -0.013443857 -0.0004321396
-0.032751754 0.05018249 -0.054262403 0.015502279 0.016215408 0.050812285 0.053703815 0.011971729
-0.059068598 0.036568493 -0.006049304 -0.030291596 0.048538297 0.015231673 0.05106853 -0.035146147
-0.045815773 -0.0491317 -0.025423702 -0.057302527 -0.03203264 0.0027375265 0.01945846 0.021620393
-0.009182729 0.044868246 0.032220103 0.048140302 -0.008854469 -0.00880624 -0.026522683 -0.01328104
0.0023051053 0.017549396 -0.026756216 -0.05280773 0.044844985 0.033844836 -0.052291453 0.008605121
-0.014752702 -0.006532105 0.00019194654 -0.02448866 -0.04439821 -0.035305586 0.025997601 -0.04329569
-0.056646604 -0.041591257 0.013411073 -0.036366202 -0.041338168 -0.015430082 0.023004424 0.04539933
-0.06108797 0.052860424 -0.036965903 0.031355526 -0.016706778 -0.03239432 -0.05682222 -0.038897555
0.0035646108 0.051955566 -0.032961275 -0.044431597 -0.043258227 0.011816568 -0.027630216 0.0032018877
-0.0033099907 -0.040127564 -0.027872957 -0.050669134 -0.0003843722 -0.046068884 0.061087422 0.006211184
0.02528894 -0.043052536 0.0011087178 0.036976844 -0.049558517 -0.029925771 0.06348173 -0.04557485
0.033449795 -0.012119286 0.05392966 0.041947547 0.05718731 0.025699085 0.013031841 -0.053558454
0.014793275 0.04582776 -0.027473375 0.005236611 -0.05153584 0.027831659 -0.030488174 0.023574378
0.044612255 -0.0604795 -0.042961862 -0.047876555 0.06633402 0.043443874 -0.03192194 0.046357214
0.046030197 0.050663613 -0.046024904 0.04929663 -0.039311133 -0.053204883 5.1867122e-05 0.012286679
0.048260085 0.004490359 -0.020319 -0.025333496 -0.05307154 0.029224426 -0.001094088 -0.053510617
-0.01503279 -0.046107046 0.060372345 -0.028581094 -0.0041695163 0.030248776 0.010174159 0.046502784
0.04507953 0.047862615 0.02441513 0.013787073 0.033682346 0.045630015 -0.053130455 -0.041235615
-0.032271817 0.056198396 0.0089623 -0.03952429 0.05737333 -0.019676883 -0.044984564 -0.037454523
-0.02049058 0.057568766 0.0043344116 0.021948649 -0.054590665 0.020244423 -0.04236052 0.015138707
-0.0061928616 0.057078928 -0.00032063088 -0.0596391 -0.01409311 -0.032897227 -0.057050377 0.061898533
-0.0069920504 0.013964192 -0.014253476 0.034637026 0.02165435 -0.004252787 0.012131786 -0.056829177
-0.012569847 0.03859453 -0.014625441 0.010941774 -0.038067922 0.027535893 0.019176774 0.02618751
0.006677478 0.0036952586 -0.022551818 0.0464085 -0.055159457 -0.039782215 0.05108939 0.026651891
-0.032696396 0.049633443 -0.05306945 0.05132891 0.011847272 -0.04108172 0.026442982 0.02918508
0.016803818 0.04686919 -0.05147878 0.025435707 0.06095521 0.033985194 -0.023305826 -0.02986935
-0.047287423 0.053981878 0.00666201 -0.031981412 -0.025428625 0.042466242 -0.054432444 -0.053776518
-0.01937669 -0.012763925 -0.05271455 0.051011223 0.02767669 0.02897627 0.05965519 -0.0051810145
0.048310645 0.0074210125 0.0038889588 0.037417244 -0.060184456 -0.04870195 -0.022720901 -0.03378102
0.023412878 0.061341055 0.031824276 -0.044317953 -0.043283418 -0.031889807 -0.05329778 0.017501164
-0.06176693 -0.036862988 0.05634121 0.011322307 -0.019180657 -0.03262063 -0.05076194 0.01564682
00000000: 8415 3f3d 5795 dbbb bb5e d9bc 79a5 98bc
00000010: c661 e13b 7e6e 033d a043 5cbc cc90 e2b9
00000020: b426 06bd 288c 4d3d 4142 5ebd 45fd 7d3c
00000030: 2dd6 843c 8b20 503d 88f8 5b3d 1225 443c
00000040: eaf1 71bd d8c8 153d 3d39 c6bb 1526 f8bc
00000050: 18d0 463d 448e 793c 3c2d 513d 68f5 0fbd
00000060: 52a9 3bbd 523e 49bd 5e45 d0bc 0eb6 6abd
00000070: a834 03bd 1368 333b 5967 9f3c 401d b13c
00000080: 2873 16bc c4c7 373d 3af9 033d c42e 453d
00000090: 5612 11bc 0c48 10bc 1946 d9bc b898 59bc
000000a0: 4011 173b c0c3 8f3c da2f dbbc eb4c 58bd
000000b0: 60af 373d e2a0 0a3d 902f 56bd 7efc 0c3c
000000c0: 51b5 71bc 450b d6bb 4245 4939 719c c8bc
000000d0: e6da 35bd 979c 10bd ecf8 d43c d256 31bd
000000e0: 4506 68bd 985b 2abd 1eba 5b3c baf4 14bd
000000f0: 3652 29bd 74ce 7cbc c673 bc3c a6f4 393d
00000100: 6137 7abd 2c84 583d 8f69 17bd a76e 003d
00000110: a7dc 88bc e8af 04bd 6bbe 68bd 0b53 1fbd
00000120: 3f9c 693b 5ccf 543d 6702 07bd e8fd 35bd
00000130: 8a2f 31bd 479a 413c c358 e2bc c3d6 513b
00000140: 6eec 58bb cd5c 24bd d455 e4bc 708a 4fbd
00000150: 9085 c9b9 bab2 3cbd ce36 7a3d 3087 cb3b
00000160: c02a cf3c db57 30bd 6552 913a 0875 173d
00000170: dffd 4abd e426 f5bc b602 823d b2ac 3abd
00000180: a702 093d f88f 46bc 59e5 5c3d 31d1 2b3d
00000190: 3e3d 6a3d e386 d23c 8183 553c 1c60 5bbd
000001a0: 7e5f 723c e4b5 3b3d d80f e1bc e097 ab3b
000001b0: 3f17 53bd 38ff e33c 56c2 f9bc 0e1f c13c
000001c0: 57bb 363d 5ab9 77bd c7f8 2fbd 351a 44bd
000001d0: 21da 873d 34f2 313d 95c0 02bd 10e1 3d3d
000001e0: 298a 3c3d a684 4f3d 9c84 3cbd 43eb 493d
000001f0: b604 21bd 5ded 59bd e68b 5938 114e 493c
00000200: 5eac 453d dd23 933b 0874 a6bc 3188 cfbc
00000210: 8b61 59bd 1068 ef3c 8067 8fba f32d 5bbd
00000220: 174c 76bc beda 3cbd fe48 773d e622 eabc
00000230: 70a0 88bb 48cc f73c 84b1 263c b479 3e3d
00000240: 50a5 383d 970b 443d 3d02 c83c 2de3 613c
00000250: 80f6 093d 8ae6 3a3d 529f 59bd ade6 28bd
00000260: 742f 04bd 4a30 663d 9cd6 123c 39e4 21bd
00000270: 4c00 6b3d 6a31 a1bc bc41 38bd ea69 19bd
00000280: dcdb a7bc 3acd 6b3d ae07 8e3b a7cd b33c
00000290: 769a 5fbd a2d7 a53c 3a82 2dbd 5708 783c
000002a0: 7ded cabb 98cb 693d 591a a8b9 2148 74bd
000002b0: cae6 66bc 3ebf 06bd a8ad 69bd 5189 7d3d
000002c0: 921d e5bb 11ca 643c 6987 69bc 8edf 0d3d
000002d0: 7764 b13c f75a 8bbb 66c4 463c b6c5 68bd
000002e0: c2f1 4dbc 4c15 1e3d 8c9f 6fbc 2045 333c
000002f0: 1ced 1bbd f492 e13c 9c18 9d3c 3087 d63c
00000300: bfce da3b 272c 723b 97be b8bc d716 3e3d
00000310: e2ee 61bd adf2 22bd 1c43 513d 1155 da3c
00000320: a8ec 05bd 704c 4b3d 5a5f 59bd 433e 523d
00000330: 0f1b 423c 4e45 28bd f49e d83c 8d15 ef3c
00000340: 29a8 893c e8f9 3f3d 6adb 52bd 8b5e d03c
00000350: 2cac 793d 0f34 0b3d dceb bebc 91b0 f4bc
00000360: 75b0 41bd 1a1c 5d3d fe4c da3b f1fe 02bd
00000370: b14f d0bc 15f1 2d3d 8ef4 5ebd c444 5cbd
00000380: ddbb 9ebc c81f 51bc 36eb 57bd 25f1 503d
00000390: 3aba e23c a55f ed3c 0059 743d 80c5 a9bb
000003a0: 62e1 453d f72b f33b e7dd 7e3b d342 193d
000003b0: fa83 76bd b27b 47bd 2f21 babc f85d 0abd
000003c0: 5dcc bf3c c240 7b3d 2c5a 023d be86 35bd
000003d0: f449 31bd e39e 02bd c64e 5abd 9a5e 8f3c
000003e0: 52ff 7cbd a5fd 16bd 0ac6 663d 3381 393c
000003f0: c120 9dbc 369d 05bd c1eb 4fbd c32d 803c

linear2.bias f4 [3]
-0.006294031 -0.059088733 0.03944509
00000000: 293e cebb 0707 72bd 2d91 213d
