saved_models/model.pth (torch, 16863 bytes, 4 tensors)

linear1.weight f4 [256, 11]
000000 81 2d 60 be bb 30 ed bd 35 2b 3f 3d 11 8a 88 be
       -0.21892358 -0.1158156 0.046672065 -0.26667836
000010 fc f6 f0 bc bf 7e 34 3e 42 00 bc 3c ae 7d 5a 3d
       -0.029414646 0.17626475 0.022949342 0.053342514
000020 87 46 83 bd fa cd eb 3d 06 bd 5a 3e 06 73 8f be
       -0.064099364 0.11513896 0.21361169 -0.28017443
000030 75 dc 83 3e 71 c5 88 3d e6 84 73 be 04 4c f5 bd
       0.25754133 0.06678284 -0.23781165 -0.119773895
000040 88 10 65 be 98 0b 40 be c4 87 88 3e 6c 67 83 3e
       -0.22369587 -0.18754423 0.2666608 0.25664842
000050 6f 5f 3b be 00 cd 85 be fa 9b 9a 3e c0 94 94 3b
       -0.18298124 -0.26132965 0.30197126 0.004534334
000060 65 36 10 bd 96 73 42 3e 0a 8c 6c 3e 55 ea 16 be
       -0.035208125 0.18989405 0.23100296 -0.14737828
000070 75 24 70 bd ac fb 18 be 89 5e 33 be 24 d9 ed 3d
       -0.058628518 -0.14939755 -0.17516531 0.11613682
000080 2f 4b 78 be f2 85 37 be ba f7 82 be d2 1f 2d 3e
       -0.2424743 -0.1792219 -0.25579625 0.1690667
000090 a0 d1 39 3e 29 cb d4 bd ab 25 eb 3d 23 39 fe 3d
       0.18146372 -0.10390312 0.11481794 0.12413242
0000a0 6a ce 0d be c9 64 76 be 58 77 e8 bd 51 39 4c 3e
       -0.13848272 -0.24061884 -0.11350888 0.1994374
0000b0 16 7b 56 3c 59 f8 f7 bd d4 fe d7 3d 9d 92 4b be
       0.013090869 -0.121079154 0.105466515 -0.19880147
0000c0 39 76 25 bd 17 22 39 3e 35 25 b8 3d 9e f0 49 3e
       -0.04039595 0.1807941 0.08991472 0.19720694
0000d0 2d 1e 76 3e bd 5f 63 3e 86 70 53 be 76 81 da 3d
       0.24034949 0.2220449 -0.20648393 0.10669224
0000e0 d9 7e dd bd ee 48 43 3e 99 53 8a bd 2a 42 82 3e
       -0.1081521 0.19070789 -0.06754226 0.25441104
0000f0 2e 2f ec 3d c2 5b 59 be 09 25 00 be 63 63 50 3e
       0.11532436 -0.21226409 -0.12514128 0.20350413
000100 6c dc 59 be e8 bb 4a 3e 93 65 19 be 14 13 04 3e
       -0.2127549 0.19798243 -0.14980154 0.12897903
000110 50 28 92 3d 1e c5 01 be ec 31 f4 3d 36 ef 6c 3e
       0.07136595 -0.1267285 0.11923584 0.23138127
000120 80 bd 17 be 1d 65 8f be e7 d2 a4 3d a3 13 37 3e
       -0.14818382 -0.2800683 0.08048039 0.17878585
000130 5b 75 b9 bd 1a fa f6 bd f2 d9 3d be f5 b9 97 be
       -0.09055587 -0.12059422 -0.18540171 -0.2963406
000140 e0 54 1e 3e 21 68 0c 3e 51 c4 9a be 6f 3e 9b be
       0.15462065 0.13711597 -0.30227903 -0.3032107
000150 07 6b 1e 3e e5 cc e5 bc 40 39 9f be 9c e3 14 be
       0.15470515 -0.028051803 -0.31098366 -0.14539951
000160 99 4e f2 bb ee 02 63 be 55 2d 35 3e 70 ea 15 be
       -0.0073946235 -0.22169086 0.17693074 -0.14640212
000170 cb e2 31 3e a5 5b 54 3e eb 79 8f 3e 62 8b 6b bd
       0.17371671 0.20738085 0.28022704 -0.057505973
000180 b2 c7 30 be 7b e5 7e be 5e 4e 7e be 90 ea 6f 3d
       -0.17263678 -0.24892227 -0.24834582 0.058573306
000190 ce 95 0b be 9e ea 90 be fe 6e 7b be 7a 19 21 be
       -0.13631365 -0.28304 -0.24554059 -0.15732375
0001a0 ea 78 93 bd 10 f0 76 3e eb 27 71 be 38 d7 2a be
       -0.07200797 0.24115014 -0.23550384 -0.16683662
0001b0 c0 a1 6a be 72 86 a3 3c 84 a2 8d 3e e9 eb 18 3d
       -0.22913265 0.01996157 0.27663052 0.037334356
0001c0 75 16 88 bd e6 43 67 3e 6f 74 41 bc 30 ef de bd
       -0.06644908 0.22584495 -0.011807545 -0.10885465
0001d0 8c 88 60 bd 0a 81 ea bc 59 e5 09 bd bd b8 f4 bd
       -0.05481772 -0.028625984 -0.03366599 -0.119492985
0001e0 5d be 5c be a6 f0 08 3e 5c 07 cd 3d ed ee 4f 3e
       -0.21556993 0.1337305 0.10011169 0.20305987
0001f0 e7 09 57 be 91 72 23 3e ec 78 28 3e 56 dc 5c be
       -0.20999871 0.15961672 0.16452378 -0.21568426
000200 45 d8 89 bc a4 3e 7b be a2 7a 81 be 0a 04 0c be
       -0.016826758 -0.24535614 -0.25288874 -0.13673416
000210 a3 bb 55 3e 59 d5 9e 3d e6 55 82 3d 42 92 21 be
       0.20872359 0.077555366 0.0636404 -0.15778449
000220 e4 c9 c0 3c 38 6c 98 be 78 65 af 3d 06 5c d0 bd
       0.023533769 -0.29770064 0.085642755 -0.10173802
000230 c0 ab 91 bd f4 9a 6f 3e ea 79 b4 3d 9f c1 61 3e
       -0.07112837 0.23398954 0.08812316 0.22046517
000240 70 a6 52 3e 9f 95 10 be e2 c8 39 bc 40 36 00 bb
       0.20571303 -0.14119576 -0.011339398 -0.0019563586
000250 3a 81 16 3e d2 2e 4d 3d ed 2f 87 3e 6c be 83 3e
       0.14697734 0.05009348 0.26403752 0.25731218
000260 d3 8a 55 3e ed 61 11 3e 40 c6 7f 3e 36 10 99 3d
       0.20853738 0.14197512 0.2497797 0.07473795
000270 ef f7 89 3e 55 b3 4e be 40 80 7e 3e 99 05 fe 3d
       0.2694697 -0.20185597 0.24853611 0.124034114
000280 ec eb 2e 3e 2f f9 4f 3d f8 49 af 3d d5 36 ce 3d
       0.17082185 0.05077475 0.0855903 0.10069052
000290 bc bc 22 3c 67 1a 7e bd f2 d4 6b 3e d0 10 c5 3d
       0.009932693 -0.062036898 0.23030451 0.09622347
0002a0 6c 64 86 3e e9 0a e8 3d a5 9e 23 be bc 28 9f bd
       0.2624849 0.11330206 -0.15978487 -0.07771441
0002b0 45 42 f6 3b 1b 76 90 bd 53 b0 8e 3e 1c 57 46 3e
       0.007515224 -0.07053777 0.278689 0.19369167
0002c0 ba 47 97 bb 17 d4 9b bd 38 f5 4f bd 61 f7 9d bd
       -0.004616705 -0.07608812 -0.05077097 -0.077131994
0002d0 00 2f 6d be 73 11 10 be 15 33 52 be ca 77 2c 3e
       -0.2316246 -0.14069156 -0.20527299 0.16842571
0002e0 0a 9e 1a be d8 1b 8f bd f4 43 2f 3e 4d 6e 88 bd
       -0.1509935 -0.06987733 0.17115766 -0.06661663
0002f0 f2 93 8b 3e f2 88 56 3e 18 4e 24 be 3f 99 77 3e
       0.2726131 0.20950678 -0.16045415 0.24179552
000300 dc cd 64 3e 20 b5 73 3e 1f 4a c3 bb 9e a0 80 be
       0.22344154 0.23799562 -0.0059597637 -0.2512254
000310 c8 c4 39 3e aa 3f c3 3d 4e 72 58 3e 82 ca 23 be
       0.18141472 0.09533627 0.21137354 -0.1599522
000320 49 1f 3a be 0f cd 99 3d 71 5a 0d 3e 58 39 88 3c
       -0.18175997 0.07509815 0.13804032 0.016628906
000330 4d 59 96 be 0e 84 87 3d 04 84 b7 3d 2a cc 09 3e
       -0.29365006 0.06616984 0.08960727 0.13456789
000340 1d 6e 66 be d8 0e 89 3e de ac a7 bc 39 39 db bd
       -0.22502942 0.26769137 -0.020468172 -0.10704274
000350 ac 5e 90 3d c8 b6 8d be a0 59 e1 3d f6 74 5e be
       0.07049307 -0.27678514 0.11003423 -0.21724305
000360 de 5a 76 bc f5 58 80 bd ba 29 fb 3c dd f6 a8 3c
       -0.015036313 -0.06266967 0.030659545 0.020625526
000370 d6 cb b1 bb 11 52 4a be 0d a4 4c 3e 4c ad 95 3e
       -0.0054259105 -0.19757868 0.19984455 0.29233778
000380 76 3b 9c be 77 28 46 3e 99 c0 7b be b6 95 a0 3d
       -0.30514115 0.19351374 -0.24585189 0.07841055
000390 3d e6 5b be 45 a2 52 3d 74 9f d0 3d 71 d4 56 3e
       -0.21474548 0.051424284 0.10186663 0.20979477
0003a0 fc f3 9e be 30 47 0b be 69 79 ed bd d6 4a e3 bd
       -0.3104552 -0.13601375 -0.11595423 -0.11098258
0003b0 32 73 5d 3d ad 77 6f 3c 43 b1 91 3e 7d 4c 85 3e
       0.054064937 0.014615935 0.28455552 0.26034918
0003c0 a5 66 35 be 7f 18 75 3e 56 0f 6a 3e 3a 88 54 3e
       -0.17714937 0.23935126 0.22857413 0.20755091
0003d0 23 a4 dc 3c de 41 56 bd 96 c0 b6 3c 08 bc 1a be
       0.026933735 -0.05230891 0.022308629 -0.1511079
0003e0 72 5f 0a be 7f 68 81 bd dd 3f 87 bd 6c 9f 7f 3e
       -0.13512972 -0.06318759 -0.06603978 0.24963158
0003f0 13 8a 40 3e 87 99 fd 3c 74 55 90 be 4c 11 8e be
       0.18802671 0.030956997 -0.28190196 -0.2774757

linear1.bias f4 [256]
000000 23 fa ab bd a6 82 86 be 30 53 be bc 15 06 5c be
       -0.08397319 -0.26271552 -0.023233026 -0.21486695
000010 e3 28 28 3e 17 24 20 3d e3 ed 46 bd c5 9a 4f 3e
       0.16421847 0.039096918 -0.04856671 0.20273884
000020 05 28 57 be 72 0e 9f bd f5 85 d2 bd 33 50 7e 3d
       -0.2101136 -0.07766427 -0.102794565 0.062088203
000030 6f 83 8c be 0b 90 0a be 42 cb 48 be 67 d2 55 be
       -0.27444026 -0.1353151 -0.19608787 -0.20881043
000040 e3 2b 5d 3e 80 79 8f bd 1b 1f 1f 3e 46 43 b0 bc
       0.21598773 -0.07005596 0.1553921 -0.021516453
000050 e2 cf 9a bc cc 73 23 3e 75 0b 97 3d 1e 76 e2 bc
       -0.018897954 0.15962142 0.07375232 -0.027644213
000060 93 a4 79 bd 18 9c 03 3e 8d 8d e1 3d 44 04 ad bd
       -0.060947966 0.12852514 0.11013327 -0.08448079
000070 75 9d 41 3e d2 f1 8b be 01 7d 80 be fb 7a 18 3e
       0.18907721 -0.27332932 -0.2509537 0.14890663
000080 39 8f 92 be eb e5 ed bd 12 58 a6 bd 1c f7 e7 bc
       -0.28624895 -0.11616119 -0.08122267 -0.028316073
000090 6a 08 81 3e 39 1d 4a 3e 7d 03 91 be 3d 2e 36 be
       0.25201732 0.1973771 -0.28322974 -0.17791076
0000a0 1a d0 6e 3e 98 51 ca 3d 9a 14 b1 bd a2 04 79 be
       0.23321572 0.09878844 -0.086465076 -0.24318174
0000b0 ae b3 41 3e 41 2d 27 3d 65 4b 8e be 8d f5 69 3d
       0.18916199 0.040814642 -0.27791896 0.05711894
0000c0 95 db c3 3d fb 35 9a 3e 56 0b 21 3e 72 c2 82 be
       0.09563366 0.3011931 0.1572698 -0.25538975
0000d0 9c d9 27 3e b6 5b 20 3e be 7c 42 3e 37 d2 85 be
       0.16391605 0.15659985 0.18992898 -0.26136944
0000e0 5e 60 7d 3e 1c 15 84 be ae 07 18 bd de c3 f3 3d
       0.24743792 -0.25797355 -0.0371167 0.11902593
0000f0 08 17 36 3c 25 f5 2a 3e 23 2d 2a bd 05 70 cd 3d
       0.0111138895 0.16695078 -0.041546952 0.10031132
000100 ef 35 07 3e 7b 52 27 3e fd cb 02 3d b9 2c d8 bd
       0.13204168 0.16340058 0.03193282 -0.10555405
000110 bc 2e 28 be 48 cb 8b bd f4 cc 98 be 79 b4 85 3e
       -0.16424078 -0.06825882 -0.29843867 0.26114252
000120 7e 9d 6e be c5 42 09 3d 75 68 c4 3d 25 f5 68 3e
       -0.23302266 0.033510942 0.09590236 0.22749765
000130 c1 23 3b be 8a fb 06 3e a8 2e 84 bd 53 de 84 3e
       -0.18275358 0.13181892 -0.064542115 0.2595087
000140 bd 8d ff 3d b1 99 d0 bd c9 f3 86 bd a5 d8 40 3c
       0.12478206 -0.10185564 -0.06589467 0.011770402
000150 db 8d 12 be ad 53 61 3e 48 a9 86 be 98 48 0e 3d
       -0.14311926 0.22004576 -0.26301026 0.0347372
000160 90 d5 23 be cd ac 69 3e 18 b2 54 be 1a 34 18 3e
       -0.15999436 0.22819825 -0.20771062 0.14863625
000170 ae 85 76 3e 72 4f 34 be 85 d3 2c bd 09 8c 4e be
       0.24074432 -0.17608431 -0.04219391 -0.20170607
000180 c2 be 87 3b 3e f8 a1 3d 71 42 55 3e 06 a0 53 be
       0.004142613 0.079086766 0.20826127 -0.20666513
000190 74 8d b2 be 5b 3a 54 be 99 bd 1d 3c f3 92 29 3d
       -0.34873545 -0.20725386 0.009627723 0.041399907
0001a0 ab 19 53 3d 0f ff ab 3c a9 b6 47 3e 01 9c aa bd
       0.05153815 0.020995645 0.19503273 -0.08330537
0001b0 3f 63 1b be 47 90 5e bd 0a e4 7a bd 30 5d 81 be
       -0.15174578 -0.054336812 -0.06125263 -0.2526641
0001c0 37 50 00 be d1 25 1b be 44 ef fb bd 77 9e b8 3d
       -0.125306 -0.15151145 -0.12301496 0.090146
0001d0 d2 91 fe 3c cc 28 7f 3e 8d 6f 24 3e a3 91 8a 3e
       0.031075392 0.24917907 0.16058178 0.27064237
0001e0 c2 32 69 be 8c 33 8b 3d d5 5a 5e 3e 43 a5 9d 3d
       -0.22773269 0.06796941 0.21714337 0.07697537
0001f0 5b 7d 9d be 28 23 a3 bd b1 18 dc bc 66 12 8c 3d
       -0.307597 -0.0796569 -0.026867243 0.06839447
000200 cc 11 93 3c ab 40 cd bb de 4f 6e 3e 57 55 34 be
       0.017952822 -0.0062638125 0.23272654 -0.1761068
000210 2d bf 24 be a1 71 84 bd f8 31 e6 bd c2 db 09 3e
       -0.16088553 -0.064669855 -0.112399995 0.13462737
000220 b0 9f 1a be 68 d5 87 be a7 05 3e be 9c 00 3f be
       -0.15099978 -0.26530004 -0.18556844 -0.18652576
000230 16 a0 f7 3c c0 45 33 be b4 03 54 3e d3 60 0f be
       0.030227702 -0.17507076 0.20704538 -0.1400178
000240 72 2d 95 be b9 f0 8c 3e 6a 7b 3b 3e e2 ae a9 3d
       -0.29136235 0.27527407 0.18308797 0.082853094
000250 12 a1 5b bd ec 2a 8c be 73 6b ba be 13 e2 3b 3d
       -0.053620405 -0.27376497 -0.36410102 0.045869898
000260 8b 19 1d 3d c6 20 0f be 76 f4 87 3e 66 57 22 3d
       0.038354438 -0.13977346 0.26553696 0.03963413
000270 22 29 99 be 5b d1 85 be f2 5f 22 3e 3f 42 98 bd
       -0.29914194 -0.26136288 0.15856913 -0.074345104
000280 36 c6 79 3e a0 8d 4b be 3a b5 fe bd 83 87 c1 3d
       0.24392018 -0.19878244 -0.1243691 0.09449675
000290 f7 9f 05 be 1c a6 63 be 13 e7 e0 3d d7 47 37 be
       -0.13049303 -0.22231334 0.10981574 -0.17898498
0002a0 66 f7 80 bc 36 58 7f be c2 a6 90 bd 59 e4 3c 3d
       -0.015742969 -0.24935994 -0.070630565 0.046116207
0002b0 60 f1 36 be 54 15 39 3e c3 6d 91 3e f7 3a be bc
       -0.17865515 0.18074542 0.28404054 -0.023221476
0002c0 8b d4 ab be 52 10 3d 3e 30 b4 87 3d d0 2c 9b be
       -0.33560595 0.18463257 0.06626165 -0.30307627
0002d0 0d 9d 4c 3d 40 5c 35 be 35 6a 77 be 08 ac 26 3c
       0.049954463 -0.17710972 -0.24161609 0.010172851
0002e0 91 41 9f bd 29 51 1d be e0 99 49 3e 2a 20 3f bd
       -0.07776178 -0.15362991 0.19687605 -0.046661533
0002f0 86 1b 6e be 88 9f 3e be 1d 1f 55 bd f7 da 91 be
       -0.23252687 -0.18615544 -0.052031625 -0.2848737
000300 45 70 75 3d 52 80 03 be 43 a9 fc 3d 5e 54 a0 3d
       0.05992152 -0.12841919 0.123369716 0.07828592
000310 99 bb 75 bd 54 69 85 3d 4a 15 49 3e 57 2e 51 3e
       -0.05999336 0.0651423 0.19637027 0.20427833
000320 da 71 00 be 48 79 3d 3e b3 06 25 3b 18 d1 a2 be
       -0.12543431 0.18503296 0.0025180995 -0.3180015
000330 76 75 18 be a5 3e a7 be 67 eb 83 be 80 ad 5d 3c
       -0.14888558 -0.3266498 -0.25765535 0.013530135
000340 64 d6 44 3e a6 be 59 3c 5b a5 36 3e 9f 7b 21 3d
       0.19222409 0.013290083 0.17836516 0.039424535
000350 2a 81 77 3e ca 2a d4 bc ef 75 bd bd 75 48 cf bd
       0.24170366 -0.02589931 -0.0925101 -0.10121242
000360 ed cc 92 bc ef 46 9e 3d 65 7e 04 3e c7 e0 5d 3d
       -0.017919982 0.07728373 0.1293884 0.054169443
000370 2c 9f a8 3d 2a 87 47 3e d6 1c e0 3d 9b 64 e6 3d
       0.082334846 0.19485155 0.10943 0.11249658
000380 1b 06 8e 3e 74 41 23 3d 2e 26 94 be b1 29 6c be
       0.27739033 0.039857343 -0.2893538 -0.23062779
000390 4e e6 8f 3c e3 b5 06 bd 7c 20 4f 3e 50 c4 5a 3e
       0.017565873 -0.032888304 0.20227236 0.2136395
0003a0 a3 52 54 3a f6 a6 ba be 32 a9 24 3c 0b a0 90 be
       0.0008099472 -0.36455506 0.010050105 -0.28247103
0003b0 b9 44 16 be d2 e6 71 3e 3b 64 71 be 53 5f 44 3e
       -0.14674653 0.23623207 -0.23573391 0.19176988
0003c0 76 71 93 bd bb 56 b3 3d 02 ee 4a 3e 6c bf 2e 3c
       -0.07199375 0.08756777 0.19817355 0.010665756
0003d0 83 9e 8a be db 76 2c bd 35 5f 7b 3d 32 12 47 3e
       -0.2707406 -0.042105537 0.061370093 0.19440535
0003e0 9f 74 35 be 20 e6 84 be fc b3 41 bd c7 bc 6a be
       -0.17720269 -0.2595682 -0.047290787 -0.22923575
0003f0 ff 19 c2 bd 09 78 7a bd 63 a4 5c bb f7 1b 1e be
       -0.094776146 -0.06114963 -0.0033667318 -0.15440355

linear2.weight f4 [3, 256]
000000 08 96 12 3c 6d ad 0b bc d5 db b2 bd 84 49 03 3d
       0.008946903 -0.008525235 -0.08733336 0.03205253
000010 0e cf e0 bb bd 2f 0d bd dc 49 72 3d 3d 08 e4 3d
       -0.0068606203 -0.034469355 0.05915247 0.11134384
000020 cb 74 4e bc 33 b8 28 3d 11 25 0e bc 01 4b 82 bd
       -0.012601088 0.04119129 -0.0086758295 -0.06361962
000030 a8 b7 1f 3b e7 92 3a bd 49 95 57 bd bd 2d 4d bd
       0.0024370942 -0.045550253 -0.052632604 -0.050092448
000040 99 3b 2d bd 10 60 b1 bc 45 2b b5 3d e0 36 40 bc
       -0.042293165 -0.021652251 0.08846144 -0.011731833
000050 e5 7b cc 3c 01 20 55 bd 7e 74 0c bd 05 bf 93 bd
       0.024961421 -0.052032474 -0.034290783 -0.072141685
000060 59 40 be b8 0a 66 29 bc bd 02 04 bd f4 0c 15 bd
       -9.071892e-05 -0.010339269 -0.032229174 -0.036389306
000070 20 8b 5b bd 6d dd bf bc a4 4b 9d 3b 38 b2 68 bd
       -0.053599477 -0.023421014 0.004800277 -0.056810588
000080 66 db 3c bd d2 8d fe bd b1 45 9e bd d2 21 f4 3c
       -0.046107672 -0.12429394 -0.07728136 0.029801283
000090 a5 5b ec bc e6 a0 d4 3c 76 5f c1 bb 20 0e b4 3c
       -0.028852293 0.025955629 -0.0059012724 0.021979392
0000a0 9d 53 02 3c 0a 09 5a 3c 7b f1 a5 bb f1 95 36 bd
       0.007954505 0.013307819 -0.005064187 -0.04457659
0000b0 ac 10 fe 3c f9 4a 33 bc 2f 40 a3 bd 4c 53 5e bd
       0.03101381 -0.010943168 -0.079712264 -0.054278657
0000c0 4a 02 42 3d 7d 59 11 3d e6 b6 88 bc 2d 48 3f 3d
       0.047365464 0.035485733 -0.016688775 0.04669969
0000d0 2f 12 c5 bc 89 de 1e 3d 16 f9 e7 3c 71 ff b9 bd
       -0.024056522 0.038786445 0.028317016 -0.09081925
0000e0 2f e8 0d 3d d8 3e f7 bc 0f 08 ff 3c 6e ea 13 bb
       0.034645256 -0.030181333 0.031131772 -0.002257015
0000f0 54 22 12 bc bc 08 89 3d 00 68 e9 b9 b6 f3 de ba
       -0.008919317 0.06691119 -0.0004451871 -0.0017009887
000100 ff 61 30 ba 80 ca 2b bd 40 ac 78 bc 12 a4 85 3d
       -0.000672847 -0.041941166 -0.015177786 0.065254346
000110 2e e8 87 bc 9c 81 03 bd 7d 81 0a 3c 1f f9 ed 3c
       -0.016590204 -0.032106027 0.008453724 0.029049454
000120 8a 7c c0 ba ff f6 17 bd 07 1b d7 bc bd df ed bc
       -0.0014685553 -0.03710079 -0.026258005 -0.02903735
000130 b5 6e e2 bc 41 d7 ef 3b d8 4e 14 3e 93 69 1c 3d
       -0.02764068 0.0073193614 0.14483202 0.03818662
000140 53 ba 5f bd fb 5e 8c bd ca c3 6c bd b7 3b 1c bc
       -0.054621052 -0.068540536 -0.057803907 -0.0095357215
000150 9a 62 53 bb 80 d6 10 3c 8a 8a 7b bd b0 fa e8 3b
       -0.0032254816 0.008840203 -0.061411418 0.0071099624
000160 cc 3d cf bc 9e 95 c3 3c da 3a 6b bc 31 42 1e 3d
       -0.025298022 0.023875054 -0.014357293 0.038637344
000170 73 c9 22 3d d7 f8 ed bd b2 5f 98 3d e0 54 70 bc
       0.0397429 -0.11619728 0.074401274 -0.014668673
000180 42 c4 d7 bc c2 2b a2 ba ea 4e 32 3c b9 de 9a bc
       -0.0263387 -0.001237266 0.010883072 -0.01890503
000190 8b e2 b2 3b 5e c3 39 bd 52 ea 29 bd 91 24 d8 bd
       0.005459135 -0.045352332 -0.04148323 -0.105538495
0001a0 22 a3 89 bd 19 9a 48 bd 72 f9 64 bb dc 86 ce bc
       -0.06720568 -0.048975084 -0.003493872 -0.02521079
0001b0 8b 79 7c 3c 90 4f 85 3d 47 68 0d bd 04 26 c3 bd
       0.0154098375 0.06509316 -0.034523275 -0.09528735
0001c0 5a a6 82 3c 02 88 55 3d 4d a7 8c bd ee fa e3 bc
       0.015948463 0.05213166 -0.068678476 -0.027829614
0001d0 33 08 99 bb 0e 66 85 3d 7e ee a8 3c 43 fc 0a bc
       -0.004670167 0.06513606 0.020621534 -0.008482995
0001e0 93 ec b1 3c f9 2a 02 bd 0b 91 6b 3b 04 2a 3c bd
       0.021719253 -0.031779263 0.0035944607 -0.045938507
0001f0 89 d8 3f 3d 42 50 50 bd c3 81 51 3d 9b de d7 3c
       0.046837363 -0.05085779 0.05114914 0.026351264
000200 8d 5e 2c bd 74 27 f8 bd 06 c0 98 3c c3 da 93 3d
       -0.04208236 -0.121169 0.018646251 0.0721946
000210 f4 50 84 bc 0b f2 d7 3c 4f 28 5f bd fb 33 b4 bb
       -0.016151883 0.026360532 -0.0544818 -0.0054993606
000220 fd 86 d8 bc f4 96 76 3d e5 69 c2 bd 1b 4a dd 3c
       -0.026431555 0.060202554 -0.09492854 0.027012875
000230 b1 1d d3 3c 5c 15 e0 bc d7 25 dd 3c 44 ca 58 bd
       0.025770994 -0.027353935 0.026995583 -0.05292727
000240 7d 78 3f bc 4a e4 38 3c cc c4 11 bd 18 13 60 3b
       -0.0116864415 0.011284897 -0.03558807 0.0034191068
000250 8c 46 83 bd 46 82 68 3c 3d 62 e1 3a 2e 3b 13 bd
       -0.0640994 0.014191216 0.0017195415 -0.03594511
000260 ae fd a4 3c e6 ee bd 3c 8c f7 e6 3c be f9 d5 3d
       0.020140495 0.023185205 0.028194211 0.10448025
000270 78 da ad bc 08 b9 0a be e2 5d db bc b1 18 61 bc
       -0.021222338 -0.13547146 -0.026778165 -0.013738797
000280 f0 4f 82 3c 88 c4 34 bd 97 fd 50 bd df 44 a0 3c
       0.015907258 -0.04413274 -0.051023092 0.01956409
000290 bb 17 83 bc a1 bf 21 bd 26 f9 b4 bd d3 a3 75 3d
       -0.016002527 -0.039489392 -0.08836584 0.059970688
0002a0 63 dd d0 bc 0f 7e a4 bb bb 9f 2d 3b 48 1c c3 3d
       -0.02549619 -0.00501991 0.0026492912 0.095268786
0002b0 46 75 0c bb 71 cb a0 3b ed 80 51 3d b2 0e d8 bd
       -0.0021432205 0.0049070646 0.051148344 -0.10549678
0002c0 66 77 88 bc 5a 38 c2 3d 89 d8 0c 3d b3 82 e3 b9
       -0.016658496 0.094834045 0.03438619 -0.00043394192
0002d0 05 0c 0a bc 2d a2 2e bd 42 29 96 3d 47 64 7d bd
       -0.008425717 -0.04263513 0.07332088 -0.06186321
0002e0 75 69 66 3c 5f f1 d4 3d 6c 88 2e 3d 51 a8 88 bd
       0.014063229 0.103976004 0.04261057 -0.06672729
0002f0 52 67 e2 bc 15 44 e0 3d 8c 5e 90 3c 41 63 3c 3d
       -0.027637158 0.109504856 0.017623208 0.045993093
000300 0a dc 8a bd 20 d1 8f 3c 71 c0 69 3c da fc b6 3d
       -0.0678025 0.017555773 0.014267073 0.08934946
000310 a9 99 93 3c 21 17 e7 bb bf 77 d6 3b 88 cb 40 3d
       0.018017607 -0.0070523177 0.0065450366 0.047069103
000320 40 55 13 bd 0f b0 97 3d 6b e4 8e 3d 23 53 99 3c
       -0.035969973 0.074066274 0.06977161 0.0187164
000330 cb d2 54 3d 84 c4 1c bd 84 45 44 3c 4c d7 96 3c
       0.05195884 -0.03827335 0.011979464 0.018413208
000340 60 bd d6 3c 9c 09 a6 3c 96 40 9d 3d be 6c 46 bd
       0.026213348 0.020268254 0.076783344 -0.04844355
000350 62 7f 66 ba ca f2 a0 bc 08 f6 ba 3c 70 cb 68 bd
       -0.0008792785 -0.01964702 0.022822395 -0.056834638
000360 99 1d 3d 3d 50 10 ac 3d 16 3b 33 bc dd ce 7b bd
       0.046170805 0.08401549 -0.01093938 -0.061476577
000370 79 4d 8b bc d2 cd a1 3d c5 d7 91 3d f3 a3 26 3c
       -0.017004715 0.07900585 0.07121233 0.0101709245
000380 d5 7f ed bc 95 84 92 3d a4 e6 90 3c 46 44 d7 bb
       -0.02899162 0.07154194 0.017688103 -0.006569418
000390 da 1d d9 3c 25 53 a2 bd f7 b8 3c 3c 4c 13 5e 3c
       0.026503492 -0.07926015 0.011518708 0.013554405
0003a0 af a9 00 3c f6 9c a1 bb 49 96 2b bc 80 a7 2e 3d
       0.007852956 -0.0049320413 -0.0104728425 0.04264021
0003b0 f7 d3 0c be 8e ef c3 3c 60 1b c2 3d 0e 58 5d 3d
       -0.13752733 0.02391794 0.094778776 0.054039054
0003c0 cf c0 13 bc 99 86 a2 3d 6e 68 c4 3d cd 40 c0 3c
       -0.009018137 0.07935829 0.09590231 0.0234684
0003d0 a7 00 46 ba f0 43 9d 3d db e1 24 3d fb cc ee 3b
       -0.0007553198 0.07678974 0.040254455 0.007287619
0003e0 ce 94 18 3d 74 a4 df bd e8 eb 27 3d a4 a5 be bc
       0.037251286 -0.10920039 0.040996462 -0.023272343
0003f0 67 8b 0d 3e 92 23 5a bd 2a 96 26 bd 0c 99 8f bb
       0.13822709 -0.05325658 -0.04067055 -0.0043822583

linear2.bias f4 [3]
000000 54 3d 5e 3d 5c 0e 14 bd 62 0b 36 3c
       0.054257706 -0.036146507 0.011111112
