saved_models/model.pth (torch, 16863 bytes, 4 tensors)

linear1.weight f4 [256, 11]
0.14659682 0.039814137 0.021356467 -0.0016993193 -0.12534764 0.2851796 -0.15481178 0.17769094
-0.3552228 -0.331365 -0.34210336 0.093927525 0.11057668 0.0078216465 0.010131588 -0.15137707
-0.099272214 -0.19772515 -0.117021665 -0.1546676 0.13550104 0.07186629 -0.07329619 0.09169031
-0.11575319 0.14052331 0.039657805 0.078397565 0.016916562 -0.068593346 0.068663426 0.03740358
0.057104137 -0.30120206 -0.09104945 0.09319479 0.124028824 -0.26543957 -0.07029297 0.018192498
-0.0852417 -0.12870434 -0.3521737 -0.22559208 -0.34830603 -0.20537265 -0.2884225 -0.036127727
-0.031492326 0.06689688 -0.32560462 -0.18372793 -0.05449406 -0.13425595 -0.2252373 -0.025621245
-0.21260972 -0.103799485 0.049409755 0.12726852 0.09526455 0.046152867 0.020802453 0.11918294
-0.25598592 -0.10403808 -0.34253424 -0.020820735 -0.38671315 0.032701038 -0.018325847 0.07350342
0.020233786 -0.138136 -0.35291958 -0.07026566 -0.30563393 -0.16153662 0.025143262 -0.22466761
0.04317409 -0.15640196 0.3002828 -0.16397457 -0.16452105 0.26791164 -0.19084808 -0.32833347
-0.016475745 0.05238556 -0.12946156 0.03980586 -0.09252384 0.03683186 -0.2662927 -0.025149323
-0.019231573 -0.020573074 0.013011804 0.12539887 -0.034688372 0.11631756 -0.15682152 -0.31633756
-0.29972202 -0.24443753 -0.27284586 -0.4004837 -0.15546364 -0.13773283 -0.07160783 -0.35762295
-0.040342603 0.009755597 0.07341439 0.042315323 0.13786599 -0.08324447 -0.23907283 -0.36548957
-0.32228434 -0.28610176 0.09133107 -0.16211703 -0.07270288 -0.07955327 -0.115333505 -0.15822229
-0.22093469 -0.033483047 0.052990872 -0.0014421114 -0.28906962 -0.24989516 -0.05336258 0.0017167049
-0.17303772 -0.16727279 0.027726725 -0.12064465 0.06877053 -0.0642022 -0.117065564 -0.0104995705
0.024125872 0.219732 -0.014676076 0.0378804 -0.15911356 -0.09065481 0.049470596 -0.2925168
-0.194918 -0.11633251 -0.27863225 -0.03209785 -0.036745574 -0.15180802 -0.011729116 -0.0051587154
0.08832135 -0.06830807 0.04318105 -0.06930058 0.09289981 -0.2404482 0.0041050585 -0.245618
0.08467746 -0.101025075 -0.25589257 0.0038503285 -0.28751206 -0.3428323 -0.10966917 0.12816015
-0.17631306 -0.2858249 -0.28565753 0.02389595 0.023889154 0.20703384 -0.018360555 -0.022494059
-0.00082811946 -0.16975397 -0.14779171 0.0824403 -0.09220278 -0.09924998 0.022369942 0.094470695
-0.18037094 0.08225045 -0.34834275 -0.15473801 -0.058529347 -0.09547545 0.035187393 -0.05156866
-0.33216164 -0.17890754 -0.2672354 -0.01741435 0.050293144 0.09392228 0.07120023 -0.05876678
-0.06715363 -0.11020438 -0.09476867 0.063965596 -0.29558787 -0.004443876 -0.12730637 -0.13905191
-0.15459818 -0.0625165 0.0067045083 -0.049156416 -0.29604262 0.18384431 -0.17526351 -0.010089169
0.017053649 0.20704961 0.18157443 -0.1214285 0.025907233 0.087138675 -0.08164538 -0.25669542
-0.15875694 -0.13167006 0.08613051 -0.14087754 0.17531258 -0.19306251 -0.061191298 -0.053514827
-0.21660845 -0.087544255 0.11582813 0.016402874 -0.32068616 -0.20980136 0.08164497 -0.17749462
-0.25111267 -0.5025278 -0.30839178 0.11345332 -0.13871817 0.20900051 -0.038111247 -0.0032176734
00000000: 7a1d 163e 2614 233d c2f3 ae3c b2bb deba
00000010: 225b 00be 0f03 923e fb86 1ebe 9df4 353e
00000020: c3df b5be aca8 a9be 2c28 afbe 135d c03d
00000030: 0776 e23d 5d26 003c f6fe 253c 9702 1bbe
00000040: 3b4f cbbd 7678 4abe 0ea9 efbd 2f61 1ebe
00000050: c9c0 0a3e a22e 933d 501c 96bd 21c8 bb3d
00000060: 0210 edbd 58e5 0f3e 3970 223d e78e a03d
00000070: 9a94 8a3c ab7a 8cbd 699f 8c3d 7f34 193d
00000080: 07e6 693d 2837 9abe 2278 babd e9dc be3d
00000090: d302 fe3d b2e7 87be c3f5 8fbd 6f08 953c
000000a0: 3393 aebd 12cb 03be 1c50 b4be 9c01 67be
000000b0: 2b55 b2be 354d 52be 1dac 93be abfa 13bd
000000c0: 19fe 00bd 3b01 893d a6b5 a6be 2d23 3cbe
000000d0: 2a35 5fbd 647a 09be 9ba4 66be a5e3 d1bc
000000e0: 5db6 59be d394 d4bd e261 4a3d ae52 023e
000000f0: 0f1a c33d ca0a 3d3d e869 aa3c 2f16 f43d
00000100: 9610 83be eb11 d5bd a660 afbe 3f90 aabc
00000110: 44ff c5be 86f1 053d 1620 96bc f688 963d
00000120: 53c1 a53c 8673 0dbe e0b1 b4be 71e7 8fbd
00000130: 0d7c 9cbe db69 25be 3ef9 cd3c 440f 66be
00000140: 51d7 303d d627 20be abbe 993e f3e8 27be
00000150: 3578 28be b72b 893e ae6d 43be 531b a8be
00000160: 24f8 86bc 3e92 563d 9291 04be 780b 233d
00000170: 247d bdbd 01dd 163d 8457 88be f405 cebc
00000180: 888b 9dbc dd88 a8bc 762f 553c 9068 003e
00000190: 6515 0ebd e737 ee3d d295 20be fff6 a1be
000001a0: 2a75 99be d54d 7abe 74b2 8bbe 330c cdbe
000001b0: dc31 1fbe d609 0dbe 20a7 92bd 5b1a b7be
000001c0: 493e 25bd f1d5 1f3c 495a 963d d552 2d3d
000001d0: be2c 0d3e 147c aabd 82cf 74be 7321 bbbe
000001e0: 7402 a5be ee7b 92be c90b bb3d 0202 26be
000001f0: 3fe5 94bd d3ec a2bd f933 ecbd 0605 22be
00000200: b43c 62be 8525 09bd f50c 593d 3b05 bdba
00000210: ef00 94be 84e4 7fbe b892 5abd 0f03 e13a
00000220: cd30 31be 8f49 2bbe 2823 e33c 8b14 f7bd
00000230: 90d7 8c3d 717c 83bd 12c0 efbd 6406 2cbc
00000240: 9fa3 c53c 6d01 613e ed73 70bc 7a28 1b3d
00000250: aaee 22be 3ba9 b9bd aea1 4a3d c3c4 95be
00000260: 9698 47be bd3f eebd e3a8 8ebe 0979 03bd
00000270: 8782 16bd 9073 1bbe 7a2b 40bc 710a a9bb
00000280: d3e1 b43d 1ae5 8bbd 9dde 303d 76ed 8dbd
00000290: 4142 be3d 0e38 76be ba83 863b 4983 7bbe
000002a0: 606b ad3d 3ce6 cebd 5a04 83be cb55 7c3b
000002b0: c834 93be b787 afbe 3b9a e0bd 6a3c 033e
000002c0: 698b 34be a457 92be b441 92be 70c1 c33c
000002d0: 30b3 c33c ae00 543e e068 96bc 7645 b8bc
000002e0: 2816 59ba fcd3 2dbe b656 17be 76d6 a83d
000002f0: d0d4 bcbd 9343 cbbd 2b41 b73c da79 c13d
00000300: 29b3 38be ed72 a83d fb59 b2be a473 1ebe
00000310: 78bc 6fbd a288 c3bd a820 103d a939 53bd
00000320: 1711 aabe 8a33 37be 14d3 88be 8aa8 8ebc
00000330: 2f00 4e3d 535a c03d 6dd1 913d 6fb5 70bd
00000340: d887 89bd d5b2 e1bd 1416 c2bd 6500 833d
00000350: 4b57 97be ef9d 91bb 9a5c 02be a063 0ebe
00000360: fc4e 1ebe a708 80bd 7eb1 db3b 3d58 49bd
00000370: e692 97be af41 3c3e 4778 33be 0b4d 25bc
00000380: 18b4 8b3c d004 543e a6ee 393e 81af f8bd
00000390: 683b d43c c375 b23d b135 a7bd 956d 83be
000003a0: 2e91 22be 84d4 06be 3165 b03d 3442 10be
000003b0: 2485 333e 2eb2 45be baa3 7abd 5d32 5bbd
000003c0: 9bce 5dbe 674a b3bd 4c37 ed3d 525f 863c
000003d0: fa30 a4be 2bd6 56be 7a35 a73d 26c1 35be
000003e0: d791 80be a9a5 00bf 87e5 9dbe 375a e83d
000003f0: 230c 0ebe 3b04 563e 8a1a 1cbd 9adf 52bb

linear1.bias f4 [256]
-0.12808007 -0.30403626 -0.26836392 -0.13260753 -0.014270708 -0.25783747 -0.050251625 -0.14474224
-0.10826855 -0.016748495 0.055635054 0.013668689 -0.09676008 -0.39514437 -0.26047006 -0.03820395
-0.21652356 -0.11851786 -0.15548535 -0.1095939 -0.36998644 -0.13291402 -0.102521814 -0.31723553
-0.055202723 -0.0929549 -0.40194377 -0.29658845 -0.3115656 -0.12902091 -0.15048648 -0.37307686
-0.29357198 -0.13392238 -0.28474802 -0.0024255759 -0.008200161 0.06877945 -0.23779756 -0.08341037
-0.1429236 -0.21449439 -0.1877782 -0.0043871338 -0.30182162 0.08564806 -0.045855645 -0.08353835
-0.2141245 -0.3184438 -0.26232907 0.09456708 -0.21745089 -0.19034413 -0.012449103 0.027071986
-0.273171 -0.29118243 0.019486332 -0.17994219 -0.073788196 -0.059364676 -0.34409136 -0.10842995
-0.084320866 -0.15366094 -0.13891602 -0.07757133 -0.38807717 -0.14772017 -0.17339447 0.06891007
-0.16619056 -0.2924619 -0.34078583 -0.25815195 -0.11954862 -0.03006166 0.11437495 -0.2159304
-0.0051529305 -0.0101329805 -0.38246942 0.094924875 -0.13541128 -0.020509545 -0.1813546 -0.19310355
-0.40900263 0.12735376 -0.30872992 -0.25268883 -0.25048536 0.036364164 -0.13610813 -0.19528721
-0.19793688 -0.08577075 -0.15737355 -0.0734164 -0.2752689 0.0018661689 0.05207644 -0.19740465
-0.23058656 -0.07794985 -0.3303326 -0.2964605 -0.18962711 -0.25377476 -0.29287314 -0.09615555
-0.2164653 -0.061658017 -0.07202323 -0.38825938 -0.278743 0.05167835 0.016863203 0.10020183
-0.13414593 -0.018737849 -0.06372551 -0.035180524 -0.3692607 -0.15695941 -0.0757225 -0.27019677
-0.3431283 -0.038033113 -0.037488397 -0.29351225 -0.19185792 -0.23076372 -0.22203785 0.017464623
-0.42997926 0.010066394 -0.027886257 -0.00048178926 -0.2451341 -0.2057047 -0.14005938 -0.071787775
-0.27475283 0.16675891 0.032123435 -0.018400079 -0.33713266 -0.29978797 -0.3457485 -0.40282363
-0.34062263 -0.10807132 -0.1357641 -0.21813205 -0.22939438 -0.19457123 -0.2434213 0.0220904
-0.32581803 -0.20149837 -0.06762617 -0.31891155 -0.32788202 -0.29285052 -0.058988754 -0.07498481
-0.088122874 -0.083153866 -0.35489935 -0.29404998 -0.18166682 -0.15841502 -0.2689943 -0.16586299
-0.28452632 -0.23039617 -0.084474094 -0.33176717 -0.28874165 -0.34637094 -0.20795454 -0.16727954
-0.31892398 -0.05929211 -0.3367422 -0.12828937 -0.08918723 -0.14994648 -0.37700188 -0.31684458
-0.17904656 -0.06528211 -0.30012032 -0.19840173 -0.16520925 -0.18756571 -0.36779088 0.00086521753
-0.38622707 -0.05385917 0.16076814 -0.37127733 -0.23004787 0.10304804 -0.1840724 -0.24015775
-0.012215288 0.26904097 -0.19042513 -0.03306771 -0.12004871 -0.20061599 -0.14634168 -0.122193314
-0.05690943 -0.30077535 -0.11077152 -0.015034219 -0.0012377856 -0.18397813 -0.102672935 -0.22897477
-0.26518822 -0.10788513 -0.093444474 -0.05973485 -0.12418913 -0.12762348 -0.062389668 -0.22930783
-0.24626133 0.13950029 -0.28204113 -0.16497971 -0.20746468 -0.16773294 -0.01748101 -0.20968181
-0.2997079 -0.25017124 -0.19343469 -0.076208584 -0.25864285 -0.10290393 -0.30463582 -0.022405174
0.03981038 -0.27086124 -0.092897594 -0.010574448 -0.2842017 -0.12862885 -0.2137195 -0.22002834
00000000: 6c27 03be a4aa 9bbe ff66 89be 45ca 07be
00000010: b0cf 69bc 4603 84be a6d4 4dbd 4f37 14be
00000020: e7bb ddbd 2434 89bc 95e1 633d a3f2 5f3c
00000030: 262a c6bd 5d50 cabe 555c 85be bf7b 1cbd
00000040: 5ab8 5dbe 7eb9 f2bd 8d37 1fbe c472 e0bd
00000050: dd6e bdbe 9d1a 08be f5f6 d1bd b26c a2be
00000060: 401c 62bd 235f bebd 93cb cdbe 71da 97be
00000070: 8785 9fbe 0f1e 04be 2119 1abe ee03 bfbe
00000080: 114f 96be f322 09be 7eca 91be 69f6 1ebb
00000090: f859 06bc 3edc 8c3d 3481 73be 0ed3 aabd
000000a0: 905a 12be 6ba4 5bbe ee48 40be f2c1 8fbb
000000b0: 5d88 9abe 4068 af3d 21d3 3bbd 2816 abbd
000000c0: 7443 5bbe 110b a3be ff4f 86be 63ac c13d
000000d0: 72ab 5ebe 92e9 42be 53f7 4bbc 12c6 dd3c
000000e0: 12dd 8bbe dd15 95be cda1 9f3c c442 38be
000000f0: 441e 97bd 6028 73bd be2c b0be 8610 debd
00000100: 6bb0 acbd 4b59 1dbe 0040 0ebe b8dd 9ebd
00000110: 0db2 c6be f543 17be 528e 31be b920 8d3d
00000120: dc2d 2abe 91bd 95be 7b7b aebe 7e2c 84be
00000130: e8d5 f4bd df43 f6bc 6a3d ea3d dc1c 5dbe
00000140: ead9 a8bb cd04 26bc 08d3 c3be f967 c23d
00000150: 41a9 0abe a203 a8bc 05b5 39be f0bc 45be
00000160: cb68 d1be 0669 023e d911 9ebe 6e60 81be
00000170: 9e3f 80be 97f2 143d ee5f 0bbe 5ff9 47be
00000180: f7af 4abe 93a8 afbd 8826 21be 565b 96bd
00000190: 0cf0 8cbe 3d9a f43a 1b4e 553d 7224 4abe
000001a0: e21e 6cbe 2ca4 9fbd 5b21 a9be acc9 97be
000001b0: 9c2d 42be c4ee 81be 78f3 95be 33ed c4bd
000001c0: 14a9 5dbe 1e8d 7cbd ea80 93bd efc9 c6be
000001d0: 67b7 8ebe adac 533d b324 8a3c 9e36 cd3d
000001e0: 8d5d 09be 1e80 99bc 8582 82bd 7419 10bd
000001f0: bd0f bdbe f8b9 20be 6614 9bbd 3b57 8abe
00000200: 83ae afbe 9cc8 1bbd 6f8d 19bd 3d47 96be
00000210: 6776 44be 534d 6cbe e45d 63be f811 8f3c
00000220: 3e26 dcbe 84ed 243c b871 e4bc a998 fcb9
00000230: 6f04 7bbe 41a4 52be ba6b 0fbe 7805 93bd
00000240: 67ac 8cbe d9c2 2a3e dd93 033d c3bb 96bc
00000250: a79c acbe cf7d 99be f305 b1be e63e cebe
00000260: 1766 aebe 7f54 ddbd bf05 0bbe 025e 5fbe
00000270: 5ce6 6abe ae3d 47be 6f43 79be edf6 b43c
00000280: 9fd1 a6be 9755 4ebe 977f 8abd 6048 a3be
00000290: 27e0 a7be 81f0 95be 319e 71bd a391 99bd
000002a0: c479 b4bd 934c aabd 5eb5 b5be b88d 96be
000002b0: de06 3abe 8c37 22be 9fb9 89be fdd7 29be
000002c0: 6fad 91be f9ec 6bbe c100 adbd 63dd a9be
000002d0: f2d5 93be 8857 b1be 09f2 54be 544b 2bbe
000002e0: 014a a3be 49dc 72bd 7969 acbe 4a5e 03be
000002f0: cba7 b6bd 928b 19be 6406 c1be 7439 a2be
00000300: fb57 37be a0b2 85bd 5fa9 99be d329 4bbe
00000310: 9d2c 29be 3a11 40be 164f bcbe c4cf 623a
00000320: 8ebf c5be 6f9b 5cbd 67a0 243e 1018 bebe
00000330: ab91 6bbe da0a d33d 7a7d 3cbe eaeb 75be
00000340: a222 48bc bdbf 893e cefe 42be 0272 07bd
00000350: 19dc f5bd 476e 4dbe 98da 15be 7d40 fabd
00000360: dd19 69bd 3aff 99be 2edc e2bd 1652 76bc
00000370: 313d a2ba c364 3cbe 3046 d2bd 5d78 6abe
00000380: c0c6 87be e1f2 dcbd d15f bfbd 88ac 74bd
00000390: df56 febd bbaf 02be 4f8c 7fbd accf 6abe
000003a0: ee2b 7cbe 2ad9 0e3e b267 90be 71f0 28be
000003b0: 9f71 54be 2fc2 2bbe 5634 8fbc d4b6 56be
000003c0: 5073 99be 7216 80be be13 46be 3f13 9cbd
000003d0: d66c 84be 4cbf d2bd 3af9 9bbe 0e8b b7bc
000003e0: 3610 233d 53ae 8abe 1841 bebd 7340 2dbc
000003f0: e382 91be 48b7 03be 49d9 5abe 1c4f 61be

linear2.weight f4 [3, 256]
0.025513824 0.012255317 0.02525424 0.02963647 0.0015638331 0.032280095 0.05680635 -0.057429854
0.022921825 0.073249355 0.036388274 -0.00015327249 0.08400569 -0.015449365 -0.017580356 0.058957655
-0.04401361 -0.05067203 -0.036958195 -0.033849698 0.015974086 0.014155714 0.025167178 0.0019024789
0.012525603 -0.0117818015 -0.005171228 0.031756494 -0.06342543 -0.00035663103 -0.08146257 -0.34820902
-0.0015804863 0.033107005 0.0029980317 0.0121154105 0.15826789 0.06398973 -0.086377785 -0.103312135
0.016562909 -0.01387288 -0.083339915 0.007300315 -0.054366663 0.15154642 -0.005545718 -0.030100089
-0.019724634 0.00967464 0.0031550112 0.104806006 0.004010601 0.015612517 -0.011994275 0.075651936
-0.0063777226 -0.027681455 0.15254624 0.0040367884 -0.001759499 0.048388403 0.050040096 -0.0031527157
0.23715046 -0.005584465 0.08236478 -0.045066867 -0.04393725 -0.0041706697 0.20633161 0.15655391
0.02727788 -0.008307039 0.034984004 -0.055886544 -0.0004288478 0.06109163 0.15473841 -0.006411879
0.017929444 0.0401926 -0.06631381 0.010466786 0.011207833 -0.12770638 -0.015767062 0.019872181
-0.10409218 0.025120359 0.10148992 0.0060483236 -0.02257108 0.13791162 0.0057079326 0.11063572
-0.030414844 0.00947755 -0.04160835 0.0062245703 0.0305654 -0.10065623 0.12908846 -0.022691233
0.016036492 0.020901948 0.0053387512 0.0035756235 -0.0097314585 0.001215778 -0.00060168246 0.020391552
-0.018004578 0.12667932 -0.013707415 -0.021681024 0.012849866 -0.09106013 0.0047568204 0.028301734
0.027294379 -0.004766216 -0.009615067 0.022038126 -0.11048696 -0.013881738 0.019697385 0.18816745
-0.01385844 7.362765e-05 0.058221422 0.025768029 -0.090462364 0.0021556509 -0.030047163 -0.25749382
0.022634417 -0.006288383 -0.06526064 -0.15783466 0.01688889 0.096085355 0.20334078 0.0031051917
-0.0040769777 -0.13055037 0.15075731 0.109776646 0.015748398 0.011829031 -0.087956935 -0.06780857
0.008567525 -0.040364463 0.14505407 0.00852857 -0.05339067 0.09382071 0.02323901 -0.018994497
-0.03176469 -0.057646453 -0.04666939 -0.008621991 -0.11330815 -0.0640722 -0.0032157945 0.26780626
-0.00064478104 -0.00719361 0.08874888 -0.04530014 0.019920183 0.028561577 -0.012291488 0.0031062423
-0.10472896 0.08737835 0.03643115 -0.008122476 0.060604736 -0.0009828379 0.027471526 0.0064052413
-0.03379674 0.0050053904 -0.0124075245 0.018485574 0.27375662 0.023647431 -0.059592124 0.016281161
0.015045617 0.048462383 -0.008663549 -0.0014929186 -0.12767637 0.022312097 -0.0165235 -0.05958319
-0.21657936 0.021745507 0.023389352 -0.042118635 0.00622264 0.1721172 0.00600088 -0.015367047
0.24421258 0.10411543 -0.010367925 0.2818244 0.00835661 -0.031164415 -0.0036065544 0.055871632
-0.20717056 0.02732037 0.04583399 0.15518704 -0.071888395 0.016513238 -0.010424093 0.034323357
-0.00805909 -0.0013066111 -0.09473437 -0.010990091 -0.0012034161 -0.017187448 0.027039157 -0.012278956
0.024668587 0.11741638 -0.0058223982 0.008967864 -0.1062289 -0.027680593 0.010854459 -0.056173585
-0.025629232 -0.08998466 0.104175106 0.0073434766 0.014441353 0.06395243 -0.011624355 -0.03704802
0.07243786 0.054587424 -0.019233653 -0.018009115 -0.035545643 -0.14144236 -0.022345796 0.011861177
00000000: 5e02 d13c 86ca 483c fbe1 ce3c 2fc8 f23c
00000010: 88f9 cc3a 2238 043d c6ad 683d 913b 6bbd
00000020: 8dc6 bb3c c203 963d df0b 153d c5b7 20b9
00000030: 2d0b ac3d 551f 7dbc ae04 90bc 957d 713d
00000040: 9d47 34bd 798d 4fbd 7a61 17bd fba5 0abd
00000050: 16dc 823c 5eed 673c 662b ce3c 995c f93a
00000060: 3038 4d3c 7508 41bc 6873 a9bb 1913 023d
00000070: 31e5 81bd 35fa bab9 d9d5 a6bd 7448 b2be
00000080: 5228 cfba 369b 073d a07a 443b b77f 463c
00000090: fa10 223e 0c0d 833d d6e6 b0bd 5095 d3bd
000000a0: f0ae 873c 134b 63bc 1eae aabd 7b37 ef3b
000000b0: 94af 5ebd fc2e 1b3e dbb8 b5bb 7694 f6bc
000000c0: 8e95 a1bc 6282 1e3c 4ec4 4e3b 88a4 d63d
000000d0: 5c6b 833b a4cb 7f3c a383 44bc 67ef 9a3d
000000e0: 37fc d0bb 38c4 e2bc 1535 1c3e 0947 843b
000000f0: fd9e e6ba eb32 463d d8f6 4c3d cb9d 4ebb
00000100: 92d7 723e e3fd b6bb deae a83d 0998 38bd
00000110: 8cf7 33bd 1daa 88bb 9848 533e ab4f 203e
00000120: dc75 df3c 3f1a 08bc 634b 0f3d 4ae9 64bd
00000130: fad6 e0b9 383b 7a3d bf73 1e3e bd1a d2bb
00000140: c5e0 923c ffa0 243d 89cf 87bd e27c 2b3c
00000150: 0fa1 373c 76c5 02be ed29 81bc fcca a23c
00000160: 482e d5bd 36c9 cd3c f2d9 cf3d 0431 c63b
00000170: fce6 b8bc b438 0d3e 9c09 bb3b fb94 e23d
00000180: 8d28 f9bc ba47 1b3c 846d 2abd 7bf7 cb3b
00000190: 4a64 fa3c da24 cebd c42f 043e f7e2 b9bc
000001a0: f65e 833c 903a ab3c b1f0 ae3b 0255 6a3b
000001b0: b270 1fbc bd5a 9f3a 3aba 1dba 2f0c a73c
000001c0: 567e 93bc 39b8 013e 1195 60bc 679c b1bc
000001d0: 3f88 523c bc7d babd 1adf 9b3b 0ad9 e73c
000001e0: 7698 df3c eb2d 9cbb 8488 1dbc 4d89 b43c
000001f0: fd46 e2bd 3b70 63bc 695c a13c f8ae 403e
00000200: 830e 63bc 8b68 9a38 9679 6e3d 7917 d33c
00000210: 5544 b9bd d245 0d3b 7825 f6bc 3bd6 83be
00000220: d06b b93c c80e cebb 5fa7 85bd 699f 21be
00000230: 925a 8a3c 66c8 c43d 9138 503e 7980 4b3b
00000240: 2b98 85bb ffae 05be 2060 1a3e 94d2 e03d
00000250: c902 813c 8dce 413c c422 b4bd 38df 8abd
00000260: ce5e 0c3c 3555 25bd 0e89 143e 6abb 0b3c
00000270: 2db0 5abd 1325 c03d bc5f be3c 599a 9bbc
00000280: b11b 02bd b01e 6cbd 6728 3fbd 4043 0dbc
00000290: 1a0e e8bd 4938 83bd 14c0 52bb e71d 893e
000002a0: 8606 29ba 60b8 ebbb f9c1 b53d a48c 39bd
000002b0: a72f a33c f8f9 e93c 3d62 49bc 1992 4b3b
000002c0: 237c d6bd 6cf3 b23d d438 153d 2214 05bc
000002d0: ac3c 783d 91d2 80ba f70b e13c 0fe3 d13b
000002e0: 736e 0abd 4204 a43b ee48 4bbc 0f6f 973c
000002f0: d429 8c3e 42b8 c13c df16 74bd 1260 853c
00000300: e481 763c 7e80 463d 8ff1 0dbc 09ae c3ba
00000310: 98bd 02be dcc7 b63c 4b5c 87bc 810d 74bd
00000320: fbc6 5dbe a223 b23c 079b bf3c 9784 2cbd
00000330: 4ae7 cb3b 7e3f 303e 08a3 c43b 11c6 7bbc
00000340: dd12 7a3e 783a d53d 3bde 29bc 4a4b 903e
00000350: 2aea 083c 844c ffbc f15b 6cbb a7d9 643d
00000360: 8524 54be f8ce df3c 6cbc 3b3d 5ae9 1e3e
00000370: 393a 93bd c546 873c d1c9 2abc a696 0c3d
00000380: 460a 04bc 9842 abba 1804 c2bd c80f 34bc
00000390: f2bb 9dba b1cc 8cbc 3981 dd3c ad2d 49bc
000003a0: c715 ca3c 0078 f03d d1c9 bebb f3ed 123c
000003b0: 8a8e d9bd 69c2 e2bc e7d6 313c 4616 66bd
000003c0: 65f4 d1bc e149 b8bd c259 d53d 8ca1 f03b
000003d0: 6d9b 6c3c 7ef9 823d 1474 3ebc aabf 17bd
000003e0: 4d5a 943d 1097 5f3d e58f 9dbc da87 93bc
000003f0: 4f98 11bd 44d6 10be 880e b7bc 6255 423c

linear2.bias f4 [3]
0.1358051 0.17124815 0.1593619
00000000: 7e10 0b3e ad5b 2f3e c42f 233e
