saved_models/model.pth (torch, 16863 bytes, 4 tensors)

linear1.weight f4 [256, 11]
000000 a8 6c 88 be fc 2c 88 bd a5 77 65 be c2 0a 3a 3e
       -0.26645398 -0.06649205 -0.22408922 0.18168166
000010 f6 da 0d be cb 1f 31 be 31 b5 0f be 7e 40 3e be
       -0.13853058 -0.17297284 -0.14033963 -0.1857929
000020 3e ad 4e 3e 00 61 4d be 10 4f a0 3d 7f fd 46 bd
       0.20183274 -0.20056534 0.0782758 -0.048581596
000030 2a 71 1d 3e ab da 44 bd 82 80 ae 3d b1 d3 89 3e
       0.153752 -0.0480601 0.08520605 0.2691932
000040 5f 89 01 3e 23 9b 26 be 32 77 57 be e9 c7 4c 3e
       0.12650059 -0.16270117 -0.21041563 0.19998135
000050 0b 27 83 be cf 6c c0 3c 88 56 d0 3d 5c 6b 05 3e
       -0.25615725 0.023489384 0.101727545 0.13029236
000060 1a f4 7a be 54 f9 46 be 23 10 92 3e 3b 41 84 3e
       -0.2450718 -0.19431049 0.28527936 0.25831017
000070 40 2c 8e bc d5 7b 61 bd 27 9b 94 3d d6 f5 de bd
       -0.017355084 -0.055049736 0.072561555 -0.10886733
000080 88 b7 a1 bd 3b a4 1b 3d ef 1a 77 3d d9 ac e6 bc
       -0.07896334 0.03799842 0.06032842 -0.028158592
000090 13 50 bd 3c 20 66 31 be a1 df 2f be fa 4d 59 3e
       0.023109471 -0.17324114 -0.17175151 0.21221152
0000a0 09 f8 6b 3d 4f 1e 68 3d ff f0 d7 bc dd e7 95 3e
       0.05760959 0.05666953 -0.026360033 0.2927846
0000b0 16 c4 32 3d 8a 38 60 be 86 b7 d9 bd 0c 2e 01 3e
       0.043644033 -0.21896568 -0.106307074 0.12615222
0000c0 67 5d c4 bd 2f cd 8b be 77 25 87 3d e1 e1 33 3e
       -0.095881276 -0.2730498 0.06598943 0.17566635
0000d0 4d 38 2a 3e 64 80 7f 3e 44 48 7b be 5c a0 2d 3e
       0.1662304 0.24951321 -0.24539286 0.16955703
0000e0 85 33 84 be 5c f4 c3 3d 10 15 24 be 33 84 8d 3e
       -0.25820556 0.09568092 -0.1602366 0.27639922
0000f0 29 c6 8a 3e 3e ab 11 3e b8 4c 20 be 11 ac 04 be
       0.2710431 0.1422548 -0.15654266 -0.12956263
000100 89 da 40 bb d3 d8 d4 bd d2 75 8e 3e 5a 6c f9 3d
       -0.0029427132 -0.103929184 0.27824265 0.121788695
000110 6a 6b 85 3d c6 ab 48 be 7a a2 81 3c 6b 35 6c 3e
       0.06514628 -0.19596776 0.015824545 0.23067252
000120 82 98 29 3e 65 f2 e4 3d 5f aa 28 3e 3f fe 63 be
       0.16562083 0.111790456 0.16471241 -0.22264956
000130 df 7f 94 3d ee 9e 84 3c 4c a6 6d bc 5a e8 14 be
       0.07250952 0.016189065 -0.01450498 -0.1454176
000140 1d c3 16 3d 8e 43 bd 3d 8b fb 8c be 96 7c 6a 3e
       0.03680717 0.09241401 -0.27535662 0.22899088
000150 0b 5f 06 3e ef 6b 3c be a8 df 6a 3d 51 7a 75 3d
       0.13122194 -0.18400548 0.0573422 0.059931103
000160 81 2c 26 3e a5 14 81 3e 93 58 94 be 36 0a 50 bd
       0.16227914 0.25211063 -0.28973827 -0.050790988
000170 75 ff 5a 3e 26 0a 92 be 72 51 71 3e 14 6b ea 3b
       0.21386512 -0.28523368 0.23566225 0.007153878
000180 fe 11 98 be 5e a7 40 b9 16 cf b8 bd d7 12 70 3a
       -0.29701227 -0.00018372896 -0.090238735 0.0009158081
000190 f9 39 98 3d 20 dc aa bd 2f 34 10 bd 9c 73 76 be
       0.074329324 -0.08342767 -0.035206016 -0.24067539
0001a0 95 17 e7 bd 84 8b 2d bd 82 96 f6 3d a4 9f 9e bd
       -0.11283795 -0.04236938 0.12040426 -0.07745293
0001b0 d1 ca 99 3e 81 be 71 3d fc a7 62 3d 01 bd 1e be
       0.3003755 0.05901957 0.055335984 -0.15501787
0001c0 76 00 a6 bd 26 81 c9 bc dc d8 c5 3d 38 ab b5 bd
       -0.08105557 -0.024597716 0.09660503 -0.08870548
0001d0 7f a6 4a bd 75 fe 96 3e 22 22 a3 bd 9c 85 15 3e
       -0.04947519 0.2949101 -0.07965495 0.14601749
0001e0 3b ff 0c be 4d 12 66 bd 4c ba 05 be 20 95 0c 3e
       -0.13769238 -0.056169797 -0.13059348 0.13728762
0001f0 fe b4 cf bd a7 0a 0d be 71 52 b8 bd 80 d1 68 3e
       -0.101419434 -0.13773595 -0.090000995 0.22736168
000200 3e ac 90 3e 2c 83 91 3e f0 45 06 3d 07 6d 92 be
       0.2825641 0.2842039 0.03278154 -0.28598806
000210 01 6d 04 3e cb 6e 7c bd ce 53 f7 39 5b 50 63 3e
       0.12932207 -0.061629098 0.0004717395 0.22198622
000220 62 19 d2 3d 70 3c 5a bd ee a8 78 be b8 83 8d 3e
       0.10258748 -0.053280294 -0.24283192 0.27639556
000230 90 ab 1b be 4e b7 29 be 90 3e ac 3d dd 8b 87 3e
       -0.15202165 -0.16573831 0.0841037 0.26473895
000240 f9 bb 82 3e 90 09 17 3e bf 45 f3 bd 61 a0 60 3e
       0.25534037 0.14749742 -0.118785374 0.2193618
000250 fe c5 eb bd 4a b5 8a bd 6c ed a2 bd 0f 51 1a 3c
       -0.115123734 -0.067728594 -0.07955441 0.00941874
000260 0d 2e 0d 3d cc a6 38 be 35 f8 f7 bd 80 18 92 3d
       0.034467746 -0.18032378 -0.121078886 0.07133579
000270 10 a4 d8 bc f7 a5 07 be 38 35 81 3e 1f f0 a9 bd
       -0.026445419 -0.13246904 0.25235915 -0.082977526
000280 00 bb 8c be 0c 07 d7 bd b2 2a 74 3e 79 14 89 3d
       -0.2748642 -0.10499391 0.23844412 0.06693358
000290 f2 77 e7 3d 17 9f 7d 3e 77 8e 3f bd 00 5e cf bc
       0.11302175 0.24767719 -0.046766724 -0.025313377
0002a0 7e ce 47 3d a1 c0 a3 bd 44 96 49 3e 1b 60 17 3d
       0.04878091 -0.079957254 0.19686228 0.036956888
0002b0 b5 56 8b 3d 5c 13 9b bd c7 4b fa 3d e1 93 8d be
       0.068036474 -0.07572052 0.12221485 -0.27651885
0002c0 f7 4c 66 3e 0c 3e 1c 3e c1 c5 a1 3d a5 f8 1a 3d
       0.22490297 0.15258044 0.07899047 0.037834782
0002d0 21 77 1d 3e b8 aa cf bd 30 76 9f 3d 36 31 ec bd
       0.15377475 -0.10139984 0.07786214 -0.11532824
0002e0 27 f7 98 be 57 9a 87 be 3f d3 4b 3e e1 f7 8e 3e
       -0.29876062 -0.2648494 0.19904803 0.27923492
0002f0 ac cf 24 be 33 a8 82 3d 58 98 47 bd e7 e3 e9 3d
       -0.16094846 0.06379738 -0.04872927 0.11420422
000300 1a 72 0e 3e fe 13 96 bd 50 a2 8b 3e 34 d8 57 3d
       0.13910714 -0.07328032 0.27272272 0.05269642
000310 d6 64 43 be 8f 03 70 bd d2 a4 93 3e fa 22 2a bd
       -0.19081435 -0.058597144 0.28836685 -0.041537262
000320 68 00 4c 3e d3 8c 48 3c ba b7 52 3e da 17 45 be
       0.1992203 0.012240606 0.20577899 -0.1924738
000330 72 12 f3 3d 1a cf 77 be af 60 5d be 58 c9 cf 3d
       0.118687525 -0.24200097 -0.21618913 0.10145825
000340 64 85 b4 bd 72 2e 3f 3e 37 4a bd bd 1c 04 70 3e
       -0.08814505 0.18670061 -0.09242671 0.23439068
000350 06 18 67 bd 29 3d cf 3d 7b fb 45 3d 65 22 f2 3c
       -0.056419395 0.10119087 0.048335534 0.029557416
000360 26 f1 16 be 98 77 d1 3c 51 9c 0a 3e 6c 31 1d 3d
       -0.14740428 0.025569722 0.13536192 0.03837721
000370 68 3f b7 3d cc af 58 ba d2 b5 8d 3d 3f 5f eb 3d
       0.08947641 -0.0008265942 0.06919445 0.11492776
000380 05 0b f9 3d 50 7a 5d be 61 ac c5 3c 0b 9b d3 bd
       0.12160305 -0.2162869 0.024130048 -0.103323065
000390 af 2c 92 be 13 be 3d be b4 52 ec 3c fe 4d 0f bd
       -0.28549716 -0.18529539 0.02884803 -0.03498649
0003a0 2b 0c 49 3e 4b c6 a9 3d 2a 8e 17 3d d3 6a 25 3e
       0.19633548 0.082897745 0.037000813 0.16154031
0003b0 c4 89 41 3e 49 b3 e6 3d c7 10 4f 3e bb 02 30 be
       0.1890021 0.11264665 0.20221244 -0.17188542
0003c0 09 fe 80 be 9c 41 91 3e 72 a9 93 be 32 3c e8 3d
       -0.25193813 0.28370368 -0.28840214 0.11339606
0003d0 78 fc 90 be 7b 6d 91 3e 84 90 39 be 73 3f 8d 3e
       -0.28317618 0.2840384 -0.18121535 0.2758747
0003e0 0f a4 5f be 65 00 0f 3c d6 f7 26 be e3 d4 19 be
       -0.21839927 0.008728121 -0.1630548 -0.15022616
0003f0 43 ab d0 bc 22 c8 3e 3e a9 a9 2a 3c 9c 2f cf 3d
       -0.025472289 0.18631032 0.010416427 0.10116503

linear1.bias f4 [256]
000000 30 55 4e be 11 d8 6c 3e e3 0a a2 bd f4 42 32 be
       -0.20149684 0.23129298 -0.07912233 -0.17408353
000010 eb d9 3c be 66 da 29 bd e6 ea 61 3d ef 4e 29 3e
       -0.18442504 -0.041468047 0.055155657 0.16534017
000020 fb e6 87 3e 10 42 23 bd ef 67 29 be 38 e6 46 be
       0.26543412 -0.039857924 -0.16543554 -0.19423759
000030 52 54 4c 3e cd 71 85 3e d0 b0 0b be e7 51 90 bd
       0.1995404 0.26063386 -0.13641667 -0.07046872
000040 78 49 50 bd a2 de 28 be 55 fd 1d bd 02 d3 fd 3d
       -0.050851315 -0.16491178 -0.038571674 0.12393762
000050 1d 53 e2 3d d1 40 5f 3e 55 b3 99 bc 8f 17 6f be
       0.11051009 0.21802069 -0.01876227 -0.2334883
000060 10 1a 06 3e 63 25 c2 3d 3a b6 8e be 88 77 b6 bd
       0.1309588 0.09479787 -0.27873403 -0.089095175
000070 73 64 41 3d 63 12 97 3e fd 27 93 be fe ce 4a 3e
       0.047214936 0.29506215 -0.28741446 0.19805524
000080 7e 01 43 3e 9d 53 a8 3c ca e8 e7 bd b7 e5 95 bd
       0.19043538 0.020547682 -0.11323698 -0.07319205
000090 16 dc 16 be 7f e9 4d 3e 6e bc aa bd 28 0a e0 bd
       -0.14732394 0.20108603 -0.08336721 -0.10939437
0000a0 d7 3e 46 3e 02 cf 89 3e 18 ac 43 3e 9e 19 bf 3d
       0.19359909 0.26915747 0.19108617 0.09331058
0000b0 f5 c2 60 be 88 9a b7 3d 30 c3 6f 3d 08 09 4f bd
       -0.2194937 0.08965021 0.058535755 -0.050545722
0000c0 b3 44 c2 3d f2 70 9f 3e a1 1b 75 3e 62 3e 50 be
       0.094857596 0.31140858 0.23936321 -0.20336297
0000d0 ce b8 f7 3b 2c c2 82 3e 92 3f a7 bc b8 1b 7b be
       0.007559872 0.25538766 -0.020416055 -0.24522293
0000e0 75 95 87 3e 9e 34 19 3d a8 c7 9a 3e de 8a d7 bd
       0.26481214 0.037403695 0.3023045 -0.10524534
0000f0 92 64 47 be 01 35 cf 3d 0a 98 c5 bd 78 26 70 3e
       -0.19471958 0.101175316 -0.0964814 0.23452175
000100 1a 61 42 be 40 f5 f4 3d 47 cf 86 be 21 e6 44 be
       -0.18982354 0.1196084 -0.26330015 -0.19228412
000110 9c 1e 9a be ab e2 4b 3e 82 4c 87 be 84 51 e5 3c
       -0.30101478 0.19910686 -0.26425558 0.027992971
000120 e5 40 8d be 5b b4 9a bd 67 a0 95 be 78 11 9d 3d
       -0.27588573 -0.07553931 -0.2922394 0.076693475
000130 0f c5 7b be 44 a1 0e 3e 85 05 5e 3e f6 18 3f be
       -0.2458689 0.13928705 0.21681793 -0.18661866
000140 9f c9 5e 3e e4 23 36 3e a5 19 60 be 04 ce 0e 3e
       0.217566 0.17787129 -0.21884783 0.13945776
000150 8c 57 4f 3d e7 54 19 3e 43 f3 24 3e 30 fb 5d 3d
       0.0506206 0.14973794 0.16108422 0.05419463
000160 16 30 41 3e 57 bf 79 3e 8d c7 10 3e 73 3f 3f 3e
       0.18866 0.24389397 0.14138623 0.18676548
000170 1b 6a 8a be a6 17 0f 3e 8c 63 30 be 79 1d 59 bd
       -0.27034077 0.13973865 -0.17225474 -0.053006623
000180 9e 96 68 be d0 cd d4 3d b5 3a 69 3d 01 ee c4 3d
       -0.22713706 0.10390818 0.056940753 0.09615708
000190 e6 d6 2d bc 1b f9 fa bd 7a 37 c8 bd 4e 3d 57 bd
       -0.010610318 -0.12254544 -0.09776206 -0.0525487
0001a0 24 d1 2c 3d a5 6f d9 3d d8 38 72 3d a5 15 28 be
       0.04219164 0.10616998 0.05913624 -0.16414507
0001b0 57 4a 3f 3e 94 9c 88 be b3 1f e7 bd d5 8a 87 3e
       0.18680702 -0.2668196 -0.11285343 0.26473108
0001c0 9d 2d 28 3e 8f 1e 14 3e 0e d2 06 3e 99 28 63 be
       0.1642365 0.14464782 0.13166067 -0.22183456
0001d0 e8 02 99 3e 69 ec 03 be 04 e0 85 be d9 51 8d be
       0.2988503 -0.12883152 -0.26147473 -0.27601507
0001e0 d2 c8 15 be 02 5e 8c bd 78 6c 26 be 13 31 42 be
       -0.14627388 -0.06853868 -0.16252315 -0.18964033
0001f0 50 a3 2f bd 02 da 94 be 2b 91 64 be ea 4c 88 be
       -0.042880356 -0.29072577 -0.22321002 -0.2662118
000200 88 f9 3f 3e 69 a3 50 3d a0 cc ff bc 37 be 4a 3e
       0.18747532 0.05093709 -0.031225502 0.19799124
000210 bb 62 7f be aa 9c 0d be 68 97 6a 3e 06 bd 7c be
       -0.24940006 -0.13829294 0.2290932 -0.24681482
000220 e9 11 cd bd 35 89 5e 3d 06 e6 0f bd e3 4f 2e be
       -0.10013182 0.05433007 -0.035131477 -0.17022662
000230 dd 92 01 be 58 ba e9 bd 27 c2 8c bd 61 59 53 be
       -0.1265368 -0.114124954 -0.06872969 -0.20639564
000240 7c fe 91 be 8e a0 97 3d 4d e0 e9 3d 2a 57 27 be
       -0.2851447 0.0740367 0.11419735 -0.16341844
000250 9a 71 15 bd cc 1b 20 bd f0 4c ae 3d 85 a3 5d 3e
       -0.036485292 -0.03908901 0.085107684 0.21644409
000260 64 dd 4a 3e 42 d1 60 3e 72 41 e1 3c 3c 1a 61 be
       0.19811016 0.21954826 0.027497027 -0.21982664
000270 99 c1 5d 3e 64 db 2a be c2 c1 2a bd 5c d4 6e be
       0.21655883 -0.16685253 -0.041688688 -0.23323196
000280 29 8f 9a 3e f0 57 f4 bc f2 68 4e 3e 4e f4 1d 3e
       0.30187348 -0.029827088 0.20157221 0.15425226
000290 6e 01 e6 3a 7f 8f 8d 3e f5 f8 89 3e 30 0d ff ba
       0.0017548034 0.2764854 0.26947752 -0.0019458886
0002a0 96 53 35 bd 52 24 36 3d eb 79 98 be 70 e8 18 be
       -0.044269167 0.04446823 -0.29780516 -0.14932418
0002b0 1a 1d ed bd 4d 39 8c 3b 48 83 3f 3e 08 1e b0 3a
       -0.11577816 0.0042792917 0.18702424 0.0013436684
0002c0 a7 00 88 be 85 a8 e7 3d 39 ba 00 be 34 3d 72 3d
       -0.26562998 0.113114394 -0.12571038 0.0591404
0002d0 8b 97 34 be 0f 8e 81 3e 85 0e 81 3d 8f 02 47 bd
       -0.17635934 0.25303695 0.063015975 -0.048586424
0002e0 4e 92 11 3e 60 1c 4a 3e 76 11 51 3c 70 63 ba 3d
       0.14215967 0.19737387 0.012760511 0.091009974
0002f0 24 25 84 be 94 79 6a be 09 c0 3a be 37 25 0f 3e
       -0.25809586 -0.22897941 -0.18237318 0.1397904
000300 da 14 85 3d b0 67 8e be 3f a2 81 3e ac 51 8a 3d
       0.06498118 -0.27813482 0.25319096 0.06753859
000310 99 bc 12 3e 50 73 92 bd 5f 5a 6a 3e 8d 6b 09 be
       0.14329757 -0.071509 0.22886036 -0.13419934
000320 a9 7c c7 bb 9e 37 8f be 63 76 81 3e 14 35 7d bd
       -0.0060878587 -0.2797212 0.25285634 -0.061818197
000330 95 2b 3c 3e 83 ed a4 bd d2 17 8a ba db e5 e6 bd
       0.18376 -0.08053114 -0.0010535663 -0.1127431
000340 e6 e4 10 3e 9c fb 40 3e 25 4f 4c be ee 9a ce bc
       0.14149818 0.18845981 -0.19952066 -0.02522036
000350 32 5c ac bc d8 54 3b 3d 07 2a 2f bd 27 a1 35 3e
       -0.021040056 0.04573521 -0.04276469 0.17737256
000360 ea 94 09 bd ec 11 51 3e 37 0b 5e 3e 0b d9 7b 3e
       -0.03358928 0.20416993 0.21683966 0.24594514
000370 de a8 95 be bc a0 a9 3d b1 2c 7e be 37 f8 38 be
       -0.29230398 0.08282611 -0.24821736 -0.18063436
000380 be e3 12 3e 10 42 c1 3d 5b 7a 8f 3e 77 ce 63 3e
       0.14344689 0.094364285 0.28023037 0.22246729
000390 51 2b 80 be 20 3f 79 be a8 3b 3b be d0 a2 98 be
       -0.25033048 -0.24340487 -0.18284476 -0.29811716
0003a0 af 7a 88 be a4 19 12 be 34 9b 25 be 77 50 6d be
       -0.266561 -0.14267594 -0.16172487 -0.23175226
0003b0 af bb 9f be ca ee e0 3c f4 74 43 be 03 e4 9a 3e
       -0.3119788 0.027457613 -0.19087583 0.30252084
0003c0 a5 db 5b 3e 66 2d 01 bd 5f 22 a4 bd 28 e6 59 bd
       0.21470506 -0.031537436 -0.08014368 -0.05319801
0003d0 a4 07 20 3e 83 99 0f 3d 64 5c 9b bc a7 5d f0 3d
       0.15627915 0.03505851 -0.018964954 0.11736613
0003e0 52 7f cb bd 65 51 19 be 57 a4 53 3c f8 53 74 be
       -0.09936394 -0.14972456 0.0129176 -0.23860157
0003f0 02 6e 96 3d 60 8e bc bd ce 05 8e 3e 0f 32 8b bd
       0.07345201 -0.092068434 0.27738804 -0.06796657

linear2.weight f4 [3, 256]
000000 da d0 88 bd ef 10 1b bb d4 64 fc bb 11 02 91 bd
       -0.0668046 -0.0023661216 -0.0077024493 -0.07080472
000010 96 06 2c 3d a3 d6 49 3d 5a 5a 0d bd ed 22 5b bd
       0.04199847 0.04927696 -0.034509994 -0.053500105
000020 4d ac 45 bd b9 e4 a2 3c ae ac 3c bd bf 61 56 3d
       -0.048260022 0.019884454 -0.046063118 0.05233931
000030 6f 0e e5 bc 15 d4 fb bc 05 6e 07 3d 2d 5a ec 3c
       -0.027960984 -0.030740777 0.033063907 0.028851593
000040 ee 71 1d ba c0 24 f9 3c 1c 1a f9 3c d0 dc 94 bc
       -0.00060060516 0.030413032 0.030407958 -0.018171698
000050 28 17 a2 3c 6f 64 70 bc 87 ba f3 3b 7d 1c 0c 3d
       0.019786432 -0.014672383 0.0074380073 0.034206856
000060 f9 47 6d bd 2c a4 75 bc dd bc 36 3d b8 b7 7c 3c
       -0.057929967 -0.014992755 0.044613708 0.015424661
000070 ca cb 1d bd a2 91 ba 3b 5c 65 4d 3d 98 19 03 bd
       -0.038524427 0.0056936303 0.050145492 -0.03200683
000080 0f 74 fd bc 63 8b b2 3b a4 5f 77 3d 86 73 8e bd
       -0.03093913 0.005448745 0.060393944 -0.06955628
000090 c5 fa 2f bd 4f cb 01 3d 1c f6 08 3d 7a ac c3 3c
       -0.04296376 0.03168803 0.033437833 0.023885954
0000a0 26 13 f6 bc c4 4b 54 bd f4 d5 a0 bd fc 3e 0d bc
       -0.030038428 -0.05183007 -0.07853308 -0.008620974
0000b0 7a dc e0 3a 0b 70 5a 3c 74 6e 79 bd 79 bc cf bc
       0.0017155551 0.013332377 -0.060896352 -0.025358425
0000c0 39 10 74 bd 75 ea 82 bd da 57 81 bd af 14 dd bc
       -0.059585784 -0.063923754 -0.063155845 -0.026987402
0000d0 0b a4 4a bc d9 2f 3b bc 1b ef 9b bd 79 6c 8d bd
       -0.012368212 -0.011424982 -0.07613965 -0.06905455
0000e0 3f a9 1f bd f0 80 31 3d fa b5 9d bd 62 0c 86 bc
       -0.038979765 0.043335855 -0.07700725 -0.016363326
0000f0 18 bf 2b 3d d4 b1 14 3d 38 a2 e9 bc 90 d3 80 bd
       0.041930288 0.036302403 -0.028519735 -0.06290352
000100 9c f9 8a bc 5c 99 95 bd 1a d3 96 3d da 29 a3 bd
       -0.016964726 -0.073046416 0.07364483 -0.07966967
000110 10 38 57 3c 05 ec b6 3c 0f 22 a2 3b 5c 7a ad 3c
       0.013135925 0.02232934 0.0049479078 0.02117651
000120 17 dd 23 3d 39 3e a5 bd 7c d7 85 bc 2c 6d 39 3d
       0.04000577 -0.08068509 -0.016338103 0.04527013
000130 0f 9f 72 bd 31 56 7d bd c7 8c 7a bd 8f cd 37 bd
       -0.05923372 -0.061849777 -0.061169412 -0.04487377
000140 db 89 68 bd 9a d4 86 bd 6c 3f 4d bd 20 63 4e bd
       -0.056772094 -0.06583519 -0.050109312 -0.0503875
000150 8a 62 f3 bc 42 78 d0 3b 52 a6 60 bc 19 9d 23 3d
       -0.029710073 0.006361992 -0.013711529 0.039944742
000160 b6 d5 87 bd 95 de b9 bc 67 13 dc bc 67 14 b7 3c
       -0.06632559 -0.022689143 -0.02686472 0.022348596
000170 c5 3c b7 bc e0 fe 15 bd 1f ac fb bb ce 96 c4 3c
       -0.022367844 -0.03662002 -0.0076804305 0.02399769
000180 d8 0b e7 bc 50 21 5e bd 38 27 6b bd 0f 22 b7 3c
       -0.02820389 -0.054230988 -0.05741045 0.022355108
000190 fe 0a 91 bb 8e e7 86 3c 67 ae 35 3d 91 e1 86 3c
       -0.004426359 0.016467836 0.044355776 0.01646498
0001a0 db 80 a1 bc 03 94 4e bd 3a fc 03 3d 37 9a 64 bd
       -0.019714763 -0.050434124 0.032222964 -0.055811133
0001b0 26 ce 6b 3c 00 79 b1 bc 6c 29 3d bd e8 a2 57 3b
       0.014392411 -0.021664143 -0.04618208 0.0032903496
0001c0 a0 e0 da 3c 25 fe 57 bb 62 d8 b3 ba c6 4c 39 bd
       0.026718438 -0.0032957878 -0.0013721103 -0.045239232
0001d0 17 3e 28 bc 14 18 15 3d b0 74 07 bd 3f 8b 6e bd
       -0.01026871 0.036399916 -0.033070266 -0.058238264
0001e0 87 7a 22 bd b8 42 53 bb 8d 64 67 3b 22 a3 85 3d
       -0.039667632 -0.0032235812 0.0035307736 0.06525256
0001f0 b8 db 16 3d 63 83 25 bd 32 8e 9e 3c a4 ac 47 3d
       0.036830634 -0.040408503 0.019354913 0.048748627
000200 d0 d8 e1 3c 9c d9 ad bc 68 00 95 bd d7 2a 99 bc
       0.027569205 -0.021221928 -0.07275468 -0.018697185
000210 2e c9 2e bd f0 4e f6 3c 98 68 35 bd 4c 1b e8 bc
       -0.04267233 0.030066937 -0.0442892 -0.028333329
000220 f9 54 04 3d 67 cd 31 3d 3e 52 aa 3c 1b 7c 66 bd
       0.0323076 0.043408778 0.02079117 -0.0562707
000230 12 46 32 bd 23 12 b1 3c b9 de 39 bd 69 1b 32 bd
       -0.043523856 0.021615094 -0.04537842 -0.04348317
000240 40 5a cf 3a ef 3a 6a bc 8a f7 ef 3b 50 60 c0 3b
       0.0015819743 -0.014296277 0.00732321 0.0058708563
000250 8c cf 24 3d e6 67 53 3c 55 23 9c 3a 43 da 20 bc
       0.040236995 0.012903189 0.0011912385 -0.009817663
000260 42 c8 f2 bc 87 f4 30 3d 37 14 a8 bc 71 b9 7b bd
       -0.029636506 0.04320195 -0.020517452 -0.061456148
000270 2e a9 43 bd 69 82 c4 bc d6 6f f7 3a e4 28 23 3d
       -0.047768764 -0.023987966 0.0018877934 0.03983392
000280 ff b4 7c 3c 73 ac 97 3c aa d7 7a bb 8e ad 80 3a
       0.015424012 0.018514847 -0.0038275518 0.0009817348
000290 6a 8d 86 bd 33 86 fd bc 6e 88 6e bd 32 44 b8 bc
       -0.06569941 -0.03094778 -0.05823558 -0.022493456
0002a0 7e bf 9f bb 3f 59 16 3d 80 d7 60 3b f8 ad d7 3c
       -0.0048751226 0.036706205 0.0034308136 0.026328072
0002b0 36 54 4e bd bf 73 d3 3b 17 b5 87 bc f4 6d 22 bb
       -0.05037328 0.006453007 -0.016565843 -0.0024784775
0002c0 a5 55 57 3d 3e 65 f8 bc d4 95 2f bd 0b f6 2f 3c
       0.05257191 -0.030321714 -0.042867497 0.010739814
0002d0 b5 77 5e bd 65 86 92 bd 38 4d 16 bd e4 2f d9 b9
       -0.05431338 -0.0715454 -0.036694735 -0.00041425147
0002e0 66 40 0f bb a4 94 55 3b 39 2e d6 bc 9a 5f 33 3c
       -0.0021858453 0.0032589817 -0.026145088 0.010948086
0002f0 18 30 62 bc 8e 3a cf bc 06 ea 0a bd 69 27 0f bd
       -0.013805412 -0.025296476 -0.03391459 -0.034949694
000300 ea 06 79 bd f1 83 b4 3c 24 ff 90 bd 6f ec 7d bc
       -0.06079761 0.02203557 -0.07079914 -0.015498265
000310 b4 49 80 bd 38 e2 1d 3d dd 98 bf 3c 5e 3a 25 3d
       -0.06264058 0.038545817 0.02338832 0.040338866
000320 bb 4f 91 bd d2 65 1d 3d 67 3e 22 bd 94 c8 66 bd
       -0.070952855 0.03842718 -0.039610293 -0.05634363
000330 d7 6d 81 bd b7 39 7b 3c c2 d8 b0 bc e5 2c 4b bd
       -0.063197784 0.0153335845 -0.021587733 -0.04960336
000340 f4 5b 55 bd 17 6c 17 3c c5 8f 4f 3c 42 03 85 ba
       -0.052089646 0.009242079 0.012668555 -0.0010148066
000350 61 06 8f bd ec f6 8e bd 92 2c 17 bc 0b 3d eb bc
       -0.069836386 -0.0698069 -0.009226935 -0.028715631
000360 f3 56 da bc 27 9a f6 3c f3 4e 16 3c bd a0 95 bb
       -0.026652789 0.030102802 0.009174096 -0.0045662806
000370 90 14 df 3b 00 ad 7c bd b1 96 04 bd 26 04 ea bc
       0.006807871 -0.061688423 -0.032370273 -0.028566431
000380 77 a6 11 bd 34 33 87 3c f2 5a 20 3d 29 92 4b bd
       -0.035559144 0.016503908 0.039149232 -0.049699936
000390 35 90 81 3b 8d 50 ec 3b e2 5e 8a 3d a4 b9 47 3d
       0.0039539584 0.007211751 0.06756379 0.048761025
0003a0 c7 ed bd 3c 69 28 e2 bb df d4 0f 3d a7 2e 0f 3d
       0.02318467 -0.00690179 0.03511512 0.0349566
0003b0 76 94 d2 3c d1 e4 d4 3c 9c 53 8c 3d 3d f3 84 bd
       0.025705557 0.025988014 0.06851885 -0.064917065
0003c0 f2 1c f2 3c 89 7d 52 bb 6e da 3f bc 50 ef 1b bd
       0.029554818 -0.0032118282 -0.011709793 -0.038070023
0003d0 63 d9 22 3c d9 eb 48 bc c3 d8 98 bb 7c 4f 98 bc
       0.009939524 -0.012263262 -0.004664512 -0.018592589
0003e0 ca 14 52 bd e2 79 e9 bc 05 41 58 3d 76 0a 04 bd
       -0.051289357 -0.028500501 0.052796382 -0.03223654
0003f0 f0 a3 71 bd b6 7c 92 bd 31 f9 0c bd e1 fb c4 bc
       -0.058994234 -0.07152693 -0.034417335 -0.024045886

linear2.bias f4 [3]
000000 4c 20 70 bb c0 44 e1 3b 52 a9 8e bd
       -0.0036640344 0.0068746507 -0.06965889
