saved_models/model.pth (torch, 16863 bytes, 4 tensors)

linear1.weight f4 [256, 11]
0	0xbdba0405	-0.09082798
1	0xbdd67b0d	-0.10472689
2	0xbe8b4194	-0.2719847
3	0x3d850fe0	0.064971685
4	0x3da827fc	0.082107514
5	0xbd8197b6	-0.06327765
6	0xbe40e475	-0.1883715
7	0xbe6fafb9	-0.23406877
8	0xb6830f0d	-3.9058564e-06
9	0xbe071d2e	-0.13194725
10	0x3ea0750b	0.31339297
11	0x3cf28bdd	0.029607708
12	0xbd9199cc	-0.071094126
13	0xbe330ad2	-0.17484596
14	0x3e73fcec	0.23826951
15	0xbe96d44e	-0.2945885
16	0x3e0e175f	0.13876103
17	0xbe7ee2ca	-0.248912
18	0xbe322017	-0.17395054
19	0x3dd40065	0.10351638
20	0xbdf4bf63	-0.119505666
21	0x3e844c4f	0.2583947
22	0xbdcde594	-0.10053554
23	0x3e3ab48c	0.18232936
24	0xbe801ea7	-0.25023386
25	0x3d3f00fa	0.04663179
26	0xbe42c14f	-0.19019054
27	0x3e16b7b6	0.14718518
28	0x3e49c226	0.19702968
29	0xbe408756	-0.18801627
30	0x3e29e13f	0.16589831
31	0xbe793d36	-0.24339756
32	0x3d0c0ece	0.034193806
33	0xbe0cedd8	-0.13762605
34	0xbebee0c0	-0.37280846
35	0x3cfd1991	0.03089598
36	0x3c9358ba	0.017986644
37	0xbe250230	-0.16114116
38	0x3e9d6a07	0.30744955
39	0xbd33a29c	-0.04385625
40	0xbd5c3ca5	-0.053768773
41	0x3e5e0f7b	0.21685593
42	0xbe9d698c	-0.30744588
43	0xbe81428f	-0.25246093
44	0x3e0375c3	0.12837891
45	0x3e4c0a3a	0.19925776
46	0xbe5645c2	-0.20925048
47	0xbe67633f	-0.22596453
48	0xbea85a69	-0.32881477
49	0xbd48ee4b	-0.04905538
50	0x3d2e990f	0.042626437
51	0x3e34f72b	0.17672412
52	0xbe6a2b1f	-0.22868012
53	0xbeb279b8	-0.3485849
54	0x3deda145	0.11603025
55	0xbda96731	-0.08271635
56	0x3e2c274b	0.16811864
57	0x3cf6e77a	0.030139674
58	0x3e08972d	0.13338919
59	0xbeb2efe8	-0.3494866
60	0xbd2d6000	-0.04232788
61	0x3d552a13	0.05204208
62	0x3dea2b09	0.114339896
63	0x3e853ae0	0.2602148
64	0xbd98307f	-0.07431125
65	0x3e826f42	0.25475508
66	0x3e0c8eb8	0.13726318
67	0xbdd0ffcd	-0.1020504
68	0x3db1b397	0.08676832
69	0xbe8d8097	-0.2763717
70	0x3e0e7bc9	0.13914408
71	0x3e759648	0.23983109
72	0xbe2f4c13	-0.17118864
73	0xbe82336a	-0.2542985
74	0x3cd49e02	0.02595425
75	0xbe2e6c93	-0.17033605
76	0x3de4287c	0.11140534
77	0x3e10f227	0.14154874
78	0xbdd1abde	-0.10237859
79	0xbe6dda02	-0.23227695
80	0x3c1c6216	0.00954487
81	0x3cd363c8	0.025804415
82	0x3d6174fa	0.0550432
83	0xbd8dae6f	-0.06918036
84	0x3e139915	0.14413865
85	0xbd8b4cdf	-0.068017714
86	0xbce3dbe9	-0.027814822
87	0x3d99e398	0.07514113
88	0x3d3af508	0.045643836
89	0x3e91e40b	0.28494295
90	0xbdac5d5a	-0.08416243
91	0xbe1ec1fc	-0.15503687
92	0x3e4fdc91	0.20298983
93	0x3ca6042f	0.020265667
94	0x3e161e85	0.1466008
95	0x3e22699b	0.15860598
96	0x3e91968c	0.2843517
97	0xbd1ed4f3	-0.038777303
98	0xbd9ccd48	-0.07656342
99	0x3e98cf53	0.29845676
100	0x3e97725c	0.29579437
101	0x3df1612e	0.11786114
102	0x3d521eea	0.051299013
103	0x3a8bc235	0.0010662737
104	0x3e250f38	0.16119087
105	0xbdbc1faf	-0.09185731
106	0x3e217a8f	0.15769409
107	0xbdac8c6d	-0.084252216
108	0x3bd5df4f	0.0065268646
109	0x3eda3b5e	0.4262342
110	0xbe5ead46	-0.21745786
111	0xbe4f4d0c	-0.20244235
112	0x3d87ef63	0.06637456
113	0xbd000b8c	-0.031261012
114	0x3ca40cb5	0.02002559
115	0xbe6f9dd5	-0.23400052
116	0x3eb8cdfa	0.36094648
117	0x3d5ca988	0.053872615
118	0x3c8717ed	0.0164909
119	0x3e8fdcf1	0.28098252
120	0xbed9bcb5	-0.42526785
121	0x3e52dbb6	0.20591626
122	0x3dda8f70	0.1067189
123	0x3e561207	0.20905314
124	0x3d947e11	0.07250608
125	0x3d8bb628	0.06821853
126	0x3e7af08d	0.24505825
127	0xbd11eed4	-0.035628155
128	0xbe3621ee	-0.1778638
129	0xbdce2b6d	-0.100668766
130	0x3c87dc25	0.016584465
131	0x3e98cf99	0.29845884
132	0xbe1bd7c2	-0.15219024
133	0xbdf5ea19	-0.12007541
134	0xbe1bd8c0	-0.15219402
135	0xbe914642	-0.28373915
136	0xbe8090b7	-0.2511041
137	0xbe386996	-0.18009028
138	0xbd49ee6d	-0.049299646
139	0xbe7241b8	-0.23657882
140	0xbce88cd1	-0.028387459
141	0xbe9296fa	-0.2863081
142	0x3e5ee41e	0.21766707
143	0x3e4ad9a8	0.19809592
144	0xbddb7066	-0.10714798
145	0x3d83f4a0	0.06443143
146	0x3dfe6b25	0.1242278
147	0xbee62121	-0.4494715
148	0xbe6c1ece	-0.23058626
149	0xbd6d6c4f	-0.05796462
150	0xbe84dc30	-0.2594924
151	0xbdb72671	-0.08942879
152	0x3e859c8f	0.26096007
153	0x3c5a64e7	0.013329721
154	0xbe9d2544	-0.30692494
155	0x3c17bd15	0.009261389
156	0xbe527a6a	-0.2055451
157	0xbe8bd674	-0.27312052
158	0xbe9e8f1f	-0.30968568
159	0xbd560124	-0.05224718
160	0x3e52f87b	0.206026
161	0x3db98761	0.090590246
162	0xbdba98d4	-0.09111181
163	0x3e888654	0.26664984
164	0x3e4a10d7	0.19732986
165	0x3e4aabbc	0.19792074
166	0xbeddc496	-0.43314046
167	0x3f098554	0.5371907
168	0x3e15d6a0	0.14632654
169	0x3dd774a6	0.10520296
170	0xbd38bd33	-0.04510231
171	0xbe9faa4d	-0.31184617
172	0x3de2624f	0.11053907
173	0x3dceeb2b	0.101034485
174	0x3e8b0392	0.2715116
175	0xbd9b93b7	-0.07596534
176	0xbe6f2e08	-0.23357403
177	0x3e7e496f	0.248327
178	0xb9933ee2	-0.00028084876
179	0xbe6de7eb	-0.23233001
180	0x3dfba908	0.122880995
181	0x3c881a1d	0.016614014
182	0xbe27b621	-0.1637807
183	0xbb1a8a59	-0.0023580997
184	0xbe9bbcaa	-0.30417377
185	0xbe687a41	-0.22702886
186	0x3ea7fb9a	0.32809144
187	0x3e148859	0.14505138
188	0x3ea6fbde	0.32614034
189	0xbb87f778	-0.0041493736
190	0xbd01c7bb	-0.03168462
191	0x3d551dc8	0.052030355
192	0x3e214a75	0.1575106
193	0x3c8f8d27	0.017523361
194	0x3d000302	0.03125287
195	0x3e6e1fb3	0.2325428
196	0x3ebece20	0.37266636
197	0x3e9f3bdb	0.31100354
198	0xbe837243	-0.25673112
199	0x3e8b4f88	0.27209115
200	0xbe5b899b	-0.21439211
201	0x3c06619f	0.008201986
202	0x3dc277cc	0.09495506
203	0x3de0ed93	0.10982814
204	0xbdc39122	-0.09549166
205	0x3e2f978c	0.17147654
206	0x3cdc5f50	0.026900917
207	0x3d0a3ec6	0.03375127
208	0xbcd4d6ec	-0.025981389
209	0xbc00e172	-0.00786625
210	0xbde3e785	-0.11128143
211	0x3cec9969	0.028881745
212	0x3dc0512d	0.09390483
213	0x3d15430e	0.0364409
214	0xbce8f324	-0.028436251
215	0xbdbf9ad5	-0.09355704
216	0xbdd1965c	-0.10233757
217	0x3e939376	0.2882344
218	0x3e9b5c4c	0.30343854
219	0x3e9c983e	0.30584902
220	0x3dc5e18f	0.096621625
221	0x3e864eb3	0.26231918
222	0xbe07040d	-0.13185139
223	0x3e780234	0.2421959
224	0xbef1b814	-0.47210753
225	0xbe5816f6	-0.21102509
226	0x3e92abb7	0.28646633
227	0xbda9e474	-0.08295527
228	0x3ecb2834	0.3967911
229	0x3e80beff	0.25145718
230	0x3e2f5bf8	0.17124927
231	0xbda25444	-0.07926229
232	0xbcda820e	-0.026673343
233	0xbcba2546	-0.022722851
234	0xbe8300fb	-0.25586686
235	0x3e36bb4c	0.17844886
236	0xbe644300	-0.22291183
237	0x3e2e34c5	0.17012317
238	0x3d68daef	0.056849416
239	0x3e0845a4	0.13307816
240	0x3d56c218	0.052431196
241	0xbcab6469	-0.020921903
242	0x3d28a571	0.041173402
243	0x3e16df26	0.14733562
244	0x3bf264cd	0.0073972703
245	0xbd6be89d	-0.057594884
246	0x3e5fa095	0.21838601
247	0x3e9664f4	0.29373896
248	0x3e91a96c	0.2844957
249	0x3df086e1	0.11744476
250	0xbdfdb6f2	-0.1238841
251	0xbe58415d	-0.21118684
252	0x3e84c1a5	0.2592899
253	0x3dad3e60	0.08459163
254	0x3e5d3c14	0.21604949
255	0x3e96adf0	0.2942958

linear1.bias f4 [256]
0	0x3db8d551	0.09025062
1	0xbe5c71c0	-0.21527767
2	0xbe5abba2	-0.21360639
3	0xbc1681a1	-0.009186179
4	0x3d11dc88	0.035610706
5	0x3d80b039	0.06283612
6	0xbdd6c98e	-0.10487662
7	0x3df2c44d	0.11853848
8	0x3e3525d9	0.17690219
9	0xbdfde745	-0.12397627
10	0xbd1fd57d	-0.039021958
11	0xbcd6d55b	-0.026224783
12	0x3c8cf834	0.017208196
13	0xbdd484f1	-0.10376919
14	0x3c1db585	0.009625797
15	0xbe555800	-0.2083435
16	0x3e3865b3	0.18007545
17	0x3c67c676	0.014146438
18	0x3e68135d	0.22663637
19	0xbe1de878	-0.15420711
20	0xbd8152f5	-0.06314651
21	0xbd900455	-0.07032076
22	0xbdbe2124	-0.09283665
23	0x3ebdd32b	0.3707517
24	0x3e15a4ab	0.14613597
25	0x3e4fecd8	0.20305192
26	0x3e188046	0.14892682
27	0x3dba78ae	0.09105049
28	0x3ea7f3dd	0.3280324
29	0xbd339748	-0.043845445
30	0x3dc2b822	0.09507777
31	0xbe5f034e	-0.21778604
32	0x3d08aadc	0.03336607
33	0xbdf6849d	-0.12037013
34	0xbdd1633f	-0.10224008
35	0x3dd0551a	0.10172482
36	0x3eb7ac9b	0.35873875
37	0x3e80a89d	0.25128642
38	0xbe298b08	-0.16556942
39	0x3e8c93e7	0.2745659
40	0x3bb7ea24	0.0056126285
41	0xbe062d55	-0.1310323
42	0x3df69eb0	0.12041986
43	0xbe526751	-0.20547225
44	0x3e448492	0.19191197
45	0x3db61300	0.08890343
46	0x3da5b800	0.08091736
47	0x3e28c5ce	0.16481707
48	0xbe2735cf	-0.1632912
49	0x3dd3c1c4	0.10339692
50	0x3d8a22d7	0.067449264
51	0xbeb04d85	-0.34434143
52	0x3e4d7a51	0.20066191
53	0x3e8630cb	0.262091
54	0x3d845efb	0.064634286
55	0xbce4c479	-0.027925717
56	0x3e70b4ef	0.2350652
57	0x3df3fe57	0.11913746
58	0x3eb62476	0.35574692
59	0x3e136067	0.14392243
60	0xbd20b3f7	-0.039234128
61	0xbb4eb18b	-0.003153893
62	0x3dd3ea79	0.103474565
63	0x3e24196b	0.16025321
64	0x3dd445eb	0.10364898
65	0xbd282b8d	-0.04105716
66	0x3df4954b	0.11942538
67	0xbe8161ba	-0.25269872
68	0x3e7c0293	0.24610357
69	0xbdbdb789	-0.09263522
70	0x3e8bf30a	0.27333862
71	0x3ea017ce	0.31268162
72	0x3e0ab82e	0.13546821
73	0xbdf040b9	-0.11731095
74	0x3eb8c2ae	0.3608603
75	0xbe8b3768	-0.2719071
76	0xbd647a64	-0.055780783
77	0xbe0e0a4f	-0.1387112
78	0xbe33d36d	-0.17561121
79	0x3e685077	0.22686945
80	0xbe6d9ab4	-0.23203546
81	0x3e30c4d9	0.17262591
82	0xbe47a901	-0.19498064
83	0x3e1d05c9	0.15334238
84	0x3d2aee7c	0.041731343
85	0xbea85f5a	-0.32885247
86	0xbe391f65	-0.18078382
87	0x3e49d6af	0.19710802
88	0x3e6158e2	0.22006562
89	0x3e4bca43	0.19901375
90	0x3d5af88e	0.053459696
91	0x3e6afa01	0.22946931
92	0x3d84a9a2	0.064776674
93	0x3e269366	0.16267166
94	0x3d523309	0.051318202
95	0x3deb0d4d	0.11477146
96	0xbc55e5ea	-0.013055304
97	0xbd6f7f32	-0.058470912
98	0xbda30c6c	-0.07961354
99	0xbd701868	-0.058617026
100	0x3ea6fa08	0.32612634
101	0x3cb675c1	0.022272946
102	0xbe534d22	-0.20634893
103	0xbe555519	-0.20833243
104	0x3e754623	0.23952536
105	0x3e137c24	0.14402825
106	0xbc813b54	-0.01577536
107	0x3e4d3e41	0.20043279
108	0xbe139f5a	-0.14416257
109	0x3c9e928c	0.019356988
110	0xbd98b99a	-0.07457276
111	0x3caf1119	0.021370457
112	0xbe1af056	-0.15130743
113	0xbd6f68c2	-0.058449514
114	0xbd6ea4aa	-0.058262505
115	0x3b807f91	0.003921457
116	0x3e12bf55	0.143308
117	0x3d128f69	0.035781298
118	0xbe2a6b98	-0.16642606
119	0x3e05ddf0	0.13072944
120	0x3ec7dd38	0.39035964
121	0xbdb71fef	-0.08941638
122	0xbe4cfe57	-0.20018898
123	0x3da5cf60	0.08096194
124	0x3e851f37	0.26000378
125	0xbe5bb4a6	-0.2145563
126	0x3e10aab4	0.14127618
127	0x3e2e9c02	0.170517
128	0x3e576b2b	0.21036975
129	0x3e53c387	0.20680057
130	0x3e20a631	0.15688397
131	0x3dba8a4a	0.09108408
132	0x3e916d9e	0.28403944
133	0x3e32a293	0.1744483
134	0xbdcb0d99	-0.09914703
135	0x3e8483dd	0.25881854
136	0xbdcd4a30	-0.10023916
137	0x3dc01260	0.09378505
138	0xbd42ab0d	-0.047526408
139	0x3e7ea77f	0.24868582
140	0x3e18afc4	0.149108
141	0x3d5f5311	0.054522578
142	0xbe795e39	-0.2435235
143	0xbe78cb53	-0.24296312
144	0x3e6b7831	0.22995068
145	0x3e16711c	0.14691585
146	0x3ded3ed2	0.11584248
147	0x3bb9d519	0.005671155
148	0x3de4662d	0.11152301
149	0x3db5ceba	0.088773206
150	0xbc0d10dc	-0.008609977
151	0x3d41fd87	0.047360923
152	0x3e91cfd0	0.2847886
153	0xbe0d374b	-0.13790624
154	0xbd920a79	-0.07130904
155	0x3e1f4746	0.15554532
156	0x3e50affe	0.20379636
157	0x3cc09cda	0.023512293
158	0x3df68fbe	0.120391354
159	0xbdcbaf97	-0.099456005
160	0x3e148b14	0.14506179
161	0x3e7b5322	0.24543431
162	0xbe9b0003	-0.30273446
163	0x3e2cc2a1	0.1687112
164	0xbdc804fa	-0.09766574
165	0x3cf0a5c4	0.029375918
166	0xbd6044a4	-0.05475296
167	0x3e1a923f	0.15094851
168	0x3d958e4f	0.07302534
169	0xbe262614	-0.16225463
170	0x3e7df91d	0.2480206
171	0xbe9ac8de	-0.30231375
172	0x3e3f7cbd	0.18699928
173	0x3ddffcac	0.10936865
174	0xbc4de57c	-0.01256692
175	0x3e155e16	0.14586672
176	0xbe780461	-0.2422042
177	0x3dc43af6	0.095815584
178	0xbe2a0490	-0.16603303
179	0xbe3fc655	-0.18728001
180	0xbd809dea	-0.0628012
181	0xbd5d597f	-0.05404043
182	0x3d3ca255	0.04605325
183	0xbe6326f5	-0.2218283
184	0x3d44abf1	0.04801554
185	0x3e276c1c	0.16349834
186	0xbdcc9db0	-0.09991014
187	0x3e3efb4c	0.1865055
188	0xbea584f1	-0.3232799
189	0xbe640f0e	-0.22271368
190	0x3e977f5d	0.29589358
191	0x3de8b770	0.11363113
192	0x3e317d37	0.17332922
193	0x3e2cfcfb	0.1689338
194	0x3e35130c	0.17683047
195	0x3df32502	0.11872293
196	0x3e430a9e	0.19047019
197	0x3dce93e5	0.100868024
198	0x3e872293	0.26393566
199	0x3db6351c	0.088968486
200	0xbd719c05	-0.058986682
201	0xbe1f5ae2	-0.15562013
202	0xbd812a6f	-0.06306922
203	0x3e2de6cb	0.16982572
204	0xbe0cd43a	-0.13752833
205	0x3e8525d1	0.26005414
206	0x3e3db983	0.18527798
207	0xbe8edf90	-0.2790494
208	0xbe132e90	-0.14373231
209	0x3e809148	0.2511084
210	0x3dace8df	0.08442854
211	0xbe2604e0	-0.16212797
212	0xbe96bfd5	-0.2944323
213	0xbdfbbf42	-0.12292339
214	0xbcb57a4d	-0.022153044
215	0xbe16fc45	-0.1474467
216	0x3e86d8b0	0.26337194
217	0x3dcf25b5	0.10114614
218	0xbbef8316	-0.007309328
219	0xbd9f39d8	-0.07774705
220	0x3eb9b79b	0.36272892
221	0xbd91763c	-0.071026295
222	0x3e23f3b1	0.1601093
223	0x3cefec19	0.029287385
224	0xbd43b7f7	-0.047782864
225	0x3de085ca	0.10963018
226	0xbea3310a	-0.3187335
227	0xbe20d5ca	-0.15706554
228	0xbe3a6f8d	-0.18206616
229	0x3d7003f7	0.05859753
230	0xbd48e6c4	-0.0490482
231	0x3e7f4560	0.24928808
232	0x3e8b78bc	0.2724055
233	0xbe7540f2	-0.23950556
234	0xbe1e60cf	-0.15466617
235	0xbe1311eb	-0.14362304
236	0x3e85b15d	0.2611188
237	0xbc15e46c	-0.009148698
238	0x3d79c8f7	0.06098267
239	0xbc0ac514	-0.008469839
240	0xbe30ddb7	-0.17272078
241	0xbd0a162f	-0.033712562
242	0xbe1ba430	-0.15199351
243	0x3d6c1506	0.057637237
244	0x3d87048f	0.06592666
245	0xbc381db0	-0.011237547
246	0xbe15bc6e	-0.14622661
247	0xbc87c2c8	-0.016572371
248	0xbe10a79d	-0.1412644
249	0xbcccc40c	-0.024995826
250	0xbde434ae	-0.1114286
251	0x3e042fa1	0.12908794
252	0x3e737493	0.23774938
253	0xbdc645b0	-0.096812606
254	0xbdc72455	-0.09723727
255	0xbdd7f18a	-0.10544117

linear2.weight f4 [3, 256]
0	0xbd103ef2	-0.03521628
1	0xbdb8cdda	-0.09023638
2	0xbcdb7781	-0.026790382
3	0xbec1552f	-0.37760302
4	0xbc8e6d23	-0.017386025
5	0xbc946f4e	-0.01811948
6	0xbe27dcdb	-0.16392843
7	0xbc9b844a	-0.018983979
8	0xbd90b045	-0.07064871
9	0xbe3bc2a1	-0.18335964
10	0xbe097545	-0.13423641
11	0x3bb71321	0.005586997
12	0x3d930683	0.071789764
13	0xbe1a7417	-0.15083347
14	0x3d53f834	0.051750377
15	0xbd8e244e	-0.06940518
16	0xbda0095f	-0.078142874
17	0xbde377bc	-0.11106822
18	0xbc85188a	-0.016247053
19	0xbd8c3542	-0.068460956
20	0xbe193ae5	-0.14963873
21	0x3cefc000	0.029266357
22	0xbda389b7	-0.079852514
23	0xba887bb3	-0.0010412842
24	0xbc576f8a	-0.013149152
25	0xbcda2e4d	-0.026633406
26	0xbe171816	-0.14755282
27	0x3d9049b6	0.07045309
28	0xbca6f63b	-0.020381084
29	0xbe1a86cd	-0.15090485
30	0xbd1ae5b5	-0.037816722
31	0xbd81375f	-0.06309389
32	0xbdc54c06	-0.09633641
33	0xbd1a9b74	-0.037745908
34	0xbecef804	-0.40423596
35	0x3e274866	0.16336212
36	0x3d4983a7	0.04919782
37	0xbcfb5c2e	-0.030683603
38	0x3cc5c1dd	0.024140293
39	0x3d6387f9	0.055549596
40	0x3e0c9134	0.13727266
41	0xbec6b628	-0.3881085
42	0xbd607ddf	-0.05480754
43	0xbe455ef2	-0.192745
44	0xbd8fc419	-0.070198245
45	0xbe2175ac	-0.15767545
46	0xba739d38	-0.0009293142
47	0xbd166618	-0.036718458
48	0xbe1b88f4	-0.15188962
49	0xbc8afcc5	-0.016966233
50	0xbd28a0e0	-0.041169047
51	0xbcc3a83f	-0.023883937
52	0x3e0ade0c	0.13561267
53	0x3e028448	0.12745774
54	0xbdb647df	-0.08900427
55	0xbe459218	-0.19294012
56	0xbb915a4f	-0.0044358145
57	0xbd24adb8	-0.040204734
58	0x3cf2e0be	0.029648181
59	0x3e0f9aeb	0.1402394
60	0xbe8bc52b	-0.27298865
61	0x3e8952b8	0.26820922
62	0x3e11f866	0.14254913
63	0x3d0fb837	0.03508779
64	0xbd712604	-0.058874145
65	0xbe48a578	-0.19594371
66	0xbd49e70b	-0.049292605
67	0xbd2edbbf	-0.042690035
68	0x3dee4451	0.11634124
69	0xbddde608	-0.108348906
70	0x3dc8ffc1	0.09814406
71	0x3c7aab6e	0.015299661
72	0xbd7f21de	-0.062288158
73	0x3e4cb3e3	0.19990496
74	0x3db2764f	0.08713972
75	0xbe03d566	-0.12874374
76	0x3d626e38	0.055280894
77	0x3d9feb85	0.07808594
78	0xbbb50842	-0.005524666
79	0xbd9a710f	-0.075410955
80	0xbe25c8fd	-0.16189952
81	0x3cf80d8b	0.030279895
82	0x3e1f2a03	0.1554337
83	0xbda0aca4	-0.078454286
84	0xbf217b89	-0.63079125
85	0xbe537dc4	-0.20653445
86	0x3de51625	0.11185864
87	0x3dca4bc1	0.0987773
88	0x3e5ac613	0.21364622
89	0xbb704cce	-0.0036666873
90	0xbd5c99ba	-0.053857543
91	0x3d3cc475	0.046085794
92	0xbdbcab7e	-0.09212397
93	0x3dd9934d	0.106237985
94	0x3eacb8d3	0.3373476
95	0xbd83fb15	-0.064443745
96	0xbe9f69c4	-0.3113538
97	0xbda8177e	-0.08207606
98	0xbe301d53	-0.17198686
99	0xbdbc9f36	-0.092100546
100	0xbd28b6af	-0.041189846
101	0xbe2183e1	-0.15772964
102	0xbd3af6d4	-0.04564555
103	0xbde09c8f	-0.10967361
104	0xbc85b0f7	-0.016319735
105	0xbd8411bb	-0.06448694
106	0x3e82cbe5	0.25546184
107	0xbe559541	-0.20857717
108	0xbe306a73	-0.17228107
109	0xbdb071a7	-0.086154275
110	0x3d61f814	0.055168226
111	0xbdc66ed3	-0.09689107
112	0xbe452aed	-0.19254656
113	0xbe39e4b4	-0.1815365
114	0xbc587f6b	-0.013213973
115	0xbcfa8dd5	-0.030585209
116	0x3e9d8635	0.30766454
117	0x3dfd2c61	0.1236198
118	0x3e64cdea	0.22344175
119	0xbc858531	-0.016298862
120	0x3ddba6fc	0.10725209
121	0xbea2aad3	-0.31770954
122	0xbe13848d	-0.14406033
123	0xbebe3d8c	-0.37156332
124	0xbdab3920	-0.08360505
125	0xbe591274	-0.21198446
126	0xbcf8221f	-0.030289708
127	0xbde97908	-0.11400038
128	0xbc50acda	-0.0127365235
129	0xbd7f0987	-0.062264945
130	0xbda9ee02	-0.082973495
131	0x3db7ce4c	0.08974895
132	0xbd89279e	-0.066970095
133	0x3d7155ae	0.0589196
134	0xbd00c421	-0.031437043
135	0xbd15941d	-0.036518205
136	0xbe4292a9	-0.19001259
137	0x3d3d1f13	0.046172213
138	0xbcfaf634	-0.030634977
139	0xbde380c3	-0.11108544
140	0x3dcefd30	0.101068854
141	0x3dff277f	0.12458705
142	0xbe997abc	-0.2997645
143	0x3d0884ae	0.03332966
144	0xbe03f8bb	-0.12887852
145	0xbc830796	-0.015994828
146	0x3c971b13	0.018445527
147	0xbe5ea784	-0.2174359
148	0x3dbeb047	0.09310966
149	0xbd09e042	-0.033661135
150	0x3e294deb	0.1653363
151	0xbdca5e4e	-0.098812684
152	0x3d0b537a	0.034015156
153	0xbe148a83	-0.14505963
154	0xbe1a396f	-0.15060972
155	0xbd524eb7	-0.0513446
156	0xbd526bca	-0.051372327
157	0x3a1ec222	0.000605615
158	0xbd96d186	-0.07364182
159	0xbe18f44f	-0.14936946
160	0x3e695648	0.2278682
161	0xbaad003a	-0.001319892
162	0xbaa11998	-0.0012290953
163	0xbd12c521	-0.035832528
164	0x3e85dad0	0.26143503
165	0x3b10c0ef	0.0022087654
166	0xbd789c23	-0.06069578
167	0x3d826b2a	0.06368096
168	0xbdf15a06	-0.11784749
169	0x3d870421	0.065925844
170	0xbd4c0117	-0.049805727
171	0xbb7b3e24	-0.00383366
172	0x3d1afd48	0.037839204
173	0xbd66b8e7	-0.05632868
174	0xbdf57df7	-0.119869165
175	0xbb9aaa96	-0.0047200425
176	0xbd12be18	-0.03582582
177	0xbb99d531	-0.004694604
178	0xbba52367	-0.0050396207
179	0x3e4326c6	0.1905776
180	0xbe05bc54	-0.13060123
181	0xbe4ff09a	-0.20306626
182	0xbe632bb1	-0.22184636
183	0x3e4e54f1	0.2014959
184	0xbd3b7018	-0.045761198
185	0xbbd32e53	-0.0064447313
186	0xbe2d2643	-0.16909127
187	0x3daedaa6	0.08537798
188	0xbe37406f	-0.17895673
189	0x3d020f61	0.031752948
190	0x3e5071e9	0.20355953
191	0xbd9afc18	-0.07567614
192	0xbd257f4a	-0.040404595
193	0xbe8e7bbb	-0.27828774
194	0xbd93a9c0	-0.072101116
195	0x3e42cfec	0.19024628
196	0x3d471971	0.048608247
197	0xbdbba840	-0.091629505
198	0x3de2254e	0.110422716
199	0xbdc86469	-0.09784777
200	0xbe031030	-0.12799144
201	0xbb53ae3e	-0.0032299901
202	0xbea98c56	-0.3311488
203	0x3d6481ef	0.055787977
204	0x3d27eefb	0.040999394
205	0xbdeaa20f	-0.114566915
206	0x3e5b0482	0.21388438
207	0x3d27697c	0.040872082
208	0xbe4f5f10	-0.20251107
209	0x3e609bb0	0.2193439
210	0xbe8043ac	-0.2505163
211	0xbe2f9106	-0.17145166
212	0x3c2d4d61	0.010577531
213	0xbe13be4f	-0.14428066
214	0x3e9a6edb	0.301627
215	0xbe59ec44	-0.21281534
216	0xbd984941	-0.07435847
217	0x3d1b4a04	0.037912384
218	0x3e09973a	0.13436595
219	0xbe30a07a	-0.17248717
220	0x3c7c8610	0.015412822
221	0xbe08bf73	-0.13354282
222	0xbd665c55	-0.0562404
223	0x3bfcf1bd	0.007719247
224	0xbde87ea2	-0.11352278
225	0xbd9521b6	-0.072818205
226	0xbd369ecd	-0.044585038
227	0xbd5e1d94	-0.054227427
228	0xbddee73c	-0.10883948
229	0xbee81f1b	-0.45336232
230	0xbe04a6ec	-0.129543
231	0xbdbe81d5	-0.09302107
232	0x3da4ca45	0.08046392
233	0xbe7b195c	-0.24521393
234	0xbe649320	-0.22321749
235	0xbd4116d0	-0.047140896
236	0x3e035d69	0.12828602
237	0xbe0d6dd4	-0.13811427
238	0x3c9b21cd	0.018937016
239	0xbd854724	-0.065077096
240	0x3caed9f9	0.021344172
241	0xbdb88bec	-0.09011063
242	0x3cbe50ef	0.023231952
243	0xbd08f947	-0.033440854
244	0xbd83d4b0	-0.06437051
245	0xbe1759a6	-0.14780292
246	0xbdebf652	-0.11521591
247	0xbd9c4667	-0.07630616
248	0xbd742e3b	-0.0596144
249	0xbe1a3268	-0.15058291
250	0xbd3078cf	-0.043083962
251	0xbd758f38	-0.059951037
252	0xbcaee76e	-0.021350589
253	0xbd9d9eb9	-0.076962896
254	0xbd923fca	-0.07141073
255	0xbdc81d7b	-0.09771248

linear2.bias f4 [3]
0	0x3c65001b	0.013977076
1	0xbde8c56f	-0.113657825
2	0xbe1942b2	-0.14966848
