model.pth (torch, 16863 bytes, 4 tensors)

linear1.weight f4 [256, 11]
00000000: 64a5 783e 8e4a d83d 496a 88bc 8be2 81be
00000010: b7ed 0dbe 2e8f 733e bab0 38be ef77 eabd
00000020: 8612 123e 5b22 903d 339e 2ebe 1d48 29bc
00000030: 1746 11bd a218 e93c 4e76 7cbe 14a8 403e
00000040: 7ecf 85be 6e3b 853e 2604 24be 2d85 96be
00000050: 9a10 f7bc 7278 313e 9797 aa3d 9032 b63d
00000060: 00c3 8ebb bcfe 893d eae9 853e 4b24 13be
00000070: a4d0 86be 60f7 d8bc e512 4abe 0bae 8237
00000080: 8651 87be a4a7 c33e 230d a43e 14a3 0abe
00000090: ec16 193e f4f2 dbbd 09bd 2bbe 1d44 19be
000000a0: 6dd5 9ebd 0799 adbd 9404 79be a7b8 573e
000000b0: 64de 7e3d b99b 933e 24b1 963e 2cd3 883e
000000c0: 06c1 d63d 8793 01be a304 843e 3022 1abe
000000d0: bed2 4e3e 99ea 24bd 8b26 b3bd 2350 26be
000000e0: 554e 9fbe 4f08 2b3a cfdc 3a3e fe6b 34be
000000f0: b9d7 853c ab5c 1dbe e21e 8d3e 3aac 8c3e
00000100: 9202 6abe 089a 86be 0837 a23e 92d2 0e3e
00000110: fbe8 683e c995 a33e 89fb 203e 8d59 e03d
00000120: 1eac 803e 3e1a 04be 0cee 75be 6102 6d3e
00000130: 4147 65be d3c8 883e 2c3c 15be 88db 72bd
00000140: b361 1cbd e1d1 1cbe bac2 92bd 4216 abbd
00000150: f03b 6bbe 34a6 60bc 78a9 40be fbc8 263e
00000160: c46b cfbd aed1 333e 2d65 85be 7563 8dbe
00000170: 7c51 143a 8a67 2fbe fc12 41be d21d 0abe
00000180: a2ce 1a3e ac5d 043e 7561 1fbe 61cc 69bd
00000190: dfc7 87be e61a a43c 58c9 ca3d 8fef 22be
000001a0: 6b9a 953d 15ff c23d 9abf d5bd 0e3c a73d
000001b0: 8aa3 88be 0104 3dbe b066 70be 71af 8f3e
000001c0: a49e 3e3e 8027 a63d 16c0 003d ae6f 19be
000001d0: 54e2 4e3e 0556 7abe 3d36 1ebd 0353 16be
000001e0: d8d0 5c3d dc83 373e 9d19 23be 629b 6dbe
000001f0: 1236 39be 6ebb 65bc 7948 80be bb33 343e
00000200: 91a7 993e 3712 ba3e d9da 073e d2a8 ae3e
00000210: e7fc 943d f128 543e c747 80be 2e4c ffbd
00000220: c8fb 3c3e 0433 1cbe b21e 90bd 0dc9 78be
00000230: 4354 2cbe 2ee2 9bbd 435e c1bd 3250 04be
00000240: 607a aebe 81fb 5e3e f503 253e cd35 013e
00000250: c26f c93c dedf 3e3e b72b 223e a7c9 68bc
00000260: aa4c dcbd 276b 56be e5c6 043e fc3b 83be
00000270: 4181 993e 40e0 203e 7894 833d 58eb 4dbd
00000280: 2c7e 9f3e 5af6 2e3e 08ab 4cbd 16a9 3a3e
00000290: ce94 02be 1685 7b3e 763f 963e ef4a 28bd
000002a0: a38a 6a3e 2d52 b5bd eae5 c43c 4564 62be
000002b0: 4e67 4b3e 08c9 88bc 87f1 f73d cd6e 893e
000002c0: 15d0 a83e 8d37 34be a72a a63d c7ff b1bb
000002d0: 6d2e 57be 8da8 533d 04ca 25be b4f3 4e3e
000002e0: 0b88 8ebd 227e 193e 35a5 d93c 74a9 cf3d
000002f0: 7fbb 313e bced 983e 86b1 2c3e e9a6 21be
00000300: 4810 893e 670e 1dbe a4af 803e c506 c5bd
00000310: b6eb a13e 0917 893e 4f4d 01bd 1894 80be
00000320: 8e4e 703e ab4a 13be b77d 7d3e e145 be3d
00000330: 4714 88be 573e 2b3e a5a4 1ebe 039e 42bd
00000340: b0bf 47be 2f60 fc3d 2743 3f3d 0087 873d
00000350: db8f 83be 8c3e 81be ce95 e3bc 3f37 913e
00000360: 5f55 94be f124 873d 1f46 013e e13a 5cbe
00000370: f6bf 783e 950e d13d 0a27 4e3d 64c0 d13d
00000380: 5dd5 293b eeb2 f83c 4ae6 313d 1681 a93e
00000390: e603 b43e 0cc0 993e f106 293e 2059 373d
000003a0: 57fa 453e c6e2 01bd 2520 4b3e 8b2d 783e
000003b0: de95 67bc 04b4 8abe 6fa6 203d 26ef b63d
000003c0: ca26 61bd 0a77 843e 8e6e 9f3e e8de 1f3e
000003d0: 43f5 a73e b16b 813e 07cd a03d 19bc 563e
000003e0: cc5e 3ebe d91c 683e 47c1 923e d1ff 6e3e
000003f0: dd3f 993e cfb2 6abe 3a22 d83c c34b 10be
0.24281842 0.10561095 -0.016652243 -0.2536815 -0.13860212 0.23785087 -0.18036166 -0.11448657
0.14264879 0.07037803 -0.17052536 -0.010332135 -0.035467234 0.028454129 -0.24654505 0.18814117
-0.26134866 0.26021904 -0.16017208 -0.2939848 -0.030159283 0.17331102 0.08329695 0.08896363
-0.004356742 0.0673804 0.26155025 -0.14369313 -0.26331055 -0.026485145 -0.1973377 1.5578253e-05
-0.26429385 0.38213837 0.32041273 -0.13538772 0.1495015 -0.10739699 -0.1677133 -0.1496739
-0.077555515 -0.08476453 -0.24318153 0.21066533 0.062223807 0.28829744 0.29432023 0.2672361
0.10486035 -0.12653933 0.25784788 -0.15052104 0.2019758 -0.040262792 -0.08747586 -0.16241507
-0.3111445 0.00065243704 0.18248294 -0.17619321 0.016338216 -0.15367381 0.27562624 0.27475148
-0.22852543 -0.26289392 0.3168261 0.13947514 0.22745125 0.31950215 0.15720953 0.109545805
0.25131315 -0.12900636 -0.24016589 0.23145439 -0.22390462 0.26715717 -0.14573735 -0.059291393
-0.03817911 -0.15314437 -0.071660474 -0.08353855 -0.22972083 -0.013711501 -0.18814647 0.16287605
-0.101279765 0.17560455 -0.26053753 -0.27614942 0.0005657894 -0.17129341 -0.18854898 -0.13487938
0.15117887 0.12926358 -0.1556452 -0.057079677 -0.26519677 0.020032357 0.099016845 -0.15911697
0.073048435 0.09521309 -0.10436936 0.081657514 -0.2668727 -0.18458559 -0.23476672 0.2806354
0.18615204 0.08113003 0.031433187 -0.14984009 0.20203525 -0.24446876 -0.038625944 -0.14680104
0.053910106 0.17921394 -0.1592774 -0.23203805 -0.18087032 -0.0140217375 -0.25055292 0.17597859
0.30010656 0.36342022 0.13267078 0.34113175 0.072748 0.20718743 -0.25054762 -0.12465702
0.18455422 -0.15253836 -0.07037105 -0.24295445 -0.16829018 -0.076115 -0.09441807 -0.12921217
-0.3407774 0.21775629 0.1611479 0.1261818 0.024589423 0.18640086 0.15836988 -0.014208234
-0.1075681 -0.20939313 0.12966497 -0.25631702 0.29981425 0.15710545 0.064248025 -0.05027327
0.3115095 0.17086163 -0.049967796 0.18228564 -0.12752077 0.24562487 0.29345292 -0.041087087
0.22904448 -0.088535644 0.024035413 -0.22108562 0.19863626 -0.016697422 0.121066146 0.26842347
0.32971254 -0.17599316 0.08113604 -0.0054321024 -0.21013804 0.051674414 -0.16190344 0.20210153
-0.06959542 0.14989522 0.026568035 0.101397425 0.1735668 0.29868877 0.16864595 -0.15786327
0.26770234 -0.15337525 0.25134003 -0.09620432 0.31625146 0.26775387 -0.031567868 -0.25112987
0.23467466 -0.14383952 0.24754988 0.09290672 -0.2657797 0.16723 -0.15492494 -0.047513973
-0.19506717 0.12323033 0.0466949 0.06617546 -0.2569569 -0.25243032 -0.027781393 0.28362462
-0.28971383 0.06598843 0.12624405 -0.21506836 0.24291977 0.102078594 0.0503302 0.10241774
0.0025914528 0.030358758 0.04343251 0.33106297 0.35159224 0.30029333 0.16506554 0.04476273
0.19333778 -0.03171041 0.19836481 0.24236123 -0.014134852 -0.27090466 0.039221223 0.08932333
-0.054968633 0.2587207 0.31139034 0.15612376 0.32804307 0.25277475 0.07851606 0.20970191
-0.1859085 0.22667255 0.28663084 0.23339774 0.29931536 -0.22919773 0.026383508 -0.14091401

linear1.bias f4 [256]
00000000: 0036 983e 66ae af3d 5037 bfbd 7da1 62be
00000010: 4f80 3abe 6187 883e f084 ecbd 0b20 95be
00000020: 8cf6 46bd 96a5 cc3d d86c e73d d5ec 46bc
00000030: 5c45 763e 21f7 293e 4033 9b3e 5391 a83e
00000040: 3648 ec3d 70c7 57be c955 c73d 2d1d 52be
00000050: e52c 143e 7c2d 12be a6a7 b1bc cf3e 8cbd
00000060: c09f 87be 5bda 4cbe 0093 1fbd 7870 a03e
00000070: 0600 933e 71c1 81be 53bc 493e 6163 9ebd
00000080: 3ae9 86be a85c e6bd 2b1b 73bd d321 413e
00000090: af1b cebd 86cd c33d c9f4 803e 4790 7c3e
000000a0: 6232 dc3d c1e3 30be 8e15 12be 617c a73e
000000b0: a52a 3dbe 81f2 4e3e f8a9 383e fa96 053e
000000c0: b530 f2bd f01d 553e 10f9 303d 9593 bebd
000000d0: 2320 08bd 53aa 34bc a3aa f1bd 5961 1a3c
000000e0: a67e c8bd 3772 f4bd d2e7 323e 8fca 863e
000000f0: 2287 5fbe 0cf1 433e 73b1 963d 107e 843c
00000100: 4154 523e ec8b 1c3e 84eb 8abe f35e d83c
00000110: 5fbe 823e 6502 dcbd 0095 9c3e f0e1 2abd
00000120: 401b e43d e7f9 f0bd b0e4 89be 11be 8a3e
00000130: df3a c73e 9f05 a63e e208 303d 74f6 823e
00000140: 937f 8ebe aa60 92bd d6d3 9f3e 0efa 5f3e
00000150: 331b 8dbe 4951 37bb a900 e93d 5b7a 9c3e
00000160: 3646 b93d 6020 97bc 86cc 08bd f6f0 483e
00000170: 00c8 5d3e 144a 5bbe 7ff1 07be a7ef ebbd
00000180: 42de 70be 7d15 863e ce44 8abe e4f1 383e
00000190: 2b08 823e 06d1 20be 0530 233e ced9 82be
000001a0: 42b7 9ebd 380d be3d 5fd0 0c3e 95d1 2c3e
000001b0: dc1b 913e 50ca 973b 3c8a d73c 450c 913e
000001c0: 6ed3 33be 0e90 4ebe 28e3 bf3d 7102 a53e
000001d0: a56a bdbd 3f52 52be eda7 7bbe 1103 423e
000001e0: 9e4e 00be d1d0 5f3e 6cb3 34be 8f23 1f3e
000001f0: 940a 643e ba82 49bd 05b9 81be b12b 69be
00000200: 7847 18bd 78eb 7ebe 98cf 523d 2583 30be
00000210: d8bb 2c3e 2dd1 dcbd c7c9 533e 8ad8 7fbe
00000220: 7acc 243e c02d 433c f6e5 a5bd 2085 26be
00000230: d029 71bd 94fe 3ebe 595a 25be 3362 9a3d
00000240: a751 893e 63b9 21bc 4648 e8bd e929 153e
00000250: e85f e03d 61c4 693e aa82 82bc e8b9 023e
00000260: 5ee6 473e 60d6 3ebe 082b 94be bf76 653e
00000270: 9dd0 3ebc b947 5f3e dc31 363e 7acd ce3d
00000280: ad1c 61be 40cb 133e f27c 0f3e 767f 7c3d
00000290: 3c8d 87be f371 60bd cf67 703e ff0c 9c3e
000002a0: e9b5 823d 2a28 e63b fa4f 893c de5a c5bd
000002b0: b613 ae3e bb8a 0cbe ae94 a83e fbb9 833e
000002c0: b9e5 8f3e 666a 0abe 824d 8bbe aa69 9ebc
000002d0: 72e1 18be 507a ab3e 410c 4dbe a34e 4f3e
000002e0: 8f01 01be 7936 45be db59 d33d a8b2 62be
000002f0: ef8a e7bd 1d46 06be 559f 333e d99a acbd
00000300: 65f2 89bc 4fc2 b23e 807e 7abd d996 36be
00000310: c29e 9c3e 80c0 8ebd ba34 923e 8fee 153d
00000320: ca7b 363e b92b 503e 3ea6 423e f67c 02be
00000330: c3de 28bb 5330 043c 4175 763e c412 a2be
00000340: 8ba6 f3bc 2fca 3bbe 0616 1e3e cd0b 85be
00000350: f071 45bd 9559 6cbe e795 6d3e 9cd8 823e
00000360: 2bac b3bd 923d 853e 5449 b73e e5c8 883e
00000370: 5cd7 fa3c 41b4 883e 5a00 a8bc 5f84 d33e
00000380: fa59 92be 6d66 5f3e 19e2 31be b4f1 9cbd
00000390: 4a66 683d 8398 003e 1ead 80be a729 063e
000003a0: 8077 253e 5eb9 96bd f494 ea3c 97cb 343d
000003b0: d01a f8bc dd68 1f3e 02d8 96be 2cb9 9fbd
000003c0: 70bf 613e 309f 433e f25e 8f3e 8d1a f43d
000003d0: 0086 913e a496 973e d5cf a53d 36e1 88bd
000003e0: 27f5 28be db60 53be df30 7d3e a53c 013e
000003f0: 1751 8b3e 765d 583d 2728 563e 915d a0bc
0.297287 0.08578186 -0.09336722 -0.22131915 -0.18213008 0.26665786 -0.11548793 -0.2912601
-0.04857497 0.099925205 0.11300057 -0.012141426 0.24049896 0.16598178 0.30312538 0.32923374
0.11537211 -0.21072173 0.09733159 -0.20518942 0.14470251 -0.14275163 -0.021686386 -0.06847917
-0.26489067 -0.20005171 -0.03895855 0.31335807 0.28710955 -0.25342897 0.19700746 -0.07733799
-0.26349813 -0.112481415 -0.05935208 0.18860559 -0.10063874 0.09560685 0.25186756 0.24664412
0.10751797 -0.17274381 -0.14266035 0.3271208 -0.18473299 0.20209695 0.18033588 0.13045874
-0.118256964 0.20812201 0.043206275 -0.09305493 -0.033233773 -0.011026937 -0.118001245 0.009422624
-0.09789781 -0.11935847 0.17471245 0.26326415 -0.21828893 0.19134921 0.073580645 0.016173393
0.20539953 0.15287751 -0.2713281 0.026412463 0.25535867 -0.10742644 0.30582428 -0.041719377
0.1113801 -0.11766415 -0.26932287 0.27098134 0.38912103 0.32426164 0.04297722 0.25578654
-0.27831706 -0.071473435 0.31216305 0.21872732 -0.27559814 -0.0027972034 0.11377079 0.305621
0.09046595 -0.018448055 -0.033398174 0.1962317 0.21658325 -0.21414977 -0.13275717 -0.115203194
-0.23522285 0.2618827 -0.2700562 0.18061024 0.25396857 -0.15704736 0.15936287 -0.25556797
-0.077497974 0.09279865 0.13751362 0.16876824 0.28341568 0.004632272 0.026311032 0.28329673
-0.17561123 -0.2017214 0.093694985 0.32228425 -0.092488565 -0.20539187 -0.24575777 0.18946482
-0.1252999 0.21857001 -0.17646569 0.15540908 0.2226966 -0.049196936 -0.2533647 -0.22770573
-0.037177533 -0.24894512 0.051467508 -0.17237528 0.16868532 -0.107820846 0.2068244 -0.24984947
0.16093627 0.011912763 -0.08100502 -0.1626172 -0.058877766 -0.18651801 -0.16147746 0.07538261
0.26820108 -0.00987086 -0.1134191 0.14566769 0.10955793 0.22828819 -0.015931446 0.1276623
0.19521472 -0.18636465 -0.2893908 0.2240858 -0.011646417 0.21804704 0.17792457 0.10097785
-0.21983595 0.14433002 0.14012507 0.061644994 -0.2647494 -0.05479617 0.234771 0.30478665
0.06382353 0.007023831 0.016761769 -0.09636472 0.33999413 -0.13724796 0.32925934 0.2572783
0.28104952 -0.1351715 -0.2720757 -0.019337494 -0.1492975 0.33491755 -0.20024206 0.20244841
-0.12598251 -0.19259061 0.10319873 -0.22138464 -0.11305796 -0.13112684 0.17541249 -0.08427972
-0.016839216 0.3491387 -0.061155796 -0.17830981 0.30589873 -0.0697031 0.28555852 0.03660446
0.1782066 0.20329179 0.19008729 -0.12742981 -0.0025767542 0.008068162 0.24068166 -0.31654942
-0.0297425 -0.18338846 0.15438089 -0.25985566 -0.048204362 -0.23081048 0.23201714 0.25555885
-0.08773073 0.26023537 0.35798132 0.2671577 0.03062027 0.26700023 -0.02050798 0.4131193
-0.28584272 0.21816416 -0.17371406 -0.07663289 0.056738175 0.12558179 -0.25132078 0.13101827
0.16158867 -0.07359575 0.02863548 0.04413947 -0.030286223 0.15567346 -0.29461676 -0.077989906
0.22045684 0.19103694 0.28002125 0.11919127 0.28422546 0.29607117 0.080962814 -0.066835806
-0.16499768 -0.20642416 0.24725674 0.1262079 0.27210304 0.052823506 0.20913754 -0.019575866

linear2.weight f4 [3, 256]
00000000: 68b2 24bd 5f35 dbbd 4bee ff3a 9f6b 42bd
00000010: 4214 7cbd 8dc4 05be f5bb 8cbd 2d1d 9c3c
00000020: 57de 0fbd e621 a6bd b73c 3d3d 7406 c9bd
00000030: 03c6 b53c de81 dcbb 1b2b e1bd d75b dbbd
00000040: a8a9 f5bc 7eb0 05bd a128 d53c e3bf cabc
00000050: 9702 bebd 937d d43c 00d9 b7bd 2f80 c1bd
00000060: c0c9 393b 139d 07ba 147a a3bb 3d08 cdbc
00000070: be7a 9abd 1841 7abc 675d e6bd 904c b8bd
00000080: 2280 95bd 4771 77bd ce5b 6b3c c4c3 15bd
00000090: be4b fbbb b4fd 60bd 00d1 bb3c 9cd5 88bd
000000a0: 62a9 86bc c917 2abd b99b 793b 8cae 82bd
000000b0: 511a 8fbc d515 bfbd a051 98bd 2f52 4b3b
000000c0: 0a6d 60bd 0416 42bd 08ed d3bc fcd6 b5bd
000000d0: 96ac 973b f47a 39bd 9f0a 31bd b041 6ebd
000000e0: cdbd a7bd aec4 85bd 02d1 933c 34d7 adbd
000000f0: 9fe4 7cba cbb2 383b a95b b8bb 483a 93bc
00000100: 421e dfbb fe82 adbd 5a8c 69bd d24b c4bc
00000110: 3f9a c1bd bb52 f6bc ef68 313c 669e dfbc
00000120: 65b4 07bc 0bd9 9abd 2111 5ebd 23d9 1ebd
00000130: fd92 f4bc 4d04 b6bd fde2 d939 de7e 93bd
00000140: 1546 29bd cbab d8bd d32a b7bd b205 26bd
00000150: bb37 083c dbeb cf3c 5896 e4bc 73b7 17bd
00000160: b177 a4bb 464b 633d aac1 46bd dc42 16bd
00000170: 0cd6 adbc 587a 9f3c 3d1d 80bd 0fd1 8fbd
00000180: ef77 babc 4a7d 30bd c4d9 023d 776b b0bd
00000190: fdae dfbd b497 69bd a9a7 e33c b727 40bc
000001a0: c6e2 8ebd a5e1 43bd 384a 673b fb96 96bd
000001b0: 87d2 56bd ace0 a8bd 12ba 89bd 8287 acbd
000001c0: 81cf 5dbd 9240 073d f7bb 4dbd 01f2 80bd
000001d0: df67 dc3b 69db 3ebd af3e 8abd edb6 d8bd
000001e0: 943d 143d 356b 8bbd 1888 28bc 3554 78bc
000001f0: be0d 8dbd 46fe b2bc 3556 183c 05f2 ed3a
00000200: b78d aabd d96e a93b 5c4b 8dbd 8998 a8bc
00000210: cbf9 5b3c 0d75 0bbd 58d7 193c b636 9abd
00000220: 9ad8 36bc db17 653c 1383 24ba 2a97 3c3d
00000230: a3b3 23bd d45b 80bd ec6e 163d ed69 81bc
00000240: 5259 e7bd 980f fbbc 327f 33bd 8634 b7bd
00000250: 79b8 babc 2292 ebbd d395 5ebd ea0b a8bd
00000260: 2d46 82bd 95cd cd3c c03c 7f3b abfb 7bb9
00000270: 4e38 113c 74a6 e4bd 7499 c2bc aedd 51bc
00000280: d9b4 dcbd c25d c1bd 6e1a e7bc 1a66 6cbb
00000290: 7727 2cbd 5484 e5bd b1fd 3fbc 67a5 acbd
000002a0: faed b1bd 3922 94bd 007f f93b 9bec be3b
000002b0: a40e 9ebd 264c b6bd 4403 bdbd de4b 4c3b
000002c0: 8759 9fbd d1db b33d e7ac f9bb 855b 133d
000002d0: 581e 63bc f21c edbd bb6f 193d e72d a7bd
000002e0: 49ae 7bbc c8ed 143c f895 4cbc 7c0a 5cbd
000002f0: a01c 4739 981e 60bb eec7 db3b 8c07 d6bc
00000300: ce28 b5bd 7bb9 47bd 4abc 06bd 15ee b4bb
00000310: 99d6 9abc c82f 9bbd 54f7 9bbd 8b4e a7bc
00000320: c781 d5bc 326f a9bd ca65 45bd cdb5 63bc
00000330: e930 e0bc 2a58 93bd a579 41bd 2798 e13d
00000340: 6ea2 6dbd bc6f 0bbc 101d 8ebd 203b c2bc
00000350: f8e5 3abd ed57 7fbc 62a1 debd 1ecd 55bd
00000360: 250a 3b3d f5a0 1f3c 8c1b b7bd 80b0 10be
00000370: cccf 0ebd 6988 aabd fbcf 6ebd 1bf6 78bd
00000380: 7493 033c eb22 2dbe 36c3 74bb 8c67 4eba
00000390: 7a74 093d 1b6f ebbd 06df 1ebd f654 fdbd
000003a0: e7ab c0bd 3aa8 1abb 317d b0bd 6383 8fbb
000003b0: 8a97 0fbd 2854 4abd 0d0a 183c 6fc4 c5bd
000003c0: 4a9f a4bd 8225 5f3c fa6b 75bd 82b0 a1bd
000003d0: a968 b8bd 62bb 69bc d8dd c6bd df59 fcbb
000003e0: 2613 8d3d ffde a1bc b2c4 d5bd fa74 3ebd
000003f0: ef7d cebd b824 94bc a985 d33b ca2a 333b
-0.040209204 -0.10703539 0.0019525973 -0.047465917 -0.061542757 -0.1306326 -0.068717875 0.01905688
-0.03512415 -0.08111934 0.04620048 -0.09815684 0.022189146 -0.0067293486 -0.1099455 -0.107108764
-0.029988125 -0.03263902 0.02602035 -0.024749702 -0.09277838 0.025938785 -0.08976936 -0.09448277
0.0028349012 -0.0005173247 -0.004988918 -0.025028342 -0.075429425 -0.015274309 -0.11248284 -0.08998978
-0.0729983 -0.060410764 0.01436515 -0.03656365 -0.0076689413 -0.05492945 0.022926807 -0.06681368
-0.01643819 -0.04152659 0.0038087203 -0.063809484 -0.017468603 -0.09330336 -0.07437444 0.0031024327
-0.054791488 -0.047384277 -0.025869861 -0.08878896 0.004628728 -0.045283273 -0.04322302 -0.058168113
-0.081904985 -0.06531654 0.018043999 -0.08488312 -0.00096471043 0.002818274 -0.005626161 -0.017972127
-0.006809027 -0.084722504 -0.057018615 -0.023961935 -0.09453248 -0.030068746 0.010828241 -0.02729721
-0.0082827555 -0.07560929 -0.054215554 -0.038781296 -0.029855246 -0.08887539 0.00041558585 -0.07201932
-0.0413266 -0.10579642 -0.08943715 -0.040532775 0.008314068 0.02538102 -0.02790372 -0.037040185
-0.005019151 0.05549171 -0.048524536 -0.036684856 -0.02122023 0.019467518 -0.06255577 -0.07022297
-0.022762267 -0.043088235 0.03194596 -0.08614247 -0.10922048 -0.05702944 0.027789908 -0.011728219
-0.06976847 -0.047822613 0.003529204 -0.07353016 -0.05244687 -0.08245978 -0.06724943 -0.084242836
-0.05415297 0.033020563 -0.050228085 -0.062961586 0.0067262496 -0.046595965 -0.06750237 -0.10581765
0.036191538 -0.068075575 -0.0102863535 -0.015156795 -0.06887387 -0.021849763 0.009297897 0.0018153792
-0.08327811 0.005170685 -0.06899139 -0.020580547 0.0134262545 -0.034047175 0.009389721 -0.075299665
-0.01116004 0.013982738 -0.0006275635 0.0460426 -0.039966237 -0.06267515 0.036726877 -0.01579758
-0.112963334 -0.030647084 -0.043822475 -0.08945565 -0.022793042 -0.11502482 -0.054342102 -0.082053974
-0.06361041 0.025122443 0.0038946122 -0.00024030979 0.008863522 -0.11164561 -0.023754813 -0.0128092
-0.107766815 -0.09441711 -0.028210845 -0.00360716 -0.042029824 -0.1120688 -0.0117182 -0.084299855
-0.086879686 -0.0723309 0.0076140165 0.0058265454 -0.07717636 -0.08901243 -0.092291385 0.003117315
-0.07780748 0.08782161 -0.0076194885 0.03597595 -0.013862215 -0.115777865 0.03746007 -0.08163052
-0.015361377 0.009089895 -0.012486927 -0.053720936 0.00018988783 -0.0034197923 0.006707183 -0.026126646
-0.088456735 -0.048760872 -0.03289441 -0.0055215457 -0.018901156 -0.07577473 -0.076155335 -0.020423194
-0.02606286 -0.08273162 -0.048192777 -0.013898325 -0.027367072 -0.0719455 -0.04723515 0.11015349
-0.058016233 -0.008510526 -0.06939137 -0.023709834 -0.04562947 -0.015584928 -0.10870625 -0.052197568
0.04566397 0.009742965 -0.08940801 -0.1412983 -0.03486614 -0.083267994 -0.058303814 -0.06078158
0.008030761 -0.16907851 -0.00373478 -0.0007873706 0.033558346 -0.11495801 -0.03878691 -0.12369721
-0.09407788 -0.0023598806 -0.08617628 -0.004379676 -0.03505663 -0.049396664 0.00927974 -0.09656607
-0.080381945 0.013619782 -0.059917428 -0.07894994 -0.09004337 -0.014265867 -0.09710282 -0.007701143
0.06888418 -0.019759653 -0.10437907 -0.046498276 -0.10082614 -0.018083915 0.0064551425 0.0027338737

linear2.bias f4 [3]
00000000: 7bae d6bd b065 e7bd 70f8 0fbc
-0.10482498 -0.11298692 -0.008787259
