saved_models_ppo/model_ppo.pth (torch, 65717 bytes, 15 tensors)

action_layer.0.weight f4 [200, 11]
00000000: f56c 553e fc7d f53e b597 223e a109 8b3d
00000010: 784e b43c 9096 a53d e59e 3ebc 8808 75bd
00000020: cc4a 74bd 9b86 623e fdd8 93be 0ae8 ef3e
00000030: 682e 853e d6a2 54be df96 983d 3b8f 623d
00000040: ef29 47be 27ce 60be b9ad b2bd b2a7 8ebe
00000050: d4ec 6a3e c46f 8bbe 6ada d83e afd0 44be
00000060: a94e 523e 8d7e c93b dacd 0abd 7dce 49be
00000070: b294 8c3e e507 2fbe 65dc 1c3e 30a1 aebd
00000080: 7c3d 88be ccb0 973e 536f 4d3e 04bc 91be
00000090: c90e 303e ec6a 043e 2868 c4be fa6d 3cbe
000000a0: f58a a73e 70c8 9abe 16e9 163d d270 98be
000000b0: 6b22 423e 3648 a3be e0c8 073e 0878 723e
000000c0: ba1d 8c3e c9b6 d23c 5b8c bebe c091 34be
000000d0: 936f 80be 5dc7 95bd 1179 a3bd f162 843d
000000e0: fa66 64bd ef2d ec3d b84e bbbe 8a6d c03e
000000f0: 080a 333e 2380 723e 5745 a6be 4ea8 573e
00000100: ac45 60bd 3c9f 123e f7c8 21be c433 3abe
00000110: 94f9 97ba 08dc 1bbe 6545 92be 88fe 933e
00000120: 1e76 85be 5ac0 d33c 6f0e 8b3d 9ca3 a43d
00000130: 4115 103e 1671 30be 317a 5fbe e451 08bb
00000140: 579f 19be 980b 5dbc 4b1f dd3e 72db 66be
00000150: 5d63 353c b204 6e3e cbfe f73d 3851 10bd
00000160: c384 7ebd 0481 773e 1357 783e 3334 29bd
00000170: 7765 0a3d 2582 cf3c 0b90 b7be 12d2 0fbe
00000180: 7ba8 473e 1889 603d 8968 6bbe e7f5 e6be
00000190: 3784 91be 08d7 913e b1b6 23be 5e6c 3a3e
000001a0: 5c86 443e 1173 323b 8fb6 483d 1214 89be
000001b0: 1a7c fa3d d126 31bd d7f5 47be 475a 503e
000001c0: 2d1e 1bbd 2aac f13d 9808 883e 509e 7e3e
000001d0: ccaa 8fbe c735 13be 3f22 d23d b7d0 a2be
000001e0: 6c0b 5a3e 25b0 f2be 1243 633e 5c07 7b3e
000001f0: 4d4f 043e 4179 0c3e d765 043f ea4e 11be
00000200: ddaa 943c b5ae 10be d37b 86be fad5 d43d
00000210: ece9 03bf 6beb e1bd c00b c6be 591b 113e
00000220: 3395 4a3e 4556 d93d 862f a8be 207a 8cbe
00000230: 07cc f4bb 06ac 83be 383c ae3e fc26 52bd
00000240: afeb 5e3e d823 cfbd 8bef 4f3c bcab 283d
00000250: 6c54 5e3c 8f79 753e 33e0 74be 87f9 8ebe
00000260: 9927 cd3e c731 3c3e 6348 8c3d e119 013e
00000270: 2aee c6be e64a c23e 5dec 763d ea7b 0d3e
00000280: 748e dcbd 74ee 633e b7dd 89be a8a4 98be
00000290: ed36 8a3e 02c2 f5bd 3585 6dbe 1dcc 81be
000002a0: c14d 17be a7f9 24be 68b1 6bbe a786 f93d
000002b0: 6ea4 98bd 704f 6fbe cd45 7f3e 8c91 fdbd
000002c0: 3f24 afbe 1044 cabc d3ef 193e dcf0 423e
000002d0: 4ff9 323e 03ab 353b d5ee 1fbd d197 9ebe
000002e0: 0c0e 813e 0e6e 5abd 9608 823e 5836 d53e
000002f0: 3231 703e f1c1 373e 1e67 d83d 3e5c 503d
00000300: 725a b8be b446 8bbd 6aa9 e1bd 2efe 52be
00000310: 9057 343d 5cc8 9cbe 453a da3e d681 acbd
00000320: fc97 0abe b7bf e23d 9fb2 e338 76cf 3e3e
00000330: 9959 efbc d65b 523e 6453 3b3d 8c36 5bbe
00000340: c911 a03d 28ff 143c 5f4b 7fbe ad8c 853e
00000350: 41c3 b4be 66f8 98be 343d b33e d998 62be
00000360: badf 5c3d 7223 76be 4aa4 0c3c 8ad9 723e
00000370: 44fa dcbe 6bd7 b2be 38be a73e 1887 31be
00000380: e3c4 b4bd d3d6 16be cc28 e83b 392d 01be
00000390: ea35 723d f24c 403e b63f ee3c 8619 5abb
000003a0: fcdb a3be 0b80 90be 5f34 eebd d5fd e2bd
000003b0: 442b d73e 9ca0 39be 2ba4 2d3e 2451 f8bc
000003c0: 1ee7 8dbe ea9f a43e 52ef a63e 11a6 3a3d
000003d0: 8c6c a6bc 3133 0a3e 143c 5e3d c01e ad3c
000003e0: bdf2 093e 8487 563e ff13 2abe 96f9 c6be
000003f0: 18aa e83d 8da1 a5bb 60ac 3c3e 7e55 6ebe
0.20842345 0.4794768 0.15878184 0.06788946 0.022010073 0.08085358 -0.011634563 -0.05982259
-0.059641644 0.2212166 -0.28876486 0.4685672 0.26011968 -0.20765242 0.074506514 0.055312376
-0.1944959 -0.21953641 -0.08724541 -0.27862316 0.22941905 -0.27233708 0.42354137 -0.19220231
0.20537819 0.006149119 -0.03388772 -0.19707675 0.27457196 -0.17092855 0.15318449 -0.08526838
-0.2660941 0.29627073 0.20061998 -0.28463757 0.1719314 0.12931412 -0.38360715 -0.18401328
0.32723203 -0.30231047 0.03684338 -0.29773575 0.18958442 -0.3189103 0.13260221 0.23678601
0.2736643 0.025721924 -0.37216458 -0.17633724 -0.25085124 -0.07313416 -0.07982076 0.06464184
-0.05576227 0.11532199 -0.36583495 0.37583572 0.17484295 0.23681693 -0.32474777 0.21060297
-0.054753944 0.14318556 -0.15799318 -0.1818381 -0.0011594766 -0.15220654 -0.2856857 0.2890513
-0.2606668 0.025848556 0.06789862 0.080390185 0.14070608 -0.17230639 -0.21823956 -0.0020800764
-0.1500219 -0.013491534 0.43187937 -0.22544649 0.011071053 0.23243979 0.12109145 -0.035233706
-0.06213833 0.2417031 0.24251966 -0.041309547 0.03378817 0.025330612 -0.35852084 -0.14044979
0.19497864 0.054818243 -0.22989096 -0.45109484 -0.28421184 0.28484368 -0.1598766 0.18205401
0.19191879 0.002722923 0.049002226 -0.26773125 0.12230702 -0.04324991 -0.19527374 0.20346938
-0.037870575 0.11800416 0.26569057 0.24865079 -0.28059995 -0.14375983 0.10260438 -0.31799862
0.2129342 -0.47400013 0.22193554 0.24514526 0.12920876 0.1371813 0.51717895 -0.1419026
0.01814788 -0.14129145 -0.26266345 0.10392375 -0.5152881 -0.110312305 -0.3868084 0.14170589
0.19783477 0.10612158 -0.32848758 -0.27436924 -0.007470611 -0.2571718 0.34030318 -0.05130671
0.21769594 -0.101142585 0.012691389 0.041179404 0.013569932 0.23972152 -0.2391365 -0.2792475
0.40069273 0.18378364 0.06849744 0.12607528 -0.3885358 0.37947768 0.060284007 0.138168
-0.10769358 0.22258931 -0.26926968 -0.29813123 0.2699503 -0.11999895 -0.23195346 -0.2535104
-0.14775755 -0.1611086 -0.23016894 0.12183886 -0.074532375 -0.23370147 0.2492897 -0.123812765
-0.3420734 -0.024690658 0.15032892 0.19037193 0.17477916 0.002772034 -0.039046127 -0.30975202
0.2520603 -0.053327613 0.25397176 0.41643023 0.23456267 0.17945077 0.10566543 0.05086922
-0.36006504 -0.06800595 -0.11018641 -0.20604774 0.04402882 -0.30621612 0.4262258 -0.08423202
-0.1353454 0.11071723 0.00010857474 0.18633828 -0.029217528 0.20542845 0.045733824 -0.21407527
0.07815892 0.009094037 -0.24931096 0.2608389 -0.35305217 -0.29877013 0.35007632 -0.22128619
0.0539243 -0.24036959 0.008584091 0.23715797 -0.43159688 -0.34929976 0.32762313 -0.1733669
-0.08826616 -0.14730386 0.0070849415 -0.12614907 0.059133448 0.18779352 0.029083114 -0.0033279373
-0.32003772 -0.2822269 -0.11631083 -0.11083571 0.42025197 -0.18127674 0.16957156 -0.030312128
-0.2771539 0.32153255 0.32604462 0.04556853 -0.020315431 0.1349609 0.054256514 0.021132827
0.13471504 0.20950133 -0.1660919 -0.38862294 0.11360568 -0.0050546587 0.18425131 -0.232748

action_layer.0.bias f4 [200]
00000000: 6c39 2a3e 12eb 60be 29e0 913c ccde ae3d
00000010: e9ad 653e ccd9 fdbd 7414 cebd f575 443e
00000020: d7e0 823e 5ca5 ac3d c622 f0bc f782 cb3c
00000030: 30b7 b83d c8bb 75be a9c5 2a3c 99a9 8f3d
00000040: 64c1 973d 0b7f 17be 0af8 07be c65b 5bbd
00000050: ed41 8dbe f6b5 3b3d 87fa 5abe 838d 50be
00000060: f407 5abe 1c91 113e 3522 3bbe 5169 75bd
00000070: fe17 523d 91bc 8bbe b64a 3ebd 51a8 23be
00000080: d4c9 92be e573 093e 85a6 69be e875 943e
00000090: d378 443e 24a7 2d3e 9b4d bebd 5dc0 88be
000000a0: 180f 18bd 0deb ba3c cc89 4abe 8894 4dbe
000000b0: f2c8 aabe 9341 4fbd bba2 0ebe 5be4 973d
000000c0: dc50 fbbd 76e6 80be f168 6abe d533 1fbe
000000d0: e5b8 fd3d 7dab 293d 50ac 0b3e 9edb a0bd
000000e0: 8909 f5bd 1fee 81bd 7188 103e db76 723e
000000f0: f512 9f3e 8e80 e2bd 27bc c63d 4033 42be
00000100: 453c 2bbe 9725 563e f3ee ae3d 36f1 c13d
00000110: 84b7 4d3e ce04 543e 6fd4 44be 225b 9bbe
00000120: 5259 3e3e d8e9 bdbd b8fc 19bc c53e 783c
00000130: 17f9 2cbe 6df2 723e d2f8 28be d668 203d
00000140: 7377 7d3e 3563 69be 894f fe3d b5e0 f83c
00000150: 230d 453e 6b97 563c b90a 59bc 00b2 2d3e
00000160: a80e 79be 58c0 a63c 7b73 363e a748 4dbe
00000170: 0077 99be 26ed 9a3e d1ae bebd 5a34 ab3c
00000180: 5826 59bd 4621 5abd dcd6 fe3d 7c55 6ebe
00000190: c881 d3bd 827b 29be aa14 13be 9b6c 88bd
000001a0: 58b0 533e 8587 30be 7a79 57be 829a 81be
000001b0: 4548 1bbe b904 2bbe a4ce 32bd b30a 8cbd
000001c0: e8ca 1a3e 187c bebd d8be 8c3e 7674 a0bd
000001d0: ff86 9f3d 10fc 69be 1bc3 88be 4fbc 833d
000001e0: 6f3f 5b3e ab9d 1b3e 5548 bebd 4f9c 643d
000001f0: ed3b 43be ab9c 45bd f5a8 2f3d d586 e43d
00000200: 630d 543b 2488 d7bd 05dc 19bd 52da 1dbe
00000210: 0975 91be 4046 523e 045c 213c 013e 52be
00000220: dbfc 84be 76b2 acbd f363 43bb c485 edbd
00000230: d80a d3bc 04aa 193c bc4e 293e cf2e 8dbe
00000240: b488 8d3e 3ad1 57be cd2c 633e 2810 143c
00000250: 08a9 c03d 5183 8c3e 81b8 a43e 9f41 7fbe
00000260: fb3a 153d 7e78 4f3e 9f0f 08be 07b5 263e
00000270: 2cc9 153d faf5 dfbd cf6d 583d afb9 4fbc
00000280: 1cd6 403e 0ef5 f93d b6d9 203e e84c 373e
00000290: 4226 5e3e f48b 093d 6758 a23c 0689 c8bd
000002a0: 83d5 98bd f260 17be 3683 963d 3214 39be
000002b0: 0cc9 dfbd 2a39 a6bd 9f21 1f3e 02f8 8a3d
000002c0: 82d0 813d 9bed 803d 09a8 933e 915d 043d
000002d0: 921b 08be 690e 273e 1c6b 703c 877b 173e
000002e0: ccaf 113d c6f4 8b3c bb6e 453e fcc8 543e
000002f0: 3553 e13d 5fd4 9cbc 6152 e0bc 9e01 1e3e
00000300: 352c 453d f227 503e 7097 a4bc 63ab e63d
00000310: 0094 643e d079 9d3d 30eb 8d3e 9640 39bd
0.16623467 -0.21964672 0.017807083 0.08538589 0.22429623 -0.12395057 -0.10062495 0.19185622
0.25562164 0.08429977 -0.029313456 0.024842722 0.09019315 -0.23997414 0.010423102 0.0701477
0.07409933 -0.14794557 -0.13278213 -0.05355432 -0.2758936 0.04582783 -0.21384631 -0.20366482
-0.21292096 0.14215511 -0.18274768 -0.05991489 0.051292412 -0.27292302 -0.04645797 -0.15982176
-0.28669608 0.13423117 -0.22817428 0.28996205 0.19186716 0.1695829 -0.09292146 -0.26709262
-0.03712377 0.02281716 -0.19779128 -0.20076191 -0.33356434 -0.050599646 -0.13929264 0.07416602
-0.12271282 -0.25175828 -0.22891594 -0.15547116 0.123887815 0.04142331 0.13639951 -0.07854389
-0.11964709 -0.06344246 0.14114548 0.23678152 0.3106915 -0.11059676 0.09703856 -0.18964863
-0.1672221 0.20912777 0.0854167 0.094698355 0.20089537 0.20704958 -0.19221662 -0.30342966
0.1858876 -0.09273118 -0.009398632 0.015151684 -0.16891895 0.2372529 -0.16501167 0.03916248
0.24752598 -0.2279175 0.12417514 0.030380586 0.19243293 0.013097624 -0.013247185 0.16962433
-0.24321997 0.020355389 0.1781749 -0.20047246 -0.29973602 0.30259055 -0.09310687 0.020898987
-0.053015083 -0.05325439 0.12443325 -0.23274797 -0.10327488 -0.1655102 -0.14363351 -0.0666134
0.20672739 -0.17239197 -0.21042433 -0.25313193 -0.15164287 -0.1670102 -0.0436541 -0.06837978
0.15116465 -0.09301013 0.27489352 -0.07834713 0.0778942 -0.2285006 -0.26711354 0.064324014
0.21410917 0.15196864 -0.0929114 0.05581313 -0.19065829 -0.048245113 0.04288574 0.1115853
0.0032356612 -0.10524014 -0.037563343 -0.15415314 -0.28409603 0.20534611 0.009848598 -0.20531465
-0.25974163 -0.08432476 -0.0029814213 -0.115977794 -0.025762007 0.009378914 0.16533941 -0.27574775
0.2764336 -0.21075907 0.22185059 0.009037055 0.0940724 0.27443936 0.32172015 -0.24927376
0.0364332 0.20260808 -0.13287209 0.16279994 0.036568806 -0.10935588 0.052839097 -0.012678548
0.18831676 0.122049436 0.1570805 0.17900431 0.21694282 0.033580735 0.019817544 -0.0979176
-0.07462599 -0.14783075 0.07349245 -0.1807411 -0.109270185 -0.08116372 0.15540169 0.06785585
0.06338598 0.0629532 0.28839138 0.032315794 -0.13291767 0.16314091 0.014673974 0.14793216
0.035568044 0.01708449 0.19280522 0.20779794 0.110021986 -0.019144235 -0.027383031 0.15430304
0.048137862 0.20327738 -0.020091742 0.11263158 0.22322083 0.076892495 0.27718496 -0.04522761

action_layer.2.weight f4 [20, 200]
00000000: da95 b4bd c2c8 ebbb 680d 3cbe 0d2e 9a3d
00000010: 0af2 093e bcfd 74bd 31ba 1d3e 5a82 b63d
00000020: 67db 2fbc ceba edbd 4e39 4e3e b919 383e
00000030: 7740 883e cf20 c8bd 47de f53d c666 0abe
00000040: c671 1dbc 1483 513b dd38 5f3e b83c 8a3d
00000050: 19d6 633a d1a2 883e df4d 1a3e 245b 803d
00000060: 1a1a 213e 4c4c 03be 4d9e 05bc 2a7e 89bd
00000070: 1373 7dbd f14c 9fbc 8953 843d 6e09 473e
00000080: f434 da3d 76ca a23d 9ed4 6cbd 7368 fe3d
00000090: 35fd 083e 6c7d 8b3d e8a3 223e 072d c6bd
000000a0: 3124 26be a5a7 3bbe 9149 9c3a 690e b8bc
000000b0: cb6a 803a 70a7 f9bd 6a8a 9cbd 8222 d5bc
000000c0: c926 6abd 094c 39be e973 bf3d 01a7 513e
000000d0: 4682 d13c 69ba fb3d 2ef1 a63d b20c d2bd
000000e0: c61e 5e3d 9bc5 03bd 4653 933d 43da 223e
000000f0: 8c92 3dbd 59c7 213e 1506 a4bd b2a4 373d
00000100: 6b34 3abc 213e 58bd bcc7 63bd af4e 89bc
00000110: a921 84be 9950 b33d cc56 ed3c 82ef be3d
00000120: b6f0 15be 20fb d3bc f7e1 fb3b 2294 983d
00000130: 1824 4fbd 40e9 d93c 8d97 34bd 9962 d7bd
00000140: 4218 9d3d 3247 5e3d 7fcd b2bd a578 2c3e
00000150: c224 513d b07c 173d e90c 2c3c df98 9dbd
00000160: d27c 423e 38d7 99be 47ef 45be d071 76bd
00000170: b28c 0c3d edd3 813e 4c64 64bc 09c7 e23d
00000180: 4070 2cbc fe20 db3d 6561 0c3c 11b1 773e
00000190: 9303 bfbd ab28 9d3d ff19 96bd 9a39 b83d
000001a0: 7c37 9c3d 1f4e 983e 99c6 d23b b956 673d
000001b0: a1d7 88bd 2fef af3e f0cc 09be 7b10 4d3d
000001c0: f389 1dbc 6248 1cbe 6c2c 383c 08c2 073d
000001d0: 3c18 0bbd 8cb6 00be b139 a5bd ce1b 50bd
000001e0: dd1c 6bbd 6859 95bd 8b6c 1cbe f950 57be
000001f0: 983f d93d 4032 b03d 7811 59be 7e47 cabd
00000200: cf5d 833c 683b 07be 6032 c1bc e196 4f3d
00000210: 20fe 123e 2a6f 953d e38a 763c 386b 0e3e
00000220: c38f 873d f67d a83e 73b5 293d e9c7 19be
00000230: 5fdf 953d e4d7 193e 2b0c 943d 7b6e 5f3d
00000240: 9b5b 0cbe 903c bebc c20f bfbd cab7 993c
00000250: 2302 26bc f02f fabd 3ce7 933d 4f60 5abd
00000260: 6f49 a03c 3e53 e4bc 0791 0b3e dfea c13c
00000270: 3be8 783d 0384 4ebd 2a66 52bd 5f9a 10bd
00000280: 70ba c83d 37f3 1ebd 2773 3cbd 3ec9 1ebd
00000290: eca8 6ebe 6db0 63be 63bb 5c3d 378c 1f3d
000002a0: 0c3b ccbd 5945 a1bd 68fb 223d d15b 89bc
000002b0: 774d 313c 2dd8 093e 154a 943c 272a 28bd
000002c0: 5ce0 d33d f93b 9abc 5898 9f3d 204a fabd
000002d0: 49ec 5c3c 316f 83bd 1080 c03c a52a a53d
000002e0: 8f24 7d3e dbc7 8b3d f02c 24bd d4ae 093c
000002f0: 50c3 603d dfaf f73d d5ea febd 620f 383d
00000300: 647b b83d 1e92 0fbd 570d 3abd 392a 5bbe
00000310: 4983 d5bc 3422 8cbc b735 0fbc 3dee d9bd
00000320: c8eb 10bc f1f9 2a3e 7402 8f3e 6dae 463d
00000330: 0827 11bd be2e c5bc 337b 49be 6771 88bd
00000340: 2703 213d 08b4 0ebe ecd7 cfbe 9d3d e5be
00000350: 7eb6 b6be 25ab 2a3e 8ecf 35bd 86da 4d3e
00000360: 5521 7fbd a87a 453e c457 68be b812 42be
00000370: 963d 6dbc a786 9bbe b4ac a3bd bf66 943d
00000380: 0acb 2cbe 680c 473e c0b6 e93d cdb3 263e
00000390: 7260 dc3c 7e81 8c3d 6973 14be 3072 2bbe
000003a0: 08b5 02be 9d95 5bbe e3eb d43d 5d30 f1bd
000003b0: f9b5 50be 00c2 d6bd 34e8 853d 7b9a c33e
000003c0: 146b 273e c739 823e 146c 94bc 34a8 2bbe
000003d0: 3ecb b2bd b580 553e 27c1 433e cbff 3ebd
000003e0: e41b 433e d491 9f3e bb07 31bc bf59 c8bd
000003f0: 6fa6 2b3d 91e1 15ba 8aa3 99be 0e74 bc3c
-0.088176444 -0.007195563 -0.18364489 0.07528315 0.13471237 -0.059812292 0.15403058 0.08911581
-0.010733462 -0.11607896 0.20139048 0.17978562 0.26611683 -0.09771883 0.12005287 -0.13515767
-0.009609645 0.0031968998 0.21799035 0.067498624 0.0008691266 0.2668672 0.15068768 0.06267384
0.15732613 -0.12822074 -0.008155418 -0.06713517 -0.06187732 -0.019445868 0.064612456 0.19437191
0.10654631 0.079487726 -0.057819955 0.12422266 0.13377841 0.06811032 0.15882838 -0.09676557
-0.16224743 -0.1832567 0.001192378 -0.022467809 0.0009797452 -0.12190139 -0.07643588 -0.026017431
-0.057165895 -0.18095411 0.0934828 0.20473863 0.025574815 0.12291414 0.0815147 -0.10256328
0.054228567 -0.032170873 0.071936175 0.15903573 -0.046282336 0.15798701 -0.080089726 0.0448348
-0.0113650365 -0.052793626 -0.055610403 -0.016761152 -0.2580693 0.08755607 0.028972052 0.09323026
-0.14642605 -0.025876582 0.007686849 0.07450129 -0.05057153 0.02660048 -0.044089843 -0.10516853
0.076706424 0.054267116 -0.087306015 0.16842897 0.051060446 0.036984146 0.010501125 -0.076951735
0.18992928 -0.3004701 -0.19329558 -0.060167134 0.034313865 0.25357 -0.013939928 0.11073119
-0.010524809 0.10699652 0.008568143 0.24188639 -0.093268536 0.076737724 -0.07329177 0.089953616
0.0762777 0.29747102 0.006432366 0.05647919 -0.06681753 0.3436217 -0.13457084 0.050064545
-0.009615409 -0.15261987 0.01124106 0.033144027 -0.03395866 -0.12569636 -0.080676444 -0.050807767
-0.057400573 -0.072924435 -0.15275781 -0.21026982 0.10607833 0.086033344 -0.2119807 -0.09876917
0.016035942 -0.13206255 -0.023583591 0.050681 0.14354753 0.072965935 0.015047762 0.13908088
0.06619217 0.329086 0.04143281 -0.15017666 0.07317995 0.15023762 0.07228883 0.05454872
-0.1370682 -0.023222238 -0.093291774 0.018764395 -0.010132345 -0.122161746 0.07221839 -0.053314503
0.019566266 -0.027871724 0.13629542 0.023671566 0.060768347 -0.050418865 -0.051366962 -0.03530347
0.09801185 -0.038806166 -0.046008255 -0.03876614 -0.23306626 -0.2223527 0.053889643 0.03895208
-0.099722 -0.07874555 0.03979054 -0.016767414 0.010821692 0.13461371 0.018101731 -0.041055825
0.103455275 -0.018827425 0.07792729 -0.122211695 0.013484069 -0.064176925 0.023498565 0.080647744
0.24720977 0.06825229 -0.04008192 0.008403499 0.054873765 0.120940916 -0.124471344 0.044936545
0.0900791 -0.035051458 -0.045422878 -0.21402825 -0.026063578 -0.017106153 -0.008740834 -0.106411435
-0.008845277 0.16696908 0.2793156 0.04850619 -0.035437614 -0.02407014 -0.19675903 -0.06662255
0.039309647 -0.13935864 -0.40594423 -0.4477357 -0.35686105 0.16666849 -0.044387393 0.20102891
-0.062287647 0.19285071 -0.2268973 -0.18952453 -0.014480015 -0.3037617 -0.07991925 0.0724616
-0.16874328 0.19438326 0.1141181 0.16279526 0.026901457 0.06860636 -0.1449715 -0.16742778
-0.1276437 -0.21443792 0.10396554 -0.11776803 -0.20381917 -0.10486221 0.0653843 0.38203797
0.16349441 0.25434706 -0.018117942 -0.16763383 -0.087301716 0.20849879 0.1911665 -0.046630662
0.19053608 0.31165946 -0.010805066 -0.09782743 0.04190677 -0.0005717511 -0.30007583 0.023004558

action_layer.2.bias f4 [20]
00000000: 2f38 edbc 8cde 57bd 2cc3 a4bd 9e79 c23d
00000010: a91a 503d 4926 4cbd 0b79 c53d eb62 fdbb
00000020: 59ca 16bd ad61 173d b990 433c 55f8 19bd
00000030: 7dc3 73bc e48a 523d 00c3 ef3c 9ca7 473d
00000040: 7085 7a3d b1bc 87bc ac23 0dbe 41c5 7d3d
-0.028957454 -0.05270247 -0.080450386 0.09495853 0.050806675 -0.0498412 0.09642228 -0.007732739
-0.036814068 0.036958385 0.01193636 -0.037590344 -0.014878151 0.051401988 0.029267788 0.04874383
0.061162412 -0.016569467 -0.13783139 0.061955694

action_layer.4.weight f4 [50, 20]
00000000: 2c4f 3e3e 123f cf3b 5cc0 963e 8c95 4d3e
00000010: fcbf 35be d486 233e c292 5f3e 542c 5c3d
00000020: ac09 083d 31f6 34be 759e b7be ac5a 52bd
00000030: e920 12bd bfc0 7c3c 1aa9 5b3e c4f2 64bd
00000040: e76e 143b 9375 f43d 77c7 2cbe 6b7e 993d
00000050: 3acf 09bc df97 b3bd 2918 11be b17f 2b3d
00000060: 5134 e33d 5eef 123e 489e 7d3e a955 46be
00000070: 5cee b53d 0494 17be d730 513d 7a53 a83d
00000080: eaf8 f23e 7941 433d dd9f cf3e 9680 c43e
00000090: 55f2 273e 0aec cd3e f0ba c93d eb5e 223e
000000a0: 3ab3 c3bd 9b05 90be 1a9b c83d af44 563e
000000b0: f029 173e bf2d 5abe 454c c23d 3f86 0cbe
000000c0: cda0 943e bd98 26be c2b5 373d f1a4 143e
000000d0: fde3 4f3d cbd5 67bd e13a 993e 3257 993e
000000e0: b226 07bc 25db 6e3e 65c1 38be fe71 05be
000000f0: 8c74 0cbd f18a 1c3e db85 933d aa3e 1d3e
00000100: e2c9 9ebe 8e5d 35be 9310 8cbc a747 c93d
00000110: d920 283e b264 2c3e b345 d4be 4438 ff3d
00000120: e688 e2bd 8e7a aa3e 04ba 123e cf3c a83c
00000130: a181 693d 1ad7 093e ed8c c2be 5ace a23e
00000140: cc06 5abe 01a2 aa3d a6d3 30bc c973 bd3d
00000150: 86bf 5c3d 63a1 4b3d f9e0 a7be 53a3 3d3e
00000160: 956e e3bc 9aec 5bbe c9b6 aebd f0da 603d
00000170: 126f 06bf 8cf6 573e 6d01 3bbe 9f98 1bbe
00000180: 89df 2fbd f1ca 7bbe 580a 71be 1637 bebd
00000190: 47e7 803c b3be 463e cae4 64bc 8198 363e
000001a0: e59f e3be 9dd9 963d 3f7f 54be 7e18 86be
000001b0: 9984 a3b8 ff68 3cbe 548c 6cbe f7c8 663e
000001c0: 4d10 adbe 231f 26be 8c64 f23d eef2 553e
000001d0: e56c 053e 0f13 6e3d 7cc6 8dbc 6a2b 533e
000001e0: b0d5 8b3e e22d 18be 6f97 35bd d2f8 50bd
000001f0: 5b64 b73d 3644 a0bd a10c b13e a6cf 9cbd
00000200: 7d85 363c c40e 38be 9a7c 12bd 88df 8b3d
00000210: 5921 ae3d 4200 0c3e 5292 9f3e d4f7 5b3e
00000220: 6d87 7a3e 848c dc3d 50e7 d4bd 0f29 5cbd
00000230: 4b4a 86bd 56a6 bebd 8e1e 9fbe d196 3dbe
00000240: a17b 3a3e 32a7 243e 70f8 4b3d 0f1f 703d
00000250: f18b 8bbb c303 5d3d 1f3b c33d 1f60 69be
00000260: ac21 7f3e 50bc efbd e010 813d b345 6ebe
00000270: 290c c6bd 758a 9ebe 08f1 77bd f494 7a3c
00000280: 2e2e d83d 0e35 f33d fbe1 853e 6f23 953e
00000290: cc57 bcbe ab52 553d 41d2 0e3e 9369 123d
000002a0: 661d 113e abb5 71be 6f11 97bd 8ec8 843e
000002b0: ba16 8bbe 3cd8 56be f167 383e 2325 87bd
000002c0: b52f f43d 29a3 07be 4713 b23d bac5 6e3d
000002d0: f5ac 863d 9bdb bcbe 7459 473e 8c49 263e
000002e0: 15cf 663e cc17 5a3d 8eca 933e 5440 3fbe
000002f0: be32 27b9 8764 43be bc06 76bd d9eb f4bd
00000300: 38e4 a93d 5906 433d ad29 b03e 8479 e03e
00000310: 07f2 9a3e b8af 833e a873 c2bd 20bf bebd
00000320: 480d 823e 07f2 92bc a9c6 983e d6ab b4bc
00000330: 4742 f7bc d116 3c3e 282a 2b3e 6f15 343c
00000340: c4aa b8ba b2e4 f43b 0956 9dbe 401e 453e
00000350: 1097 8f3e 3e4d fa3d 464f 9f3d 4dd9 1c3e
00000360: 3018 57bd 3d78 78bc f388 343c c6ff 203e
00000370: 2239 a13e 2b60 e3be 3fdf 6c3d 681e 3fbe
00000380: acaf e43e 11d4 ae3c 18a3 463d e8a7 5fbe
00000390: 68ff a23e f7a4 d4ba 3629 91bd 3930 803e
000003a0: 11ce 523c 2396 bd3d 32ec c93e 862a a33e
000003b0: 9c4c 7ebd de72 733e afa0 5e3e b7ff a63e
000003c0: b76c 47be fe62 babd 2c75 a8bd 9f74 69be
000003d0: c6d6 aa3e ed3e 0f3e 1028 023e 6a04 503e
000003e0: 06be 2fbe 2d4f d5b8 5485 1a3d e50f febd
000003f0: 170f 5b3e a7ce 1ebe 2099 1d3e 9cdc 043e
0.18584889 0.0063246572 0.29443634 0.20076579 -0.17749017 0.15969402 0.21833327 0.053753212
0.03321235 -0.1767204 -0.3586308 -0.051356003 -0.035675917 0.015426814 0.21451226 -0.05589558
0.002264911 0.11936488 -0.16872965 0.074948154 -0.008411223 -0.087692015 -0.14169373 0.041869823
0.11093963 0.14349124 0.24767411 -0.19368614 0.08883354 -0.14802557 0.051071968 0.08219047
0.4745553 0.04766986 0.40551654 0.38379353 0.16401036 0.40219146 0.098501086 0.15856521
-0.09555669 -0.28129277 0.09795208 0.20924638 0.14762092 -0.21306513 0.094872035 -0.13723086
0.2902893 -0.16269203 0.044851072 0.14516045 0.050754536 -0.056600373 0.29927734 0.29949337
-0.008248972 0.23325785 -0.18042524 -0.13031766 -0.034290835 0.15287377 0.07203265 0.15355936
-0.310134 -0.1771147 -0.017097747 0.0982812 0.1641878 0.16835287 -0.41459426 0.12461904
-0.110612676 0.33296627 0.14328772 0.020536808 0.05700839 0.13460961 -0.37998143 0.3179806
-0.21291655 0.08331681 -0.010792648 0.092506 0.05389359 0.049714457 -0.32788828 0.18519334
-0.02776269 -0.21476975 -0.08530957 0.054896295 -0.5251323 0.21090144 -0.18262263 -0.15194939
-0.04293779 -0.24589135 -0.23539102 -0.092878506 0.015735282 0.19408683 -0.013970563 0.17831613
-0.44457927 0.07365725 -0.20751666 -0.2619056 -7.797144e-05 -0.18399428 -0.23100406 0.225376
-0.338015 -0.16222815 0.11835584 0.20893452 0.13029821 0.058123644 -0.017306559 0.2062203
0.27311468 -0.14861253 -0.04433387 -0.051018544 0.08954688 -0.0782551 0.34579948 -0.07656793
0.0111402245 -0.17974383 -0.03576336 0.068297446 0.08502454 0.13671973 0.3116632 0.21481258
0.24465723 0.10768989 -0.10395682 -0.053750094 -0.06557139 -0.0930907 -0.31078 -0.18514563
0.18211223 0.16079405 0.049797475 0.05862337 -0.0042586257 0.053958666 0.09532761 -0.22790574
0.24915189 -0.1170584 0.06302047 -0.23268776 -0.09670288 -0.3096501 -0.0605326 0.015294302
0.10555683 0.11875354 0.26148972 0.29128596 -0.36785734 0.05208079 0.13947393 0.035745215
0.14171371 -0.23604457 -0.07376372 0.2593426 -0.27165776 -0.20980924 0.180084 -0.0659888
0.11923162 -0.13245834 0.08695083 0.058294035 0.06575958 -0.36886296 0.19467717 0.16238993
0.22539933 0.05324535 0.28865474 -0.18676883 -0.00015945264 -0.19081317 -0.060065016 -0.11959047
0.082954824 0.047613475 0.34406796 0.4384271 0.30262777 0.2572 -0.09494716 -0.09313798
0.25400758 -0.017937673 0.29839066 -0.022054594 -0.03018297 0.18368079 0.167153 0.010991438
-0.0014088978 0.0074735517 -0.30729702 0.1924982 0.2804494 0.12221764 0.07778792 0.15317269
-0.0525133 -0.015165386 0.011018979 0.1572257 0.314889 -0.44409308 0.05783009 -0.18663943
0.44665277 0.021341356 0.048495382 -0.21841395 0.31835485 -0.001622348 -0.070879385 0.2503679
0.012866513 0.09257152 0.39438015 0.3186838 -0.06208478 0.23774287 0.21740983 0.3261697
-0.19475065 -0.091009125 -0.08225474 -0.22798394 0.33366984 0.13988848 0.12710595 0.20314184
-0.17162332 -0.00010171379 0.037724808 -0.124053754 0.21392475 -0.15508519 0.15390444 0.12974781

action_layer.4.bias f4 [50]
00000000: c790 96bd d1cc 223e dfcd 42be 8e95 e43d
00000010: f3a9 97bd 54cd 243e 0c11 623e 9513 613c
00000020: fffd 813d 3410 8a3e 7738 f4bc 8d79 53bd
00000030: 123f 303d ce1a 25be 9ff1 133e 34d6 663c
00000040: 8082 ad3e 9c40 633e 445e 67be 80ae 133e
00000050: 916b d9bd b925 53bd b66f 283e c0af b93d
00000060: 7bc7 7b3d 72f7 103e a41a 58bc a4de ca3c
00000070: 68c9 66bd e477 2cbd 90b9 e2bd b1a4 9a3d
00000080: 0d9c f53d b852 0f3c 1689 1b3d 2b75 43bd
00000090: 00a2 12be bfa1 0dbe 0f03 823d 4446 42be
000000a0: 6113 93be 93f3 48be 4227 0d3e 9cce 5e3e
000000b0: 4e30 b93c 5756 5abe 53e1 a73d a293 57bc
000000c0: 489b 823d ab22 e1bd
-0.07351833 0.15898444 -0.19023846 0.11161338 -0.07405462 0.16093951 0.22076815 0.013737579
0.06347274 0.26965487 -0.02981208 -0.05162959 0.0430289 -0.16123506 0.1444764 0.014089156
0.33888626 0.22192615 -0.22594553 0.14422035 -0.1061622 -0.051549647 0.16448864 0.09066725
0.061469536 0.14156893 -0.013189945 0.024764366 -0.05634442 -0.042106524 -0.110705495 0.07550944
0.11992655 0.008747749 0.037972532 -0.047719162 -0.1431961 -0.13831232 0.0634824 -0.18972117
-0.28725722 -0.19624166 0.13784507 0.21758503 0.022606041 -0.21321999 0.08197274 -0.013157757
0.06377274 -0.109929405

action_layer.6.weight f4 [3, 50]
00000000: d10d 4ebe 49e1 41bc 82a7 793d d774 8bbe
00000010: 17c1 d2bd b733 97be 35d0 ef3b 3313 733d
00000020: 903a 31be 2d6a 1b3e 3bec 74bd db3b 783e
00000030: 6a15 803e 4fc4 9a3e 10b8 a03c dc44 d8bd
00000040: ded9 f63d fcb8 373b 5b30 d83c 96f0 b13d
00000050: dfaf 8cbe b7a1 aabd 43d8 f5bc 409d b1bc
00000060: ce4d b9be 95f0 98be 3cfc 513e 7e64 5fbe
00000070: 3f83 8bbe f0c9 6cbe 31ab 983e 9ba3 8a3b
00000080: 015f 76be e78d 8c3e c4ce b93e 35ae 8abe
00000090: dcb5 04be ae9d a83e 7697 71be a813 853c
000000a0: 6e18 ddbd 3e42 f9bb 7ac0 70be 4875 2c3e
000000b0: c251 8f3e 65e3 fbbd 9045 43be f5cd cebd
000000c0: 8296 43bd 5568 c9bc ba6f fcbc 1c4d a6be
000000d0: af6b 94be 72c5 17bd 2cef 9b3e 0dd6 153e
000000e0: a6be 3dbe b35e a3bc 2812 363e 7799 70be
000000f0: 68b0 49be d73f bebe c7e8 f8bd 183e 213e
00000100: ade5 043e e592 7b3e 72c9 fabe 2a15 99be
00000110: 52c1 eb3e f1f1 403e b7b6 51bd f639 b83e
00000120: 1064 9e3e cd70 f4bd 831f 0c3e fef5 ee3d
00000130: 0cfb cabd 3793 91bd bfac 91bd 7855 013f
00000140: 5202 a8be 807a d6be a4b4 e4bd 67a9 06be
00000150: f7b0 41be 6964 9f3e 7b0d e53e 1de0 53bd
00000160: 1d7e bbbb 9be0 023f 0f3c a93e d31d 86be
00000170: 1703 a6bd d01d dbbe 20b0 b73d 28fd bb3e
00000180: 955b 603d 5ea3 6fbe ff09 e0ba f038 dbbd
00000190: 831c 843e 3d9a 7d3d 1241 533e 6b45 673e
000001a0: dc74 dfbd 2d44 a73e 77b1 263e f246 19be
000001b0: e5cd 6a3e 0498 633e 1cfc 2f3e 6f7b b53d
000001c0: 13c0 96bc 608c 80be 2212 48be 5864 403e
000001d0: 9d3d 6e3e ea95 473e 4682 c8bd 23b8 63be
000001e0: 74ec 9f3e f658 b9bd d8e4 2cbe cdea 773e
000001f0: 1f86 ce3d f853 e73d 5ca5 6abe a0a7 4c3e
00000200: 97f2 943d 9c57 26be 49df 36bd 1ec9 243e
00000210: bddc 903e 888c 5bbe 1056 81be 43f6 acbc
00000220: 208d 57be 5207 a6be f751 593e 8d8f 62bd
00000230: fadd 64be 2f1b 8b3e f003 983e 3232 db3d
00000240: 2b92 9ebe eb95 5cbe af0d 523e 1322 7a3e
00000250: cf6b 3e3e 295c 2c3e
-0.20122458 -0.011833497 0.060950764 -0.2723758 -0.10290735 -0.29531643 0.0073185214 0.05934448
-0.17307496 0.15177222 -0.0597956 0.24241583 0.25016338 0.30227897 0.019619018 -0.10560009
0.120532736 0.0028033843 0.026390245 0.08688466 -0.2747793 -0.08331626 -0.030010348 -0.021681428
-0.36192173 -0.2987105 0.20506376 -0.21815678 -0.2724857 -0.23123908 0.2981811 0.004230929
-0.24059679 0.27452013 0.36290562 -0.27086034 -0.12959999 0.329328 -0.23592934 0.016244724
-0.10795675 -0.0076067736 -0.23510924 0.16841614 0.27992064 -0.122992314 -0.19069505 -0.10097877
-0.047750957 -0.024585882 -0.030814994 -0.32480705 -0.28988406 -0.037053533 0.3045591 0.14632435
-0.18529758 -0.019942617 0.17780364 -0.23496042 -0.196962 -0.3715808 -0.12153774 0.15746343
0.1297824 0.24567755 -0.48981816 -0.2989896 0.4604593 0.18842293 -0.05119964 0.3598172
0.30935717 -0.119355775 0.13683896 0.11668013 -0.09911165 -0.07108157 -0.07113027 0.5052104
-0.3281427 -0.41890335 -0.11167267 -0.1315056 -0.18915163 0.31131294 0.44736847 -0.051727403
-0.005721821 0.5112397 0.33053634 -0.2619463 -0.08106058 -0.42796183 0.0896914 0.3671658
0.05477484 -0.23402163 -0.0017092823 -0.10704219 0.25803003 0.06191467 0.20630291 0.22585075
-0.10910961 0.32669201 0.16278635 -0.1496847 0.22930105 0.22225958 0.17186016 0.08861434
-0.018402135 -0.25107098 -0.19538167 0.18788278 0.23265691 0.19490781 -0.09790473 -0.22238211
0.31235087 -0.09050171 -0.16884172 0.24210663 0.10084175 0.11295313 -0.22914642 0.19985819
0.07272833 -0.16244358 -0.044646535 0.16092345 0.2829341 -0.21440327 -0.25260973 -0.02111352
-0.21049929 -0.3242746 0.21222673 -0.055312682 -0.22350302 0.27169177 0.29690504 0.10702933
-0.30970892 -0.21541564 0.20513032 0.24427061 0.18595813 0.16832031

action_layer.6.bias f4 [3]
00000000: 114b b83d ab49 debd 9b71 0b3e
0.08998693 -0.10853895 0.13617556

value_layer.0.weight f4 [200, 11]
00000000: f09a c13e 57f1 ddbd b12d c43e ead8 c53c
00000010: bbc5 03bd 5e68 803c 7fcc 96be 1cbe 953e
00000020: 9aed 433e f5f4 7ebe 8f83 17be e122 073f
00000030: dfac 11bd 381a 693d df6e 023d a6d5 a4be
00000040: ec5b d33d b315 e93b a858 c9be d210 22bb
00000050: d493 ba3e 9a3a 33be 17a5 0d3e 6598 45be
00000060: a156 fc3b e222 043d 0622 9d3d c776 963e
00000070: ebc6 113f 4a7e 91bc 6b5c ca3d 9122 dabe
00000080: 6bdf 713d 797a 16bf 5385 6bbd 90c4 2b3e
00000090: 587f 87be 767d 773e 0023 0bbe 69eb c93d
000000a0: 743b 95be c7e6 cdbe 0df0 1d3e 0ab2 2fbf
000000b0: 8b67 9c3e a7af 00bf 8b1f 823e 14cc a6be
000000c0: 1ece 163f de4f c7be 2f4c a5be a2e0 813d
000000d0: 0619 d8be eb97 943d 64f9 65bd b1e0 0a3f
000000e0: b483 113e 75df bc3e 16b4 a8bd 067e a0be
000000f0: 03cd a8be 6f03 333e c93d 7e3d 4c16 033f
00000100: d38b 353e 92ee 7fbe 98c5 e4be e40e a8be
00000110: 40e8 0cbf c9c7 3fbe c421 f93e 4e1c aa3e
00000120: 1111 37be 59c8 873d 3507 1bbf b113 c1bd
00000130: bc11 293e 457a 573e 00fa 10bf 13a2 783e
00000140: ef1c 033f 09fa 023d cc0a 0bbe 4bf7 573e
00000150: 22a7 b9be 13da f6be f80b d53e c6c6 93bd
00000160: a517 a13e b91a 8c3e 80e2 52be 2d50 af3e
00000170: d303 22bf 1498 b8bd 5d76 e73e a86e 14bf
00000180: 090f 953e a005 fbbc d498 80be bed4 fa3d
00000190: 0a4f c3be 93dc 9a3e 5fe3 3fbe cde2 f03d
000001a0: df18 be3e c01e ddbe b461 9c3e 27f3 263e
000001b0: f4b6 81bd 9440 733e 4954 7e3e 6689 823e
000001c0: 9d4d b73c a829 893e be69 573c dc6c d2be
000001d0: 30c6 9c3e 23d1 a6be ec38 4ebe 12f0 1dbe
000001e0: 9efb 99be 90ee 063e 3932 693e 03cc 44be
000001f0: 8d76 ad3e c9c8 193d 68d7 6f3c 7fea 223e
00000200: 04bc 29be 35e5 c5bd 6c57 053f 340b 243e
00000210: 9690 bb3e 3eda 35bc 5528 0d3f b4a6 cc3e
00000220: 738f a6bd 7690 0c3e caa4 623e 083f 17be
00000230: 8655 253e 3474 ce3e ef03 59be 22cb f53e
00000240: f3e6 f8be 4348 a23e 8598 0b3d b2a6 1abc
00000250: e37b 653e 08e3 debc 8609 9d3d c93d 1fbe
00000260: d11b e93e 019d bcbe 85d7 babe bab7 213e
00000270: f82a 34bf 4b7c 263e f1f4 253d 10d8 14bd
00000280: 8b23 803e c5f5 1a3e 8e8e 6f3e 290d 40be
00000290: 6e69 2fbe 6196 b63e 2cf4 bfbd b707 47be
000002a0: 4024 1bbe 2a30 64bd dd5a 12bf c7ce 023f
000002b0: 610f 223d b794 013e 6d63 913e 5050 fdbe
000002c0: c7e5 f23e a9a1 d3be 0395 a43e 2f35 143e
000002d0: 54e2 4dbd 5a4e a73d 9500 00bf da0f 2c3e
000002e0: d46d d23e ae5d 5a3e c691 a13e ba00 01bd
000002f0: f853 a73c 84dd 67be 3a74 9f3d a4c2 56be
00000300: 3ba2 203d 0c66 a23e 4559 8f3e 5126 0dbf
00000310: 4cd5 c3bd 8d2a fabd 67da cf3c 74ea 9abe
00000320: 75ef 653e 8ffa 36bd eec9 2c3d dc61 a8bd
00000330: 4a40 33be 248d 023e 69d7 96be d828 bd3e
00000340: 2eab 8bbe 5285 3b3d bf08 8d3e 29b3 b2be
00000350: 163a 49bd a3f0 2bbe 46c2 dc3e 88e8 88be
00000360: d939 ab3e 6cdf 6e3e 4ab6 6dbe 93a8 083f
00000370: fe40 55be 2e15 373d ca61 bb3e 3407 6dbd
00000380: 68e4 e73e e56e 8bbd 3312 463e 9683 0f3e
00000390: 57a6 35be ffa7 20be dc34 103f b4ae 293e
000003a0: 5e40 06bf 2db9 54bc c331 39be cce8 4a3e
000003b0: fa59 2fbd 7dca 7cbe 3654 c63d 7fd0 a33d
000003c0: a9c8 d53d d05d 813e a0c8 e83b 6247 8cbc
000003d0: f6a7 883b cd70 cabe 0b31 fd3c 70a8 e1be
000003e0: d435 373f 620b 00be 36e3 8a3e 66c9 9cbe
000003f0: b1bf 64be c01a ccbd f55e 953e 13ce 90be
0.3781352 -0.108370475 0.3831611 0.024151284 -0.032170992 0.015674766 -0.29452893 0.29246604
0.19133607 -0.24898131 -0.1479628 0.52787596 -0.035565253 0.05690977 0.031844016 -0.3219425
0.10320267 0.0071131825 -0.39325452 -0.0024729264 0.3644091 -0.17502823 0.13832508 -0.19296415
0.0077007567 0.03225983 0.07672505 0.29387495 0.5694415 -0.017760415 0.098809086 -0.42604497
0.05905096 -0.5878063 -0.057500195 0.16774201 -0.26464343 0.24168953 -0.1358757 0.09859354
-0.29146922 -0.40215132 0.15423603 -0.6863104 0.30547747 -0.50268024 0.2541469 -0.32577574
0.5890826 -0.3892812 -0.32284686 0.063416734 -0.4220659 0.072555386 -0.05614604 0.542491
0.14210397 0.36889234 -0.08237474 -0.31346148 -0.32968912 0.17481779 0.06207064 0.512059
0.1772912 -0.24993351 -0.44682002 -0.3282386 -0.55041885 -0.18728556 0.48658574 0.3322472
-0.17877604 0.0663001 -0.6055787 -0.09427584 0.16510671 0.21042736 -0.5663147 0.24280576
0.51216024 0.031976733 -0.13578337 0.21090429 -0.36260325 -0.48213252 0.41610694 -0.072156474
0.31463352 0.27364138 -0.20594215 0.34240857 -0.63287085 -0.090133816 0.45207492 -0.5798135
0.29113033 -0.03064233 -0.251166 0.122476086 -0.3814624 0.3024641 -0.18739079 0.11762009
0.3712835 -0.43187523 0.30543292 0.16303693 -0.06333724 0.23755103 0.2483684 0.25495452
0.022375876 0.26789594 0.0131477695 -0.41098678 0.30619955 -0.32581434 -0.20138901 -0.15423611
-0.3007478 0.13176942 0.22773065 -0.1921845 0.3387951 0.037545 0.014638759 0.15909766
-0.16575629 -0.096628584 0.5208652 0.16019899 0.36633748 -0.011099396 0.55139667 0.39970934
-0.081328295 0.13726982 0.22133175 -0.14770138 0.16145906 0.4032303 -0.21192907 0.4800654
-0.486137 0.31695756 0.034081 -0.009439157 0.2241054 -0.027207866 0.07667832 -0.15550913
0.45529035 -0.36838534 -0.36492553 0.15792742 -0.70378065 0.16258352 0.040516797 -0.036338866
0.25027117 0.15132816 0.23394224 -0.1875502 -0.17130062 0.35661605 -0.09372744 -0.19436537
-0.15150547 -0.055709995 -0.57169896 0.5109677 0.039565448 0.12654386 0.28396168 -0.49475336
0.4744093 -0.41334274 0.32144937 0.14473413 -0.05026467 0.08169241 -0.5000089 0.16802922
0.41099417 0.21324798 0.3155653 -0.031494834 0.020425782 -0.22643095 0.0778584 -0.20972687
0.039217215 0.3171848 0.27997795 -0.5513659 -0.095621675 -0.12215147 0.025372697 -0.30257
0.22454627 -0.044672545 0.042184763 -0.0822179 -0.17504993 0.12749153 -0.2946122 0.36945224
-0.27279037 0.04578144 0.27545735 -0.34902313 -0.04912766 -0.16791014 0.4311697 -0.26739907
0.33442572 0.23327416 -0.23214069 0.53382224 -0.20825574 0.044697933 0.36598045 -0.057868198
0.45291448 -0.06808261 0.1934288 0.1401504 -0.17739235 -0.15689085 0.56330657 0.1657055
-0.52441967 -0.0129836025 -0.18085389 0.19815367 -0.042810418 -0.24686618 0.09684031 0.07998752
0.104386635 0.25266886 0.0071039945 -0.017123882 0.004170413 -0.39539185 0.030907175 -0.4407382
0.7156651 -0.12504342 0.27126473 -0.30622405 -0.2233875 -0.0996604 0.2917401 -0.28282222

value_layer.0.bias f4 [200]
00000000: 15d1 89be a0fa afbe 4db8 823d f3bd d23d
00000010: 1503 5d3e c38a 06bf 934f cc3e e694 7c3e
00000020: 1af6 12bd 21ac 443e 591a 613e be13 a03e
00000030: 70e6 29be 3c90 c6be 39d3 6c3e c06f 7abe
00000040: 8ff3 60be 1732 fb3d 737f a83d 4a6c 66be
00000050: eb6d 973c 7e08 723e 1de8 5abe 037f afbe
00000060: c27c 1ebe 2ab6 6a3e 2cbf 52be dcb7 f63e
00000070: 9fcf 96be 15be d7be 32a6 693e dabc 633e
00000080: 88c7 313e 15c2 5e3e 7407 a7be a750 b13d
00000090: 31ca 93be 511f 00bd 7958 41be a2b6 edbb
000000a0: 97f9 acbe 6845 233e a9fb f4bc be7b 92be
000000b0: e474 1b3e 9ed9 f2bc 41ea e4bd 681a 213e
000000c0: 852d 813e aa64 373e 6220 b0be e0fd d03e
000000d0: 5ad2 9bbd 87a7 1abe 3003 8a3d 2e8c cc3c
000000e0: 0448 a93e ccb4 b83e 7891 68bc c61e 83be
000000f0: ef95 9a3e 65b4 a1be 806d b0be 40b2 203e
00000100: ceb1 e63c 1e38 eb3e e031 a23e 4ea5 913d
00000110: 2a36 9cbe aa66 55be 1cc7 76be a18b 8f3e
00000120: 91fe 48be c0c2 093a ea15 9c3e 886a b3bd
00000130: f4c4 86be c52a 653e 72e5 d7be c871 b9be
00000140: e517 d93c bd52 843e c590 f4bc 9f77 eb3d
00000150: 7cf5 533e 4d29 4ebe 5d3c 58be 9597 3b3e
00000160: 145e 94be 0466 cbbd b3fe dd3d 8315 5cbe
00000170: beaf 773e 5248 db3e eb1c babe 0ff4 19be
00000180: 04a8 56be a8a7 223c bd92 c53e a4dc a6be
00000190: c039 713c 3e8d 983e ed72 c1be 3822 2cbe
000001a0: d6fd cfbe 62dd cd3d 700f 443c b9bb a73e
000001b0: c243 553e 8420 a2be c95c 3c3d d3ad 7b3d
000001c0: 19c0 393e 9a72 08bd 1e45 5c3e f35c 8fbe
000001d0: e477 8b3e cd80 b63d 0541 8dbd bcc5 50bd
000001e0: 599a 1d3e 5716 07be c999 62be 89a5 8a3e
000001f0: bdc2 5a3e 9ba8 983e 54c1 0fbe f28f 5d3e
00000200: e016 373e 8aa2 c63e b0c6 963d 8a1f 06be
00000210: 7759 7b3e 9f18 68be 1b4d 97bc 482e 42be
00000220: 86d0 dd3e 86f7 003e b099 013e a0cb 9dbc
00000230: bddc efbe ae9a 4dbe 5cc7 36bd 1b14 a4bd
00000240: bed1 9ebd c38f dc3e a9b1 2b3e 0d2d a9bd
00000250: 61ab 573d e068 a53d f36c b2bd b123 e3bd
00000260: 4fa8 46bc 3b72 babe 54e1 823b 123a a03e
00000270: cf14 0cbe 2ac5 ad3e f345 d83e b902 af3e
00000280: d725 92be dcf8 dbbd 4b63 00be 862b c93e
00000290: 9551 ad3e 229d 83be dd7d b03d 65cf 53be
000002a0: 89a8 8a3e 2e58 db3d dab8 e03e 0289 9a3e
000002b0: 2df3 66bc e551 333d 5eb7 94be 76cf 013e
000002c0: 70c2 273e af59 103f b053 70be 1b8f 9f3e
000002d0: d9da c73e b8e8 963e bef9 7e3d 8ff6 c63e
000002e0: 628c 123e 9529 dfbe a5ac e13d d042 fb3d
000002f0: d41f f6bd b3a5 c23c 77e2 63be 3028 e8be
00000300: e440 47bc 5f83 af3e c618 55bd 4737 aabe
00000310: e440 e23e 21b8 003d ba73 4b3e 2db8 043d
-0.2691733 -0.343709 0.06382809 0.10290136 0.21583207 -0.52555484 0.3990446 0.24666175
-0.035879232 0.19206287 0.21982707 0.31265062 -0.16591811 -0.38781917 0.2312745 -0.24456692
-0.2196791 0.12265413 0.08227434 -0.22502246 0.01848503 0.23636052 -0.21377607 -0.3427659
-0.15477279 0.22921053 -0.20580739 0.4818715 -0.29455277 -0.4213721 0.22817305 0.2224001
0.17361271 0.21753724 -0.32622874 0.08657961 -0.28865197 -0.031279866 -0.18881406 -0.0072544375
-0.33784172 0.15944445 -0.029905157 -0.28610033 0.15181309 -0.029644784 -0.11177493 0.1573273
0.2523004 0.17909494 -0.34399706 0.4081869 -0.07608481 -0.15102969 0.06738889 0.024969187
0.33062756 0.36075437 -0.014194839 -0.25609416 0.30192515 -0.31582943 -0.34458542 0.15692997
0.028160956 0.45941252 0.31678677 0.071116075 -0.30510074 -0.20839944 -0.24099392 0.28036216
-0.1962836 0.0005255155 0.3048547 -0.087605536 -0.26322138 0.22379597 -0.4216724 -0.3621962
0.026500652 0.25844374 -0.029854188 0.11497425 0.20699114 -0.20132942 -0.21116777 0.18319543
-0.28978026 -0.09931567 0.10839596 -0.21492581 0.24188134 0.42828614 -0.36350188 -0.15034507
-0.2096253 0.009927668 0.38588515 -0.3259021 0.014723241 0.2979526 -0.37782994 -0.16809928
-0.4062335 0.10051991 0.011966571 0.3276041 0.20826629 -0.31665432 0.045986924 0.06144507
0.18139686 -0.033312418 0.21510741 -0.28000602 0.27239907 0.089112855 -0.06897167 -0.050969824
0.1539091 -0.13192116 -0.22128977 0.27079418 0.2136335 0.29816136 -0.14038593 0.21636942
0.1787982 0.38795882 0.073621154 -0.13097969 0.24545847 -0.22665642 -0.018469384 -0.18962967
0.43323153 0.12594423 0.12656283 -0.019262135 -0.46848097 -0.20078537 -0.044623718 -0.08011647
-0.07754849 0.4307843 0.1676699 -0.08260546 0.052653674 0.08076644 -0.08712187 -0.11090792
-0.012125089 -0.36415276 0.0039941464 0.31294304 -0.13679813 0.33939487 0.42240867 0.34181765
-0.28544495 -0.107408255 -0.12537877 0.39291018 0.33851305 -0.2570582 0.086177565 -0.20684583
0.27081707 0.10710178 0.4389103 0.30182654 -0.014096064 0.043779273 -0.29046148 0.12676796
0.16382766 0.56386846 -0.23469424 0.31163868 0.39034155 0.29474425 0.06224989 0.38859984
0.14311364 -0.43586412 0.110192575 0.12268603 -0.120177895 0.023760652 -0.22254358 -0.4534316
-0.012161467 0.34279916 -0.05202558 -0.33245298 0.44190133 0.0314256 0.19868365 0.032402206

value_layer.2.weight f4 [20, 200]
00000000: 6a8b d7bd 194a 593e f353 b0be 0153 5d3e
00000010: 4360 9e3d b3db c4bd baf4 853e 16dc 9f3e
00000020: 8742 d9bb e9d2 ecbd 9d03 8dbd a982 91bc
00000030: ea7b 1fbe 6169 f83e 9b8e 54bd 4244 4f3e
00000040: 92cd 06bb d943 8ebd 3ec1 373e eb16 06be
00000050: d775 f2be 5b97 24bd eb4c e8bd 17bc 323d
00000060: ca39 bebe 58c0 69bd 82d8 94bc db40 63be
00000070: 2967 943e 7da0 543e 49d6 803e f618 f33c
00000080: dbcc bc3d d7cd 153d 9423 03bd ecf5 f83e
00000090: d10f 243e a693 4c3e 2781 e3bd 0bd2 1bbf
000000a0: d293 1b3e 180f dd3c 0e3a f13d bb29 c8bd
000000b0: 4ca8 50be d229 dfbe 23c8 583d 24e1 7a3d
000000c0: 8463 b4bc 0026 89be 2f0a 423d 2cbc f3bc
000000d0: a907 7dbe 4dec bbbd 2c0f cfbb 5fbe b13d
000000e0: b227 abbd 49a9 963e 1b5d a43e 4faf 31be
000000f0: b730 cd3e d343 89be b5e8 bb3c cd15 233d
00000100: c32d 623e 0d44 203e f88d 4b3c e9b3 6d3e
00000110: b704 72be 6a0f bc3e 53c8 bfbd 1153 f1be
00000120: 52f2 b83d b89c 15be 181b eabd d760 2f3c
00000130: bce9 d3bd cfd4 09bf ab7b dc3d 9609 0bbe
00000140: 0220 e13e 9cd0 213c d560 7dbd 055e 0c3e
00000150: 5745 0c3e 8d29 8fbe a5c8 57be 5a43 a53e
00000160: 60cd 903d 384b 10be e590 563d d11f 3dbe
00000170: e128 e5be 77da 2ebd ac55 0a3d cb51 b33d
00000180: d0c8 1fbe 773f 53bd 60d2 393e 78e6 0dbe
00000190: 84dc 1b3f 2682 913d f209 debe 4d8b aa3e
000001a0: 31d9 9abd d91f bcbe 71f6 3fbe 9657 9c3d
000001b0: ee94 113e 0cc8 9a3d 7400 b33e c08f 393e
000001c0: a264 593e 849b 52be 3e92 063e 0153 94bd
000001d0: ac10 a8bd bee9 09be e011 92be 2097 03be
000001e0: 0a58 d0bd 9953 8ebe e7eb 553e 4027 fc3d
000001f0: 96fd 873d 9de7 05be c0fd 7bbd c1a0 363e
00000200: e666 173d fde1 01bd 2261 663e b73c 86bd
00000210: d82b 03be dc86 c7be f5f6 993b 7eb3 383f
00000220: 68a3 77bc d643 a2bd 4a67 31bd c5e7 06be
00000230: 8846 37be ac7f ad3d 675c ddbe 9ac7 22be
00000240: 3974 243f 0d87 383e cb54 3abe 2356 fa3d
00000250: e111 febe 4545 d0be 19a5 693e 3b3f 8abd
00000260: 503e 3ebf ddd9 213e 3777 533c 6a4e 0fbe
00000270: 3bf2 e23e fe67 0d3e fb14 0abf 591c 3d3d
00000280: 9366 013d 4e40 183d 2774 ff3d 583e 62be
00000290: bd20 b73d 9500 443d 0eee a4be 432a a53d
000002a0: 4b15 df3d b8a4 7abe 1982 55bd 2f7c 23be
000002b0: b3f3 dabd 0c7d 633e 9dfd 2fbe efda 22bc
000002c0: a145 003e abad c0bd a82b 35bd 9918 4e3b
000002d0: 2551 69be 0425 e2bd bd72 963e 3a5d eabd
000002e0: 7655 80be 8dea 9abd 16ee 343d 9ae9 223e
000002f0: 1fc8 b1bd 3538 063e 65dd 943d adc6 8f3e
00000300: 1b34 f2bb a80e 7b3e ffdf 3d3e 5da4 8c3e
00000310: e9a9 03bf f0e3 01be 8fab 383e 6467 99bd
00000320: 9652 10bd 0d0c 803d b55e 713e 2202 423e
00000330: 096f 35be 8c2a 9bbe eba3 de3e 50b1 0cbc
00000340: 5fe1 fdbd c6c1 51bd 607c 24be 77b2 26be
00000350: 3e59 45be e486 363e 2bd9 2b3e 73c7 f8bd
00000360: 951d bdbe 1d62 663e b325 9c3d f58f 543e
00000370: 3785 a0be 1f85 00be 99be d6bc ad37 ae3d
00000380: 1181 1fbf bd85 3dbd b0d7 27bd e41f 3abe
00000390: 9fae 213d 5050 5a3e 19e7 e13e 4199 5a3d
000003a0: ec78 8a3d d970 93bd 8a5b 3e3d 7709 81bc
000003b0: ce97 36be 39c7 363e c881 053e 93ba 96bd
000003c0: 129d e53c 16f5 c13d 8227 10be 4ef5 a5bd
000003d0: 5265 903d 294f f1bd ae1a bf3e 108b 0c3e
000003e0: 55f0 1e3e 1676 0cbe 4276 413d b70c e0bd
000003f0: 3a6e 503e 3853 8c3d 426c a33d 1b0a 413e
-0.10524638 0.21219672 -0.34439048 0.21613695 0.07733204 -0.09612217 0.26163274 0.312226
-0.006630245 -0.115636654 -0.06885455 -0.017762499 -0.15574613 0.48517898 -0.05189381 0.20240882
-0.0020569307 -0.06946535 0.1794481 -0.1309468 -0.4735553 -0.040183406 -0.11342796 0.043636408
-0.37153465 -0.0570682 -0.018169645 -0.22192709 0.28984955 0.20764346 0.25163487 0.029674988
0.092187606 0.036573257 -0.03201635 0.48625124 0.16021658 0.19978198 -0.11108618 -0.60867375
0.15193108 0.026984736 0.11778651 -0.097735845 -0.203767 -0.43586594 0.05292524 0.061249867
-0.022020109 -0.26786804 0.047372993 -0.029752813 -0.24709953 -0.0917593 -0.0063189473 0.086788885
-0.08357181 0.2942603 0.32102284 -0.17352031 0.4007623 -0.26809558 0.022938112 0.039815713
0.22087769 0.1565096 0.012423985 0.23213162 -0.23634611 0.3673051 -0.09364381 -0.47133687
0.09030594 -0.14610565 -0.11430949 0.010704241 -0.10347316 -0.53840345 0.10765775 -0.13577875
0.43969733 0.0098763965 -0.061859924 0.1370774 0.13698326 -0.27961388 -0.21072634 0.32277948
0.07070422 -0.14091194 0.052384276 -0.18469168 -0.4475775 -0.042688813 0.03377311 0.08755835
-0.15603948 -0.051574197 0.18146658 -0.13857448 0.60883355 0.07104902 -0.43366963 0.33309403
-0.07560957 -0.36743048 -0.18746354 0.07633893 0.14216968 0.07557687 0.34961283 0.18121243
0.21229795 -0.20567137 0.13141724 -0.07242394 -0.08206305 -0.13468072 -0.28529263 -0.12850618
-0.10173042 -0.27798155 0.20890771 0.12312174 0.066401646 -0.13076635 -0.06152129 0.1783476
0.036963366 -0.03170966 0.2249799 -0.06554549 -0.12809694 -0.38970077 0.004698629 0.72148883
-0.015114643 -0.07923095 -0.043311395 -0.1317435 -0.17898 0.08471617 -0.4323456 -0.15896454
0.6423984 0.18020268 -0.18196408 0.122234605 -0.49623016 -0.40677848 0.22816886 -0.067503415
-0.7431383 0.15805764 0.012906841 -0.13994756 0.44325432 0.13809201 -0.53938264 0.046169613
0.031591963 0.0371707 0.12473326 -0.22094095 0.08941791 0.047852118 -0.3221287 0.080647014
0.10892733 -0.24476898 -0.052126024 -0.15965341 -0.10691013 0.2221567 -0.1718659 -0.009939893
0.12526561 -0.094081245 -0.044231087 0.0031447767 -0.2278486 -0.110422164 0.29384413 -0.11443563
-0.25065202 -0.07564268 0.04417237 0.15909424 -0.08680748 0.13107379 0.0726879 0.28081265
-0.0073914654 0.2451731 0.18542479 0.2746915 -0.5143114 -0.12684608 0.18034194 -0.07490423
-0.03523501 0.062522985 0.23571284 0.18946126 -0.17718138 -0.30305898 0.43484434 -0.0085871965
-0.12396502 -0.051210187 -0.1606307 -0.16279016 -0.19272324 0.17824894 0.16782062 -0.12147417
-0.36936632 0.22498365 0.07624378 0.2075804 -0.31351635 -0.12550782 -0.02621393 0.08506713
-0.62306315 -0.04627012 -0.04097718 -0.18176228 0.039473172 0.213197 0.44121626 0.05336881
0.06761345 -0.07199258 0.046474017 -0.015751584 -0.17831346 0.17849435 0.13037789 -0.07359805
0.028028999 0.094705746 -0.14077571 -0.08103429 0.07050575 -0.11782677 0.37325042 0.13724923
0.15521367 -0.13716921 0.04723192 -0.10939925 0.20354548 0.0685181 0.07979633 0.18851511

value_layer.2.bias f4 [20]
00000000: 66bc efbd ad28 9ebd 6b28 513d 4860 b0bd
00000010: 45c5 a23e 13ea 51bc 4ea2 8dbd aa1b cbbc
00000020: 6e16 02be 93eb bf3d 80d8 29be 220a 863e
00000030: bd2f 25be 18bb 86be 54cb d7bb 207c 99be
00000040: 6bc4 ddbd d344 62bd aac9 6d3e 327a f0bd
-0.11705856 -0.07722602 0.051063936 -0.08612114 0.3179113 -0.012812155 -0.06915723 -0.024793465
-0.12703869 0.09371104 -0.16586494 0.26179606 -0.16131492 -0.26314616 -0.006585518 -0.29977512
-0.108284794 -0.055241417 0.2322146 -0.11742057
