saved_models_ppo/model_ppo.pth (torch, 65717 bytes, 15 tensors)

action_layer.0.weight f4 [200, 11]
000000 2b f3 8b 3e 6f 49 54 3e c6 b1 9c be d3 9b a9 3e
       0.2733396 0.20731138 -0.3060438 0.33126697
000010 92 12 d1 3d 69 1c 00 3e cb 2b ed be 2e a2 f6 3d
       0.1020862 0.12510838 -0.46322474 0.12042652
000020 79 f2 55 be e9 1e 06 be ed c0 77 3e fb b5 78 3d
       -0.20893277 -0.13097729 0.24194689 0.060720425
000030 d6 c7 9f 3e 55 aa 8c bd 8f 7a 9a be 38 b5 87 3e
       0.3120715 -0.06868426 -0.3017163 0.26505446
000040 a7 32 21 be 2d 93 0e bd de 6e 96 be 5f 79 a0 3e
       -0.15741979 -0.034808327 -0.2938146 0.313426
000050 dd c2 a3 3e be bf 04 be 46 1a b3 3c b7 65 0f 3e
       0.31984606 -0.12963769 0.021863114 0.14003645
000060 06 20 bd be f2 80 35 3e d9 81 bf be a8 32 20 3e
       -0.36938494 0.1772497 -0.37403753 0.15644324
000070 3e 57 44 be cb 16 3b be 4d 72 8c 3b ec 66 cc be
       -0.19173905 -0.18270414 0.0042860867 -0.39922273
000080 0b 73 60 3e 17 14 8a 3e ed c9 ae 3d a5 44 c8 bd
       0.21918885 0.26968452 0.08534608 -0.09778718
000090 58 86 f7 3e aa b9 34 be 14 a3 55 3e e5 f9 3d 3e
       0.48344684 -0.1764895 0.2086299 0.18552358
0000a0 84 c2 91 3e ff 61 dc bd 67 82 1a 3d ee 56 8d 3e
       0.28468716 -0.10760879 0.037722018 0.27605385
0000b0 eb d5 82 3e 32 a2 a4 be d2 7c 9a 3e 33 f7 3b 3d
       0.2555383 -0.32154995 0.30173355 0.045890044
0000c0 6e 8c 38 be ea b3 e6 bc 84 0c d3 3c 0c f4 cd 3e
       -0.1802232 -0.028161962 0.025762804 0.40225255
0000d0 d3 65 4c be 59 52 62 3e 6e 42 a5 be f1 19 1e 3e
       -0.19960718 0.22101726 -0.32277244 0.15439583
0000e0 6a 29 0a be ab c9 4e 3e f5 22 c3 3e 8f d1 a0 be
       -0.1349236 0.20194118 0.38112608 -0.3140988
0000f0 ff 55 52 be dd ed 0d be 85 04 a6 be aa 3e a6 3e
       -0.20540617 -0.13860269 -0.32425323 0.32469684
000100 7d 91 ae 3b 9d f9 cc bd 8d e5 87 be 57 0c a8 3e
       0.005327402 -0.100085475 -0.2654232 0.32821915
000110 94 98 0e be 81 9b bb be 97 21 e3 3c ba 9e d5 3d
       -0.13925391 -0.36642078 0.027725978 0.10430665
000120 3e 1d 21 3d 69 35 9d bd f5 a4 27 be 9d 58 84 3e
       0.03933453 -0.07676203 -0.1637152 0.25848857
000130 4a 81 16 bd e1 27 dc 3d f6 b7 ea bd 68 40 c9 be
       -0.036744393 0.10749794 -0.11460869 -0.3930695
000140 8b 49 3b 3e 6f 4f bc be 57 bf 1b be e2 9e 21 3d
       0.18289773 -0.36779353 -0.15209709 0.039458163
000150 b0 91 2e bd 0e bb c7 3e ee 1c 62 be 51 89 f7 3d
       -0.042619407 0.390099 -0.22081348 0.12086738
000160 f2 ee ce bd fe 57 82 3e e3 45 b4 bd 4e 95 81 3e
       -0.10104169 0.25457758 -0.08802392 0.25309223
000170 fb 55 d7 3d 1e 7d d2 3d 2d 3d b5 be 78 99 26 3e
       0.10514446 0.102777705 -0.35398236 0.16269481
000180 84 bb 39 3e 8c 28 9e 3e e2 d1 26 3e a5 d7 38 be
       0.18137938 0.3089031 0.16291001 -0.18051012
000190 68 dd 37 be f1 e2 9f 3e f9 ad dc bd 4f f5 f0 bd
       -0.17955554 0.3122783 -0.1077537 -0.11765539
0001a0 91 42 eb bd c0 97 93 3e 04 ac 5b bd e1 42 32 be
       -0.11487306 0.28826714 -0.053630844 -0.17408325
0001b0 c1 64 84 3e f4 0c a6 3d ce 3d b0 3e 21 b3 2c 3e
       0.2585812 0.08107939 0.34422153 0.16865207
0001c0 07 36 f1 3d 63 e1 99 3e f4 8b e2 3e 1b bc 88 3d
       0.11777883 0.3005477 0.442474 0.06676503
0001d0 40 bc a6 bd e4 6f a5 3e 83 d4 af be 25 af bc be
       -0.081413746 0.32311928 -0.3434182 -0.36852375
0001e0 cb 16 0d be b2 5d a1 bd 7e d4 96 3d c8 d1 83 3e
       -0.13778226 -0.07879199 0.073647484 0.25745988
0001f0 c4 69 8b bd b3 70 47 bc b0 2b 2a be 01 44 c9 be
       -0.068072826 -0.012172866 -0.16618228 -0.39309695
000200 8f 1a a7 3e 4c ab 1c 3e ac 4e f9 bd 79 95 58 3e
       0.3263745 0.1529972 -0.121732086 0.2115077
000210 d6 39 14 bc a0 26 d3 bc 17 73 34 3e b3 c9 14 3d
       -0.009046992 -0.025775254 0.17622028 0.036325168
000220 78 a6 c9 be 14 eb 5c be 36 00 f9 3e 08 ae 87 be
       -0.39384818 -0.2157405 0.48632973 -0.26499963
000230 f4 19 4d 3e 06 0f ad 3e 1d c9 48 bd c3 60 ca be
       0.20029432 0.33800524 -0.04901992 -0.39526948
000240 25 2a 44 be 29 b7 a9 3d b0 82 2c 3d ad 10 0e 3e
       -0.19156702 0.08286888 0.04211682 0.13873549
000250 d5 a8 9a 3e 85 f1 4e be ee ba 1d be b4 9a 4c 3e
       0.30206934 -0.2020932 -0.1540334 0.1998089
000260 80 9e 8d ba c8 1d 8d be cd c4 58 be 3e a6 0d bd
       -0.0010804683 -0.27561784 -0.21168824 -0.03458237
000270 2a 2e 84 3e f4 e0 fd 3d ca 6a e2 bd 12 05 4c 3e
       0.2581647 0.12396422 -0.11055525 0.19923809
000280 fb 7f c8 be 6e a3 8c 3e 99 2c 23 be 21 f0 b5 bc
       -0.3916014 0.27468437 -0.15934981 -0.022209229
000290 e4 07 9d 3e 1f e4 bc 3e aa 1b c3 be 21 d6 a2 3e
       0.30670083 0.36892793 -0.38107044 0.31803992
0002a0 a2 33 83 3e 10 ec f8 bc 2e 89 67 3e 8a 05 6d 3e
       0.2562533 -0.030386 0.22610924 0.23146644
0002b0 48 86 9a be 6e f1 94 be bc 56 07 be a1 38 a9 bd
       -0.30180573 -0.29090446 -0.1321668 -0.08262754
0002c0 db e7 d1 3e a1 73 87 be 7b a5 66 bd 5a ad 2f be
       0.40997204 -0.26455405 -0.05631016 -0.17155972
0002d0 a9 c3 5e be d1 dd 43 3e df 09 96 bd 47 b3 c0 3e
       -0.21754326 0.19127585 -0.073261015 0.37636778
0002e0 0e 3f 2e 3e ca dd 07 be 38 4d e3 bd c9 64 31 3e
       0.17016241 -0.132682 -0.11098713 0.17323603
0002f0 df d0 95 bd 00 19 ba be 36 59 0c 3e 2a 6d 7c be
       -0.073152296 -0.36347198 0.13705906 -0.24651018
000300 c8 1c 40 3e 9c 2d 7e 3d 9c 71 c9 be a2 69 21 3e
       0.18760979 0.062055215 -0.3934449 0.15762952
000310 75 51 e1 bd 74 25 9e be 79 39 9f 3e f0 f6 2a be
       -0.11001865 -0.3088795 0.31098536 -0.16695762
000320 91 8c 7d be 8f da 9d 3e ab 80 ce be 22 de 02 be
       -0.24760653 0.3083081 -0.4033254 -0.1278005
000330 8f 62 dc bd 78 75 56 bd ba 43 48 3e 9a 4b 23 3e
       -0.10760986 -0.05235812 0.19557086 0.15946808
000340 fc 8b 1d bd 05 91 39 3e 7c ed 80 be bb 61 2a 3e
       -0.038463578 0.18121727 -0.25181186 0.16638844
000350 0c 35 c2 3d b8 90 ee bd bd de 88 3e fa c1 c7 be
       0.09482774 -0.11648697 0.26732436 -0.3901518
000360 3e d8 87 bd bd bc 5f be cd f9 d9 bd cb df 88 3d
       -0.06633042 -0.21849342 -0.10643349 0.0668331
000370 a7 61 a8 3e 0f ea 93 be 00 58 fd bd 09 fe bd 3e
       0.32887003 -0.2888951 -0.123703 0.37107876
000380 34 a0 f1 3b 33 1e 60 3e 0d 22 7e be e0 03 ad 3d
       0.007373834 0.2188652 -0.24817677 0.08448005
000390 3a 5f 69 be 78 b6 e2 3d dd 81 10 3e cc 6b 8c 3d
       -0.22790232 0.110699594 0.14112039 0.06856498
0003a0 b0 66 98 be f2 42 d7 be 1b e9 46 3e bb 83 50 3d
       -0.29765844 -0.42043263 0.1942486 0.050906878
0003b0 1f f2 d1 3d 00 37 20 3e 20 96 99 3e 6f ac 5c 3c
       0.10251259 0.15645981 0.2999735 0.013468846
0003c0 c5 36 b0 be c9 50 8f 3e b9 68 00 3f b3 95 89 be
       -0.34416786 0.27991322 0.50159794 -0.26872024
0003d0 2c 9e 91 3d b7 42 34 3e c3 e8 97 3d 87 18 13 be
       0.07110247 0.17603575 0.07417443 -0.14364825
0003e0 bf 77 07 3c 4e ac 16 3e c1 f2 ee bc 2c 3d 49 3e
       0.008268296 0.14714167 -0.029168488 0.19652241
0003f0 02 1f 38 be c9 4f c6 3e 15 cf 1f 3e db 47 30 be
       -0.17980579 0.38732746 0.1560634 -0.1721491

action_layer.0.bias f4 [200]
000000 ec 29 50 be 09 d0 21 bd ec 22 22 3e fd 0a 7d be
       -0.20328492 -0.03950504 0.15833634 -0.24711223
000010 6a 47 e9 3d 80 65 1a 3e 2b fc 37 be b9 97 d5 bd
       0.11390574 0.15077782 -0.17967288 -0.104293294
000020 d3 5e 83 be 4a e4 82 be 9a fb a7 3c 89 0d 8d be
       -0.25658283 -0.25564796 0.020505715 -0.2754939
000030 f7 a0 68 bd fa 50 09 be 93 8c 98 be e3 f1 10 3e
       -0.056794133 -0.13409796 -0.2979475 0.14154772
000040 bc 74 9f be bb 88 53 bd fa 48 a8 bd c0 28 32 bd
       -0.3114375 -0.05164407 -0.08217044 -0.043495893
000050 24 07 55 3e 6a 87 20 be 2b 49 7a 3e 4a f8 90 3e
       0.20803505 -0.15676656 0.24441974 0.2831443
000060 ca 84 dd 3d 4d 76 1b be f3 11 65 3d 29 70 9d 3d
       0.10816343 -0.15181847 0.05592532 0.076874085
000070 21 41 8b 3d 32 64 54 3e e7 b0 79 3d 0e 48 18 3e
       0.06799532 0.20741346 0.060959723 0.14871237
000080 12 28 88 3e 8a df 90 3e 6b fe 18 3e 67 b3 20 3e
       0.2659307 0.28295547 0.14940803 0.15693437
000090 e9 7f b9 bd 26 14 4a 3e 0e 80 67 3d 8f 1b 81 3d
       -0.090576 0.19734249 0.056518607 0.063040845
0000a0 cb d1 8d bd 41 b1 6e 3e 8f aa 5e 3a c1 dc f1 3d
       -0.069247805 0.23309804 0.0008494043 0.118096836
0000b0 8e 2a 1f be 69 65 23 be e1 e8 7c be f4 a3 a5 3d
       -0.15543577 -0.15956654 -0.24698211 0.08087912
0000c0 c2 f9 d9 bd 2e 5d 45 be 06 b6 97 be 2d 82 04 be
       -0.10643341 -0.19273826 -0.2963106 -0.12940283
0000d0 98 e6 5f be b0 7d 74 ba b4 71 c5 bb 9d ff 51 be
       -0.21865308 -0.000932659 -0.0060255174 -0.20507665
0000e0 b5 34 50 3d 49 bf 01 3e 63 e0 dd bd 01 95 58 be
       0.050831515 0.12670626 -0.10833814 -0.2115059
0000f0 90 b6 b8 bd 9b 04 a1 be e5 f7 18 be 17 b2 fb 39
       -0.09019196 -0.31448826 -0.14938314 0.00048007138
000100 cc 1c 1e 3e f0 45 95 bc 35 9f ce 3d 2a 08 89 bc
       0.15440673 -0.018221825 0.1008896 -0.016727526
000110 17 f3 1e be 76 fb 12 3e 6f 04 81 bd ab c1 d2 bb
       -0.15522419 0.14353737 -0.06299674 -0.0064317784
000120 fb 0d 10 3e 26 11 ed bd 6f 45 9d 3e e8 36 15 3e
       0.14067833 -0.115755364 0.30717036 0.14571726
000130 13 c7 4d 3e 22 ec 01 be 83 77 63 be d6 bf 1a 3e
       0.20095472 -0.12687734 -0.22213559 0.15112242
000140 dc f1 59 bc 5e 66 ac 3d 7b 2f aa 3d da be b7 3d
       -0.013302293 0.084179625 0.083098374 0.08971949
000150 24 30 da 3c 59 44 83 3e 4c 64 5c be 0f 7f 80 be
       0.026634283 0.25638083 -0.21522635 -0.25096938
000160 85 82 35 be b6 5c 2e bd f9 d0 98 3e ca 1e a6 3d
       -0.1772557 -0.042568885 0.29846933 0.08111341
000170 49 ea 45 3e 8a af 41 be 7b 4b 94 3e d9 14 69 bc
       0.19327654 -0.18914619 0.28963837 -0.014226162
000180 47 5d d7 bd 38 e9 2e be 09 89 d2 3d f2 01 fb bd
       -0.10515838 -0.17081153 0.10280044 -0.122562304
000190 83 05 bd bc f8 bf a3 be 09 b4 2d bd 8e cf b2 bd
       -0.023073917 -0.31982398 -0.042408023 -0.08730994
0001a0 c9 61 06 3e 78 a8 9f 3d bb 24 b0 3d 34 cb 0e bd
       0.1312324 0.07795805 0.08600756 -0.03486176
0001b0 90 ea cc 3c 18 c0 8b 3e 99 e1 9c bc c5 88 cc 3d
       0.025014192 0.27294993 -0.019150542 0.09987024
0001c0 23 c0 8c bd 8c 57 6d be c7 06 16 3e d9 dc f7 3d
       -0.06872585 -0.23177928 0.14651023 0.1210267
0001d0 18 91 8a bd 41 f6 28 be 9e cd 90 be 6b f5 0e 3e
       -0.06765956 -0.16500188 -0.28281873 0.13960807
0001e0 36 b1 ee bd 68 69 94 3e b9 49 8e 3b e8 49 90 3e
       -0.11654894 0.2898667 0.0043422845 0.28181386
0001f0 78 73 66 be 00 ae fa bd 87 d7 46 3d ae e0 20 3d
       -0.22504985 -0.12240219 0.048545387 0.03927677
000200 db 83 72 3e 25 2c 1b 3e c9 cc ee bd a7 45 83 3e
       0.23683111 0.15153559 -0.116601534 0.25639078
000210 c8 34 3b 3e e5 12 92 3d 8c 14 02 be 72 f2 b6 bd
       0.18281853 0.0713251 -0.1270315 -0.089329615
000220 c6 77 75 3e 3f d3 0e be e9 54 d0 3d a8 54 2e be
       0.23971471 -0.13947771 0.10172445 -0.17024481
000230 55 68 72 bd f3 34 c0 3d 32 f6 1b bc 5b ee c6 3d
       -0.05918153 0.09385099 -0.009519147 0.097134314
000240 d7 2b 85 3e 42 ac 4c 3e 47 ac 1c 3e 02 73 8b 3d
       0.2601001 0.19987586 0.15300094 0.068090454
000250 8d 13 57 bc 93 93 84 3d 74 b2 80 3e 90 10 11 be
       -0.01312722 0.0647346 0.2513615 -0.14166474
000260 80 5b d7 3d cc 78 77 be df 17 42 be 15 bd e0 bd
       0.10515499 -0.24167174 -0.18954419 -0.109735645
000270 9d 6c f3 bb 18 c0 33 be 90 04 e7 3c 32 95 1a 3e
       -0.007428719 -0.17553747 0.028200418 0.15095976
000280 b7 04 22 3e d9 b3 6d be 11 88 72 3d 76 2b 37 bb
       0.15822111 -0.23213138 0.059211794 -0.0027949489
000290 1e ab 18 be ed ab 72 be 71 dc 76 bd e8 0c 7c be
       -0.14909026 -0.23698397 -0.060268823 -0.24614298
0002a0 bf 8f e4 3c ad 27 d7 3d d7 58 36 be 85 a0 0a be
       0.027900575 0.105056144 -0.17807327 -0.13537796
0002b0 e5 86 27 be ea 71 af 3d b0 d6 96 be d6 5c 26 be
       -0.16360052 0.08566649 -0.2946067 -0.16246352
0002c0 fa 32 79 be 64 cd 7b 3e db d2 6c 3d 6b b6 21 be
       -0.24335852 0.24590069 0.057818275 -0.15792243
0002d0 50 d7 9c 3e 4a 8d 7c 3e 52 16 f0 bc 40 8b e0 3d
       0.3063302 0.24663273 -0.029307518 0.1096406
0002e0 06 16 a8 3b 1e b0 88 3d 7f ae 56 be 39 35 65 bd
       0.0051295785 0.06674217 -0.20965002 -0.05595896
0002f0 80 e0 2e 3e 4c 2f 48 3d 64 c3 80 be af 7a 0b 3d
       0.17077827 0.04887323 -0.2514907 0.034052547
000300 49 b1 82 3d 40 24 69 bc 32 0b a4 3d 2e 55 5c be
       0.06381471 -0.014229834 0.08009948 -0.21516868
000310 e9 c2 00 3d a8 d2 53 3d 4e 86 48 bc b1 b3 ba 3d
       0.03143588 0.05171457 -0.012239052 0.09116305

action_layer.2.weight f4 [20, 200]
000000 4e 77 ea 3c 98 fd e2 bd 93 83 8c bd 38 db 71 3c
       0.028621342 -0.110835254 -0.06861033 0.0147617385
000010 be 8e 22 3e c8 63 84 bd b0 a1 0a bd 3c 94 62 be
       0.15874764 -0.06464344 -0.033845603 -0.2212686
000020 97 2f 80 bc 9d 02 e3 bc c6 7d 09 3e f3 08 9e bd
       -0.015647693 -0.027711207 0.13426885 -0.07716551
000030 c7 87 7e 3b b5 3f 02 bd fd 19 a6 3d e5 82 67 3e
       0.0038838254 -0.031799037 0.081104256 0.22608526
000040 dc 45 4a bc 5c 37 fd bc d1 c3 5f 3c f1 09 fe 3b
       -0.012345757 -0.030910186 0.013657526 0.00775265
000050 a7 04 73 3e 7f c1 5f bd 58 b7 cc 3d 13 fe d9 3b
       0.23732243 -0.05462789 0.099959075 0.0066526025
000060 46 77 7e 3d fd 66 e8 3c 80 b0 19 be 30 c1 85 3d
       0.062125467 0.028369421 -0.15008736 0.06530988
000070 14 26 8c 3e 7c 2a 95 bd 1d 28 a3 bc 40 13 7e bd
       0.273728 -0.07283494 -0.019916588 -0.062030077
000080 48 e0 14 3e 02 66 f9 3c b9 af 24 bc a1 d4 ab 3d
       0.14538682 0.030444149 -0.010051661 0.08390165
000090 7a 0a 83 bd 00 e7 8f 3d 8b 75 d9 3d bf 7f 0b 3e
       -0.063984826 0.07026482 0.10618123 0.1362295
0000a0 06 ac 08 be a4 7f 23 3e 32 47 01 3e c6 c4 c4 3d
       -0.13346872 0.1596666 0.12624815 0.09607844
0000b0 0a 5d 00 3d fa b8 23 bd b6 47 17 be fa f1 54 bd
       0.03133873 -0.03997133 -0.1477345 -0.05198858
0000c0 57 e0 cb bd 4b 07 db 3d 7b cf 1a 3b 92 88 eb bb
       -0.09954899 0.106947504 0.0023622203 -0.0071879113
0000d0 64 dc 58 bd be 62 2d 3d fb b8 c2 bc 6c e1 13 3e
       -0.052944556 0.042330496 -0.023769846 0.1444146
0000e0 7b 19 a4 3d 1e 31 c9 3c d3 4c c1 bc 4a fd 6b bd
       0.080126725 0.024559554 -0.023596203 -0.057614602
0000f0 b6 ea 95 3d b8 a2 10 be f8 5a 29 bb 5f ad de bd
       0.07320158 -0.14124572 -0.0025841575 -0.10872912
000100 a0 d0 c4 bd c7 dc e2 3b 27 1d 0d bd 36 d9 ed 3a
       -0.096101046 0.0069232914 -0.03445163 0.0018146399
000110 64 26 91 3d 87 1a c8 bd 58 94 44 bb 23 fe 3c 3e
       0.070874006 -0.09770685 -0.0029995646 0.1845632
000120 2d 62 19 3e 7c 0c c0 bd 3c 59 41 bd 55 04 6d bd
       0.14978857 -0.09377381 -0.04720424 -0.05786546
000130 90 8f e9 3d 44 ca 13 be 15 b8 20 be aa 66 b8 bd
       0.114043355 -0.14432627 -0.15695222 -0.090039566
000140 4d f0 bf 3c 4f 2c 5c be 2d 93 76 bd 2f 7d 67 3c
       0.023430014 -0.21501277 -0.06019895 0.014128967
000150 a4 c9 6e 3d 47 06 6e 3e d7 f7 13 be 73 71 03 bc
       0.05829777 0.23244582 -0.14450012 -0.008022654
000160 82 56 0c 3d 18 69 ec 3c 40 a6 ed 3b e0 3d 31 3e
       0.034262188 0.028858706 0.0072524846 0.1730876
000170 bd 31 90 3a f8 fd ae bd f0 a4 bd 3d e6 07 16 3e
       0.0011001151 -0.085445344 0.09259975 0.1465145
000180 41 68 d5 3c ec 49 42 be 1a 00 ea bc e8 19 34 be
       0.026050689 -0.18973511 -0.028564502 -0.17588007
000190 c3 ac 9e bd 86 75 25 3e bd d0 47 bd 13 44 7c 3d
       -0.077477954 0.16158113 -0.048783053 0.061588358
0001a0 41 76 52 3d c6 bd 89 3d 30 3f ff 3d ba 8a 41 bd
       0.051382307 0.067256495 0.12463224 -0.04725144
0001b0 07 15 3f 3d 8e fb 9a 3d 53 4f eb 3d 7a 8c 04 be
       0.046650913 0.075675115 0.11489739 -0.12944213
0001c0 b8 33 ec bc 3f 3b cd bd 43 6e bd bc 93 68 73 3d
       -0.028833255 -0.10021066 -0.023123866 0.0594259
0001d0 83 59 00 3c 86 db 38 be f2 98 a8 bd e3 78 a2 3d
       0.007833841 -0.18052492 -0.08232297 0.079332136
0001e0 30 16 87 bb 79 fd 66 3e 23 a1 d3 bd f9 69 9b bd
       -0.004122518 0.2255763 -0.10333469 -0.07588572
0001f0 f3 dc 88 3b 3e 37 00 be ed f1 17 3e 15 9b 8c bc
       0.00417673 -0.12521073 0.14838381 -0.017163793
000200 4a 5c 0d be 47 e6 d1 3d df 94 d5 bd f6 ae 9c 3d
       -0.13804737 0.10249 -0.104287855 0.07650559
000210 c3 a2 9c 3c 90 a6 46 3e 53 1f 51 be 9d 46 69 bd
       0.01912058 0.19399476 -0.20422105 -0.056952108
000220 0f 1b 84 bd b6 8c 86 3d d6 08 49 bd 44 b4 cd bd
       -0.064504735 0.06569807 -0.049080692 -0.100441486
000230 ca 31 2f 3d 21 19 23 3d 43 1b 9a 3c 0a 76 07 be
       0.042772092 0.039818887 0.018811828 -0.13228622
000240 a3 42 7f 3d 8c 1b b1 bb 86 d6 4c 3d 22 9f c0 3d
       0.06231941 -0.005404895 0.050009273 0.09405352
000250 3a c3 cf 3d 1a 62 4b 3d 08 9c 2f 3d cc 33 05 3e
       0.101446584 0.049654104 0.042873412 0.1300804
000260 93 a2 43 bd 26 a5 dd bd 6c 21 c9 3c cd fe d3 3d
       -0.047762465 -0.10822515 0.02455207 0.10351334
000270 30 a7 05 bd 19 ea 07 3c 09 ba 6b 3e 23 c5 ce 3b
       -0.032630146 0.008295559 0.23020186 0.0063101216
000280 60 db 33 bd f3 96 02 be a1 c2 9b bd 12 ff a8 be
       -0.043910384 -0.12752895 -0.07605482 -0.33007103
000290 42 14 e9 bc ee 2a 07 bd bd cf c9 3c ef 8a 30 bd
       -0.028452042 -0.032999925 0.02463519 -0.043101247
0002a0 4d cd cb bd 2e a3 af bd 3d 3f 02 be 48 77 e1 3b
       -0.099512674 -0.08576046 -0.12719436 0.0068806745
0002b0 80 05 da 3d 6f 0b 80 bd 99 5e f1 3d 59 42 dc 3c
       0.1064558 -0.06252181 0.11785621 0.026887106
0002c0 73 b3 99 bd 4a 29 9b bd ba 1b b7 3c 7b 7a 81 bd
       -0.0750493 -0.07576235 0.022352088 -0.063221894
0002d0 ae ac 0d bd a5 8c 2e bc 59 77 d6 bc 8d ce bf 3d
       -0.03458851 -0.010653649 -0.026179956 0.09365568
0002e0 90 de fa bd 8f 0f 3a bc fd 08 0d bd 6b 0d 8d 3d
       -0.12249482 -0.0113562485 -0.0344324 0.06887325
0002f0 f8 d8 17 bd 5e d5 d3 3d 00 08 d9 bc 08 de 82 b9
       -0.037072152 0.10343431 -0.026493073 -0.00024960958
000300 68 6b a3 3c 24 9b 44 3c aa 5b 9f bd 2f c3 a4 3d
       0.019948676 0.011999879 -0.077811554 0.08045041
000310 70 ec 05 bd 05 8b 87 3c 66 cd 74 bc 1c 99 7c 3d
       -0.032696187 0.016545782 -0.014941549 0.061669454
000320 74 68 5a 3e 5a 7d 76 3c ff 81 3a 3e 35 97 a4 3d
       0.21328908 0.015044535 0.18213652 0.08036653
000330 6c 0b 21 bc d3 dd e6 3c de 2b 5e bd 9c 24 94 3d
       -0.009829383 0.028181946 -0.054241054 0.07233545
000340 07 dd 03 3d 61 ec c0 bd b6 31 39 3d 81 a0 a7 bd
       0.03219321 -0.09420086 0.045213424 -0.081849106
000350 99 4d ee bd 03 16 3c bd 5f 3b 41 3c 24 88 4e 3c
       -0.11635894 -0.04591943 0.01179394 0.012605701
000360 48 cb 49 3e f5 61 69 3d bf 0b 57 3e 3e aa 37 3d
       0.19706452 0.056978185 0.21000575 0.04484009
000370 2d c5 0b bd 32 42 25 3d 47 44 53 bc 50 a5 13 3e
       -0.03412359 0.040346332 -0.012894697 0.1441853
000380 ee 43 24 be aa b5 28 3b 98 ff b6 3c d4 45 3c 3e
       -0.16041538 0.0025743046 0.022338673 0.18386012
000390 6e 36 cf 3d e9 42 6f bd c1 48 1e 3e 40 49 28 3e
       0.101178035 -0.05841342 0.15457441 0.16434193
0003a0 4b f0 6e 3e 44 78 07 3d 9a ca f5 bc 11 e5 1d 3e
       0.23333852 0.03307368 -0.030003835 0.15419413
0003b0 e5 9c 01 3e c3 b0 cd 3d 7d ad cb 3d fc 58 b5 3d
       0.12657507 0.1004348 0.099452 0.08854863
0003c0 a3 4f 98 bd 8e 4f a2 bd b7 1e ae bd 7b 8a 35 3a
       -0.074370645 -0.0792533 -0.08501952 0.0006925237
0003d0 2a 1e 1f 3e 0a b4 1d be 9a 38 af bd aa 8d 06 be
       0.1553885 -0.1540071 -0.08555718 -0.13139978
0003e0 df 00 05 3e 1c 5d 27 3e 26 c1 2f 3d 53 ca de bc
       0.12988614 0.16344112 0.04290881 -0.027196085
0003f0 f1 5a f4 bc 12 63 7a bb 0c 72 10 bd 28 d9 e1 3d
       -0.02982852 -0.0038206023 -0.035265014 0.110277474

action_layer.2.bias f4 [20]
000000 d4 21 27 3d e3 7c 5b bd 76 e9 a9 3d b1 51 b3 ba
       0.040803745 -0.053585898 0.08296482 -0.0013680962
000010 50 7a b1 3c fb c8 52 bc c8 12 82 bc 66 1e 0d 3d
       0.021664768 -0.0128653 -0.015878096 0.03445282
000020 67 ce 17 bc 42 84 f4 bc 2a 0e 74 3d af cb 21 bc
       -0.009265519 -0.029848222 0.05958382 -0.009875222
000030 ce 67 fb 3d 09 ee ae 3d 85 81 b9 bd 34 2e 15 be
       0.122756585 0.08541495 -0.09057907 -0.14568406
000040 be 66 45 3d 53 f8 28 bd 1b 0c 08 3d c8 db 31 bd
       0.048193686 -0.041252445 0.03321467 -0.04342249

action_layer.4.weight f4 [50, 20]
000000 fb 2e 8f bd ed 16 0d be 77 a3 a8 bd 6b 1f 8c bd
       -0.06991383 -0.13778277 -0.082343034 -0.0684193
000010 09 e2 2a 3e 62 8f 62 3e 1c 51 0b 3e fb 34 d3 3e
       0.16687788 0.22125009 0.1360516 0.41251358
000020 4f c8 2e 3e 07 6f e8 3d 50 a6 15 3e c6 8b 50 3d
       0.17068599 0.11349302 0.14614224 0.05091455
000030 70 cc 32 be 80 c5 b8 bc 5c d2 fa bd 82 3a ad 3d
       -0.17460799 -0.022555113 -0.12247154 0.08458425
000040 3d ce 09 3e 7e ab e4 bd 9c b6 23 3e 5a 7a b2 3e
       0.1345758 -0.11165522 0.15987629 0.34858972
000050 fc 55 17 3e b3 ad 67 bd 78 fe 57 3d 11 70 57 bd
       0.14778894 -0.056562137 0.052732915 -0.05259711
000060 86 8e 0c be 9c c3 8f be 2d c7 2b be c8 3f 9f be
       -0.13726243 -0.28078926 -0.16775198 -0.3110335
000070 a7 d1 8c 3e 4b 19 2d 3e 82 d0 33 bd 00 8d 2f 3c
       0.27503702 0.1690418 -0.04390002 0.010714769
000080 a9 3a 08 3e b3 01 20 be a0 a3 4e bd ac 3b a0 bb
       0.13303627 -0.15625648 -0.050449014 -0.004889926
000090 2d ae 26 be d9 50 86 3c 2d 17 2f 3d dd 67 96 bc
       -0.1627738 0.016395973 0.04274671 -0.018360073
0000a0 e3 14 46 3d 31 3d a1 be e3 c6 27 3e 4c bf 44 3e
       0.048359763 -0.31491998 0.16384463 0.19213599
0000b0 09 2c 94 3e f1 b7 0a bd d1 7c 84 3e 7f eb 31 bc
       0.28939846 -0.033866826 0.25876477 -0.010859369
0000c0 79 a1 a3 bd 80 49 9c bb c1 04 16 3e 7c 1f 55 be
       -0.07989783 -0.004769504 0.14650251 -0.20812792
0000d0 ea 6a 81 3e 0c 83 7b bd 44 f1 16 be 46 9b f8 3d
       0.2527688 -0.061404273 -0.14740473 0.12138991
0000e0 c4 93 53 3e 7c 85 ae 3c 97 c5 cc bd 00 f5 15 3d
       0.20661837 0.021303885 -0.09998625 0.036610603
0000f0 76 19 aa bd 0c af 9e 3d c6 a8 43 3e 44 4a 26 be
       -0.083056375 0.07748231 0.1910735 -0.16239268
000100 2c a3 95 be 98 e2 20 be 4e 3e ba be a4 10 c5 bc
       -0.29226053 -0.15711439 -0.3637566 -0.024055786
000110 50 36 8e 3e ce b4 6e ba 5c 62 9a be ef d6 51 3e
       0.27775812 -0.00091059215 -0.30153167 0.20492147
000120 b7 b4 1e 3e 15 a6 9e bd 29 19 31 be 1c 48 95 bd
       0.15498625 -0.077465214 -0.17294754 -0.072891444
000130 11 a7 83 be 03 2d 55 be e5 4f 3f be 50 61 0d be
       -0.257134 -0.20817952 -0.18682821 -0.13806653
000140 e1 19 49 3e 0b ac 1b 3e 7f c1 80 be ff 48 b6 3d
       0.19638778 0.15202348 -0.25147626 0.08900642
000150 aa d7 19 be e8 9c cc 3d b4 bf 0d 3e 29 aa ab bb
       -0.15023676 0.09990865 0.1384266 -0.0052387905
000160 0e 77 92 3e 6d b0 e0 3d 14 8c 16 be c3 b1 d9 3e
       0.28606457 0.109711505 -0.14701873 0.42518434
000170 1b c4 56 be ef 60 74 be 75 76 ee bd 86 82 c9 3e
       -0.20973246 -0.23865102 -0.11643688 0.39357394
000180 1a 13 76 be 5a da 56 3d 50 46 82 3e df 65 88 3e
       -0.24030724 0.05245433 0.2544427 0.2664022
000190 71 6e 89 bd 59 da 92 be 44 28 8d be 28 93 ae 3e
       -0.06710518 -0.2868221 -0.27569783 0.34096646
0001a0 c4 2d 28 3d d0 39 28 3e ca bc 79 bd 9f fe 67 3e
       0.04105927 0.16428304 -0.06097106 0.22655724
0001b0 0f 2e 34 be 58 65 34 be ce 53 65 3e 38 da 0e 3e
       -0.17595695 -0.17616785 0.2239525 0.13950431
0001c0 d8 80 a9 be 38 66 38 3e dd c4 60 bc 83 29 bb 3e
       -0.33106112 0.18007743 -0.013718811 0.36555108
0001d0 41 b7 a3 3d f0 e3 a2 bb 79 e6 90 3d 38 53 0f 3e
       0.07993937 -0.00497102 0.07075209 0.13996589
0001e0 57 de 25 3e 28 aa bf 3e 73 12 50 3e b0 c4 bb be
       0.16198097 0.37434506 0.20319538 -0.36673498
0001f0 9b 45 68 be 64 54 29 be 17 a1 38 ba 5d 2d f3 bd
       -0.22682802 -0.16536099 -0.0007043047 -0.11873887
000200 e6 cc e5 3d 26 fd e0 bc 82 f7 85 be a1 cb 6c 3d
       0.11220722 -0.02746446 -0.26165396 0.057811383
000210 13 c7 4a 3e e8 5a a8 be 2c 9a 1c 3e 10 d2 e8 bc
       0.19802503 -0.32881856 0.15293187 -0.028420478
000220 c4 d3 78 bd 8d a7 19 3e a0 17 bc bd 05 1d 55 bc
       -0.06074883 0.15005322 -0.091841936 -0.013007407
000230 8d 53 74 3c 23 00 d7 bb 7d 4e 3c bc b1 18 b3 3b
       0.014912498 -0.0065612956 -0.011493322 0.00546559
000240 ac 25 9c be cc b3 a5 3d 39 92 53 3e a9 5f 79 3d
       -0.3049749 0.08090934 0.20661248 0.060882244
000250 19 7b b8 3e 2e c9 1b bd 5b 0d 04 be a4 e1 b5 3d
       0.36031416 -0.038033657 -0.1289572 0.08880928
000260 32 35 b4 be 57 6c 97 bc 71 30 f1 3d 57 02 04 3e
       -0.35196835 -0.018484278 0.117768176 0.12891518
000270 34 5b 20 be 88 38 27 3e 96 16 88 3e ed 6e a8 3e
       -0.15659791 0.16330159 0.26579732 0.3289713
000280 19 b4 8f be 94 a8 2d be ff 96 5d be e0 a6 4e 3c
       -0.2806709 -0.16958839 -0.21639632 0.012613028
000290 47 93 4b 3e 0c 9b 8d 3e c4 79 0f bc f2 02 98 3e
       0.198804 0.27657354 -0.0087570585 0.29689747
0002a0 b2 a8 c5 3c 51 a5 18 3d 9a ed 9a bd dc 04 12 be
       0.024128292 0.037267033 -0.0756485 -0.14259666
0002b0 60 43 9d bd d6 de a6 3d 69 4d 51 3d d6 0b cf 3e
       -0.076788664 0.08147971 0.051099215 0.40438718
0002c0 11 39 f8 bd c5 1d db bd 3f 33 86 bc 25 02 80 3d
       -0.121202596 -0.106990375 -0.016381858 0.06250409
0002d0 68 c8 0b be 29 f9 2d 3e 7b 02 d4 bd 69 ba 0a 3d
       -0.13650668 0.16989578 -0.103520356 0.03386918
0002e0 08 2b 8d bd c9 b2 e3 3d 6f b1 73 be bb a0 82 be
       -0.06892973 0.11118085 -0.23798154 -0.25513253
0002f0 50 10 c5 3e 84 81 60 be b8 8f 20 be d4 d3 ab 3e
       0.38489008 -0.21924406 -0.15679824 0.3356005
000300 46 7c 57 3d 08 ca 84 be 28 fc 5b bd 4c b7 36 3e
       0.05260875 -0.25935388 -0.05370727 0.1784336
000310 00 ef e3 bd 41 dd 8e bd b7 e8 be bb 4d 5f 98 3e
       -0.1112957 -0.069757946 -0.0058260816 0.2976021
000320 4d d5 06 3e a8 26 98 3d 72 63 9b bd 3b 79 25 3e
       0.13167305 0.07429248 -0.07587327 0.16159527
000330 19 90 65 bc db cb 11 be 62 8b da 3d a7 f8 21 3d
       -0.014011406 -0.14237921 0.106711164 0.039543774
000340 52 2f 6c 3e b5 5d f6 3d bb 26 2e 3d c9 f4 be 3e
       0.23064926 0.12029592 0.042517405 0.3729613
000350 43 e3 9d be 55 ee 59 bd 9f 76 f2 3d c0 63 7f 3e
       -0.3083745 -0.053205807 0.118390314 0.24940395
000360 88 54 99 be 48 4e 8e 3e fb 8e 6d 3e cd 3d 16 3e
       -0.29947305 0.277941 0.23199074 0.14672013
000370 b0 3f 55 3c df 87 80 3d 34 85 23 be c7 3f 42 3d
       0.013015673 0.06275915 -0.15968782 0.047424104
000380 99 ca 6e be 5c fe 73 be a3 81 ba be 72 7b c2 be
       -0.23319472 -0.23827499 -0.3642703 -0.37984806
000390 33 18 9a bb 3d 05 1f 3d fe 03 d7 bd 10 a5 76 3d
       -0.004702592 0.038823355 -0.10498808 0.06021601
0003a0 81 30 18 3d 16 20 9a be b4 3c 1d be 2f 41 76 be
       0.037155632 -0.30102605 -0.15355188 -0.24048303
0003b0 94 a9 50 be cd ef 96 3d 91 48 20 bd 5f 0c 67 be
       -0.20377189 0.07369957 -0.039131705 -0.22563313
0003c0 2e cf f3 3d d6 d5 47 be 0a 3a a4 bd 22 a2 2e bc
       0.11904751 -0.19515166 -0.080188826 -0.010658773
0003d0 7e 68 25 3d cd 56 3d bd 3b 2c 8a 3d 20 e6 66 3d
       0.040382855 -0.046225358 0.067467175 0.056371808
0003e0 56 3e de be 63 ea bc 3d 3b 0f 12 be bd 49 e2 be
       -0.43406934 0.09224393 -0.14263622 -0.44196883
0003f0 d9 98 6a 3e 39 d2 4f 3e d7 10 e1 bd a8 db bc be
       0.22909869 0.20295037 -0.1098954 -0.36886334

action_layer.4.bias f4 [50]
000000 00 ee 85 bd 94 2d 8b 3c 31 83 2a 3e b1 9b 2e bd
       -0.065395355 0.016989507 0.16651608 -0.042628948
000010 60 17 8c bd df 52 90 3d e1 47 a3 3d 70 46 5e bd
       -0.06840396 0.070470564 0.07972694 -0.054266393
000020 a2 5a 76 3e f3 e9 6f 3c 42 7f ab bc 3b ff 29 3d
       0.24058011 0.01464318 -0.020934705 0.041503172
000030 c9 23 c8 3d 84 9b 10 be 19 fa 65 3e 76 ae 8b 3b
       0.097724505 -0.14121825 0.22458686 0.0042627407
000040 e0 a4 68 3e 36 9d 63 bd 37 0f 16 3e bc 1a 3e bd
       0.22719145 -0.05556985 0.14654242 -0.046412215
000050 95 92 cb 3d 98 9e 68 bd a6 91 4f 3d 79 3e 35 bd
       0.09940068 -0.05679187 0.05067601 -0.04424903
000060 5e fb 06 bd d2 dd 47 3e 24 ee 43 bd 02 b8 cc 3b
       -0.032954566 0.19518211 -0.04783453 0.0062475214
000070 01 47 2a be ae b1 24 3e 1a 97 86 3e 04 42 51 3e
       -0.16628648 0.16083404 0.26287156 0.20435339
000080 df 2f 35 3c 7d e6 cd bd 63 37 9b 3d 09 d5 0e be
       0.011058777 -0.10053728 0.075789236 -0.13948454
000090 27 7d 86 3d 02 3c 52 be 0a ea ca bd 8c f5 18 3e
       0.0656684 -0.20530704 -0.09907921 0.14937419
0000a0 10 a8 21 be c8 95 cf bd 1c a1 97 3d 3e f1 a2 3d
       -0.15786767 -0.101359904 0.07403776 0.079561695
0000b0 94 fb 0f 3e dd df 07 be 20 26 b8 3d 1f b8 35 3c
       0.14060813 -0.13268991 0.08991647 0.011091261
0000c0 e6 13 07 bd 22 b0 3e be
       -0.03297796 -0.18621877

action_layer.6.weight f4 [3, 50]
000000 6f c1 4d 3d 12 ec 93 be 01 bf 62 3e 24 c0 91 be
       0.0502333 -0.28891045 0.22143175 -0.28466904
000010 79 a2 24 bd a0 44 9f 3e 2f ea d8 bd ae fc ea bd
       -0.04019401 0.31107044 -0.10591542 -0.11473976
000020 ea 10 6d 3e ae 00 52 be 88 d4 aa bc 44 69 b8 be
       0.23150983 -0.20508072 -0.020853296 -0.3601781
000030 c5 01 f7 3d 27 32 6c bd 09 ee 25 3d 30 cb 9d bd
       0.120608844 -0.057665017 0.04051021 -0.077047706
000040 b8 59 96 3d ec a4 57 3e bd 2d 2a 3e 4f 28 66 3d
       0.07341331 0.21059006 0.1661901 0.056190785
000050 bf da 93 3e 70 bb a8 be 63 9a 8d 3e af fb 56 3e
       0.28877828 -0.32955503 0.2765685 0.20994447
000060 04 32 8b 3e b3 48 58 3d 55 d0 4e 3e fe 75 b8 3c
       0.27186596 0.052803706 0.2019666 0.0225172
000070 ff 96 3c be 17 95 0f be ce cc 6c 3c 6d 25 b0 3c
       -0.18416975 -0.14021717 0.014453126 0.021502221
000080 23 5b 94 be 00 39 65 3e e6 52 8c 3d 2f 7c a5 3e
       -0.28975782 0.22385025 0.06851749 0.32321307
000090 b0 be 34 be 39 bb 91 bd 8c 6c 9f 3e 81 9a 93 3e
       -0.17650867 -0.07115788 0.31137502 0.28828815
0000a0 40 20 17 be 6e e7 37 3e de 53 b5 bd 75 a4 3d 3e
       -0.14758396 0.17959377 -0.08853887 0.18519767
0000b0 3c 9f 76 be dc 95 c3 3d 61 b9 44 bd 8e f3 11 be
       -0.2408418 0.09550068 -0.048028354 -0.14253065
0000c0 a2 6c 8c be bc 18 23 be 26 69 74 be 8f b6 d0 3d
       -0.2742663 -0.15927404 -0.23868236 0.1019107
0000d0 df cc 68 bd ff 49 4a 3e e6 7b 0f be d0 dc 87 be
       -0.056836005 0.1975479 -0.14012107 -0.26535654
0000e0 da d3 55 3e 04 6c 80 be 0d 6c 76 be 40 ef 13 bd
       0.20881596 -0.2508241 -0.24064656 -0.03611684
0000f0 fd aa 7c be 3e dd 40 3e 50 8d 49 3e 06 9a 64 3e
       -0.24674602 0.18834397 0.19682813 0.2232438
000100 13 9a 47 be 5f b5 6c 3d 05 b3 30 3e 3a 0e 23 be
       -0.19492368 0.057790156 0.1725579 -0.15923396
000110 6f 2d 49 3e 1c 57 25 be bc 37 64 bd 08 db 98 3d
       0.19646238 -0.16146511 -0.055717215 0.07463652
000120 81 4d a9 be ae ad 4b bd cf cd 4c be 69 b3 88 3d
       -0.33066943 -0.04972618 -0.20000385 0.06674845
000130 2b 94 8e be eb 91 59 3e 71 35 35 3d a7 e1 10 be
       -0.27847418 0.2124707 0.04424042 -0.1414858
000140 6c 2a a6 3d d3 d0 eb bd b9 9b 51 bd 7b 50 2d 3d
       0.0811356 -0.115144394 -0.0511739 0.04231308
000150 4b 60 83 3e 9a 74 7b be 05 d5 9e be bd dc 29 be
       0.25659403 -0.24556199 -0.31021896 -0.16588111
000160 b5 87 6d be 4a fc 8a bd 1c 27 1d 3e bf 58 47 be
       -0.231963 -0.067864016 0.1534695 -0.19467448
000170 e6 2c 1e 3e 6e e8 24 3e 76 65 3b 3e bc 31 10 be
       0.15446815 0.1610429 0.18300423 -0.14081472
000180 5b ae ce bc c5 3f 83 3e ec 25 78 be bb 81 3c bc
       -0.025229624 0.2563459 -0.24233216 -0.0115055395
000190 95 52 01 3c 09 82 43 3e e0 8e aa be 8a fc 66 3e
       0.007893224 0.19092573 -0.3331213 0.22557274
0001a0 76 3f 05 3f e4 ae d0 3d 53 86 59 3e 5a 2a 6a 3e
       0.5204996 0.10189608 0.21242647 0.22867718
0001b0 dd 4d 27 3b c1 b5 78 3e 75 ad ab 3e bc f6 1e 3e
       0.0025528588 0.24288084 0.33530775 0.15523809
0001c0 30 b6 7a be 4d c4 97 be b2 e3 af 3e af 34 70 3e
       -0.24483562 -0.29641953 0.34353405 0.23457597
0001d0 46 70 13 bf a2 f6 90 bd 77 a9 d5 be c6 e9 e5 3e
       -0.5759319 -0.070782915 -0.41730854 0.44904917
0001e0 5e 12 05 be c2 44 a0 3e 7a 59 7e bb ca bd 58 be
       -0.12995288 0.31302458 -0.0038810656 -0.21166149
0001f0 9d c6 18 3d 7d f4 c7 be 83 95 8c bc 0e f1 bf be
       0.037298787 -0.39053717 -0.017161136 -0.37488598
000200 e5 76 36 3e 01 4f 69 3e f0 cf f0 be c8 7a 89 3e
       0.17818792 0.22784044 -0.47033644 0.26851487
000210 49 eb ba 3e f5 c8 c1 bd 1a 41 eb be 8b 4c 64 3c
       0.36507633 -0.09462158 -0.45948106 0.013934265
000220 a4 3c ab 3e c5 40 02 3f 17 5c 0f be d3 7f cc bd
       0.33444703 0.5088008 -0.13999973 -0.09985318
000230 d4 6e 3a 3e ae fc 0f bd bc bd 58 be 63 a1 ee be
       0.1820634 -0.035153084 -0.21166128 -0.46607503
000240 03 a0 c1 3d a5 0a 21 3e 29 0e aa be 63 0e 53 be
       0.09454348 0.15726717 -0.33213928 -0.20610957
000250 61 9f ae 3e 4c 6f c7 3e
       0.3410597 0.389521

action_layer.6.bias f4 [3]
000000 7e a3 9b bd bd 0b de bd 59 f1 23 39
       -0.07599543 -0.10842083 0.000156348

value_layer.0.weight f4 [200, 11]
000000 24 9d f3 3e 49 9f b2 3d 11 2a ca 3d 55 71 df be
       0.47580826 0.087217875 0.09871305 -0.43641153
000010 ba f6 01 be 27 8e 05 3e d7 86 93 bd f4 55 b2 be
       -0.12691775 0.13042508 -0.07203453 -0.34831202
000020 d4 6e d4 3d 88 81 01 be cf 90 d4 3e 08 cf 84 3e
       0.10372701 -0.12647069 0.4151673 0.25939202
000030 9e 77 4c 3e 67 df 44 3e 29 4c c0 bc 26 86 9c 3e
       0.19967505 0.19225846 -0.023473816 0.30571097
000040 45 4b d5 be d9 bf 01 be dc 33 89 3b 09 d7 cf 3c
       -0.4165899 -0.1267084 0.0041870903 0.025371091
000050 95 b2 4a be 4e 7b b1 3e 37 c6 7d 3e 54 b0 2f 3d
       -0.19794686 0.34664387 0.24782644 0.04289277
000060 39 fb 0f be b6 0a d7 3e 87 dc a7 be 02 16 90 3e
       -0.14060678 0.4200036 -0.32785437 0.2814179
000070 c5 bf 9d be 10 3d 4e 3e 9e 3e 51 3e c7 98 07 bc
       -0.3081037 0.20140481 0.20434043 -0.008276171
000080 72 6e 6b 3e 09 fd 50 3e 15 71 1c 3e e9 89 40 bd
       0.2299135 0.20409025 0.15277512 -0.04700652
000090 c9 3b 0e 3d 81 27 7e bd aa fb bb 3e 9d ee 93 be
       0.034724984 -0.062049393 0.36715442 -0.28892985
0000a0 10 53 36 3d 5c 5f c6 3d 9d 31 60 be 9f 68 8c be
       0.04451281 0.09686157 -0.21893926 -0.2742357
0000b0 4e 19 21 bf b2 1b 8a 3c 6a ab 7f 3d ba 8b 43 be
       -0.62929237 0.01685891 0.062419333 -0.1909627
0000c0 99 7a 96 3e 92 50 9b 3e db 9a d9 be 35 39 e1 3e
       0.2939041 0.30334908 -0.42500958 0.43988958
0000d0 4d 02 8e be 6c c8 bb be bb 36 7d 3e 71 43 9e 3c
       -0.2773613 -0.36676347 0.2472791 0.019319268
0000e0 cf cb 99 3e dc 21 82 3e 74 f0 5b 3e af 01 d5 3d
       0.30038306 0.25416458 0.21478444 0.10400712
0000f0 bf e7 4f be 47 e0 9e be d5 4b a6 be 6c a7 8e 3e
       -0.20303248 -0.31030485 -0.3247973 0.27862108
000100 03 bd 2a 3b 9f 37 c3 be d1 58 4d be de cc 35 be
       0.0026052601 -0.38128373 -0.20053412 -0.17753932
000110 c3 73 4b be d8 a8 ff 3e 9f b0 32 be 8c 54 a8 bd
       -0.19868378 0.49933505 -0.17450188 -0.08219251
000120 d1 b2 d0 be 96 0e e2 3e 82 05 a7 bd 13 c9 0c 3e
       -0.40761426 0.44151753 -0.081553474 0.13748579
000130 9c 45 02 3e 0c 33 9f 3e e8 38 89 3d 7b 5d 39 3e
       0.12721866 0.31093633 0.06700307 0.18102066
000140 67 f6 1a bf 63 de 90 bd 8f a1 33 3e fe 42 c7 3e
       -0.6053223 -0.07073667 0.17542098 0.38918298
000150 a0 60 6e bd 1a 44 df bd d7 37 dc bd 66 92 0b 3f
       -0.058197618 -0.10901661 -0.10752838 0.5452026
000160 a7 d3 c8 3d 4e e9 ab bd 6d 31 2a be e4 c3 cf 3e
       0.098059945 -0.08394109 -0.16620417 0.4057914
000170 93 a0 83 be b9 82 9e 3d 0e 3b 60 3e 9c 4d 28 bd
       -0.25708446 0.07739777 0.21897528 -0.04108964
000180 0a 03 af 3e ae cb 8e 3e 3a 97 5f be 4f 4a cc 3e
       0.34182006 0.2788977 -0.21835032 0.39900443
000190 38 e6 9b 3e df b5 99 bd ac 39 0e bf 3a 92 c9 3c
       0.3044908 -0.07505392 -0.5555675 0.02460586
0001a0 82 35 0c 3e 27 07 c2 bd 9d 81 92 bd b6 f7 32 bd
       0.13692287 -0.094740205 -0.07153628 -0.043693267
0001b0 29 b5 81 be 0e 6d a1 3e fb 21 59 3e de 81 57 3e
       -0.25333527 0.31528515 0.21204369 0.21045634
0001c0 fc cf 81 be 93 01 cc bd fd 2c 4b 3e 26 7f 5c bd
       -0.25353992 -0.09961238 0.1984138 -0.053832196
0001d0 b0 e8 41 3e ef ee ed bc 09 11 b5 be 54 89 f2 bd
       0.1893642 -0.029044596 -0.3536456 -0.118425995
0001e0 9c 17 de 3e 10 2b 12 bd 97 4d 8b bb c5 0c e4 3e
       0.43377388 -0.0356856 -0.004251193 0.44540992
0001f0 f6 d2 91 3d f8 73 af be f0 5e 09 bf 17 aa 1b 3d
       0.07120316 -0.34268165 -0.5366049 0.038004007
000200 2c 09 eb bd da ac c8 3e 3a 0d c5 bd f3 e5 e5 bd
       -0.11476359 0.39194375 -0.096216634 -0.112255
000210 6a 3a 34 bd 07 54 9f be 24 4f a1 3d af 27 f8 39
       -0.04400102 -0.31118795 0.07876423 0.00047331813
000220 b8 d6 22 bd c6 17 82 be a3 c3 c0 be a3 09 9f 3e
       -0.039755553 -0.25408763 -0.3764926 0.3106204
000230 dc b5 92 be e6 a9 09 3e 44 56 1d 3e 60 b4 fd 3e
       -0.28654373 0.13443717 0.15364939 0.49551678
000240 3c 95 29 be 3c 56 9b be 1e 56 7e be bc a4 f1 3d
       -0.16560835 -0.3033923 -0.24837539 0.11798999
000250 73 f6 ee 3e 6e 8e 9d 3e 69 1a 2c 3d a4 6a 20 be
       0.466724 0.30772728 0.042017374 -0.1566568
000260 72 d5 22 3e 1e d0 a5 bd 3d ff d9 bd 5b dd 63 3e
       0.15901735 -0.08096336 -0.10644386 0.22252409
000270 65 b9 fd be 80 96 56 3e 88 66 1e be e5 40 ba bd
       -0.49555507 0.20955849 -0.154688 -0.09094409
000280 2a 62 cd 3e 15 81 4a be a4 e2 15 3e 78 c1 99 3e
       0.40113956 -0.19775803 0.14637238 0.30030417
000290 07 fe 87 3e 5f cc 9e 3e 1a ab 6e be 8e c8 43 3f
       0.26560995 0.31015298 -0.23307458 0.764779
0002a0 fb 7b 42 3d a4 ff 69 3d 49 eb 7c 3e 2b f5 0a be
       0.04748152 0.057128564 0.24699129 -0.13570087
0002b0 c6 0f a2 3d 86 95 70 bd 3c 31 b4 bd 93 a4 ed bd
       0.07913165 -0.058736347 -0.08798453 -0.11603656
0002c0 96 32 95 3d ea 36 39 be 45 89 45 be 3f 9c ed 3e
       0.07285039 -0.18087354 -0.19290645 0.4640827
0002d0 69 75 c9 bd eb 54 a9 3e 4e 58 87 be a3 39 04 3f
       -0.09836847 0.330726 -0.2643456 0.51650447
0002e0 6f bf 8c be b8 25 93 bc a7 cc 3f be fb 21 f5 3d
       -0.27489802 -0.017962322 -0.18730412 0.11969372
0002f0 14 e2 27 be 0a 19 c6 be 65 fc 12 3d b7 a4 ea 3e
       -0.16394836 -0.38690978 0.035885233 0.45828792
000300 84 ff a5 3d 5c 65 fc 3d f4 e0 4c be 60 ce dd be
       0.08105376 0.1232402 -0.20007688 -0.43321514
000310 4e 44 09 3c eb 2e 70 3e ec e5 18 3e 4d ab 7d be
       0.0083781015 0.23455398 0.14931458 -0.24772377
000320 52 71 e0 3e 56 fc 92 be 7e 13 e1 3e 49 87 e1 be
       0.43836457 -0.28708142 0.43960184 -0.44048527
000330 b7 41 51 3e 51 eb 15 be dc d7 89 be f9 9f d4 3d
       0.20435224 -0.14640547 -0.269225 0.10382075
000340 1a 22 4b 3e 8a 8a 37 3e fa a7 9e 3d e0 b2 09 be
       0.19837227 0.17923942 0.07746883 -0.13447142
000350 32 b8 54 3e b1 cd 38 be 40 a3 d3 be b5 67 9a 3e
       0.2077339 -0.18047215 -0.41335487 0.30157247
000360 8e d8 99 be 7b 6c 98 3e 35 d1 e1 3e 7a 38 ac ba
       -0.3004803 0.29770264 0.44104925 -0.001313939
000370 02 b5 f1 be 9b 96 86 be ff 11 89 3e 0d c2 18 3f
       -0.4720841 -0.26286778 0.26771542 0.596711
000380 c0 a5 28 be 72 16 6d be a5 e4 9e be 96 63 82 3e
       -0.16469479 -0.23153093 -0.31033817 0.25466603
000390 ed d7 7c bd e3 9d ac be 79 10 3e be 9d 2c b7 be
       -0.06172936 -0.33714208 -0.18560971 -0.35776225
0003a0 9e df 5f be 1d fb f1 be f8 10 01 3e e1 fc 94 3e
       -0.21862647 -0.47261897 0.1260413 0.2909918
0003b0 f5 06 91 3e 1c 65 b0 3e 68 7f 62 be 75 5c 32 3e
       0.2832562 0.3445214 -0.22118914 0.17418082
0003c0 88 95 b3 3e 61 47 6b bd 4a 3c 50 be 5f b1 3d 3e
       0.3507502 -0.05744112 -0.20335498 0.18524693
0003d0 0b b6 c5 be 5d 2b c4 3e 40 f2 71 3e 2d 14 bd 3d
       -0.3861545 0.38314334 0.23627567 0.09232364
0003e0 a1 fb 2b 3e 31 27 b0 bd 9f a1 34 3e 80 7d ff 3d
       0.16795208 -0.08601225 0.17639779 0.12475109
0003f0 ff 02 c9 be 3c cd ab 3e 3b fb 1b be 6b 56 90 be
       -0.39260098 0.3355502 -0.15232556 -0.28190932

value_layer.0.bias f4 [200]
000000 0a 71 8d bd bc ab 92 3d 2e ae 83 be e9 8d 37 3e
       -0.06906326 0.07161662 -0.25718826 0.17925228
000010 78 c3 aa bd 47 22 32 be ab 88 0d bd e1 d6 ab be
       -0.08338064 -0.17395888 -0.034554165 -0.33562377
000020 16 21 7c 3d 94 ad d8 3c 52 ec 25 3e 8e 95 08 be
       0.06155499 0.026449956 0.1620343 -0.133383
000030 6f b5 a4 3d db 41 0d 3d bc b2 da bd d7 12 67 be
       0.08042418 0.034486633 -0.10678622 -0.2256578
000040 66 9c 73 3d 17 76 cb 3e 66 8a 17 3d ef 33 aa bc
       0.059475325 0.39738533 0.03699722 -0.020776717
000050 7e b4 0e bd a3 eb 3b 3e 4a 70 cd 3d e3 53 04 3e
       -0.0348401 0.18351607 0.10031183 0.12922625
000060 77 2f 5f 3d 75 f1 6d 3e ba dc 1e 3e f1 45 bb bd
       0.054488625 0.2323664 0.15513888 -0.091442
000070 e2 a9 56 3e 42 24 77 3e 57 71 86 be 2e 88 3f 3d
       0.20963243 0.24134925 -0.26258346 0.04676073
000080 ee 75 21 3d 13 8d 93 3d b3 01 01 be 5e f1 97 bd
       0.039419107 0.07204642 -0.12598304 -0.07419084
000090 6e 74 60 be d7 ef 23 3e 2b 8b 6d be 4f 44 7d 3c
       -0.21919414 0.1600946 -0.2319762 0.015458181
0000a0 d2 68 8b 3e 46 6f e0 bd 3a 7e a2 3e de bd 3e 3e
       0.2722841 -0.10958724 0.31736928 0.18627116
0000b0 97 bb 20 3e 09 cb 12 3b 8f 40 4a 3d 1e a8 8b 3e
       0.1569656 0.002239885 0.049377974 0.272767
0000c0 78 be a1 bd d7 d2 c5 bd 02 f0 82 3d 0e 1d 27 bd
       -0.07897657 -0.09659355 0.06393434 -0.040799193
0000d0 86 9c 5d 3e 1d 31 00 bd 90 07 8e bc 18 ab 4b 3e
       0.2164174 -0.031296838 -0.01733759 0.19889486
0000e0 72 d5 d9 3d 83 9c bd be ab e7 48 3c 0d c5 81 bd
       0.106364146 -0.3703347 0.012262265 -0.063364126
0000f0 23 67 a8 bd ab d4 55 3e 24 f7 55 be 3d 86 1d 3e
       -0.08222797 0.20881908 -0.20895058 0.15383239
000100 a5 06 10 3e 9b 28 5c 3e 6f 9e 02 be 81 d7 3b 3e
       0.14065035 0.21499865 -0.1275575 0.18343927
000110 a1 c0 95 bd f0 14 06 bd 91 f7 80 3e 74 0c 73 3e
       -0.07312132 -0.03273481 0.25188878 0.23735219
000120 41 d3 b5 3e 99 a1 66 be d5 6e 82 be 06 73 6d be
       0.35512736 -0.22522582 -0.25475183 -0.23188409
000130 0a 92 ce bd fc 6c 2d be 57 60 50 3d ed 23 56 3e
       -0.100864485 -0.16936105 0.050873127 0.20912142
000140 8c 16 65 3e be 4d 83 be a9 0e 75 3d d9 b2 db bd
       0.22371882 -0.2564525 0.059828434 -0.10727472
000150 9a ca 9b 3e a0 79 41 3e a7 2f 1d be 85 9c a1 3e
       0.3042801 0.18894053 -0.15350209 0.31564727
000160 dc 8d 81 bd 59 cd 42 3b 7a 6a 71 be 4e de 4a 3b
       -0.06325886 0.0029724448 -0.23575774 0.0030955258
000170 44 fd 8f be 32 39 1a bd 87 ed 18 be 9f 9c 9d be
       -0.28122914 -0.037652202 -0.1493436 -0.30783555
000180 0b af 2a bd 98 c3 b0 3e 25 95 06 3e 26 ce 79 be
       -0.04167084 0.34524226 0.13142832 -0.24395046
000190 45 ba 71 3d 19 33 28 be 8e 9f 88 3e b7 fb 69 bd
       0.05901553 -0.16425742 0.2668423 -0.05712482
0001a0 48 44 01 bd 21 55 10 3e 3e 67 8a bd 88 b3 b6 3d
       -0.03155926 0.14094974 -0.06757973 0.089209616
0001b0 37 05 b3 bd d9 7e 64 be b6 76 4f 3d 99 3f 7f 3e
       -0.08741229 -0.22314014 0.05065032 0.24926604
0001c0 8b b2 d4 3d d8 53 97 3d 2f a3 17 3d 7c 9f 9f 3e
       0.10385617 0.07389039 0.03702086 0.31176364
0001d0 86 39 19 be 90 1f aa 3b 2f db 0c 3e 66 56 9a 3e
       -0.1496335 0.005191751 0.13755487 0.30144042
0001e0 f4 f1 88 be d5 f8 52 bd cd 92 14 bd 2c ae 19 bc
       -0.26747096 -0.051506836 -0.036272813 -0.009379905
0001f0 34 8d 27 be c4 44 4e 3e ca b3 e7 bd d4 6e 5a 3c
       -0.16362458 0.2014342 -0.11313589 0.013332088
000200 86 37 52 3d 96 73 b6 be b4 75 64 3d af 4c 90 3d
       0.051322483 -0.3563506 0.055776313 0.07045876
000210 63 f7 60 be c8 99 90 3e 20 2c 66 be 05 f5 6c be
       -0.2196937 0.28242326 -0.2247777 -0.23140343
000220 74 05 f7 3d b1 10 1e 3e 70 6d 81 bd 96 38 82 be
       0.12061587 0.15436055 -0.06319702 -0.25433797
000230 c2 c6 d1 3d dc 65 a5 bc 51 0a ca bd 77 45 00 bb
       0.10242988 -0.020190172 -0.09865249 -0.0019572654
000240 36 16 67 be dd 23 0c 3e 82 3f 8d 3c d1 86 72 3e
       -0.22567067 0.13685556 0.017242197 0.23684241
000250 2c 33 15 3e ac ba e6 be f3 e1 fd bd fc 1a 25 be
       0.14570302 -0.45064294 -0.12396612 -0.16123575
000260 96 1e 4b 3c 27 ca 33 be 16 8a 93 3e dc 97 fe 3c
       0.012397429 -0.17557584 0.2881629 0.031078272
000270 92 38 21 be 22 88 d6 bc 15 a4 35 3e 11 94 ba 3e
       -0.15744236 -0.02618796 0.17738374 0.3644109
000280 42 4b 5b be d9 4b 82 3e ab 63 ae 3c b2 24 b7 3e
       -0.21415427 0.25448492 0.02128776 0.35770184
000290 60 14 23 3e cb e8 14 3e a0 7f 09 3e 17 1c 5c be
       0.15925741 0.14541928 0.13427591 -0.2149509
0002a0 a2 6b 40 3d 86 da 8d be a9 78 95 3e c0 50 c3 bc
       0.046977647 -0.27705783 0.2919362 -0.023842216
0002b0 ce e7 36 be c8 79 94 3c 23 d1 89 3d ca d4 b3 3d
       -0.17861864 0.018124476 0.06729343 0.08780821
0002c0 8d 24 21 3e 5f ec f9 3d 77 ae a7 be 5d 15 85 3d
       0.157366 0.12203287 -0.32750294 0.06498215
0002d0 f4 5e 40 3e 7f 42 ba bd ab 69 24 be b5 19 58 be
       0.18786222 -0.090947144 -0.16055934 -0.21103556
0002e0 7a d7 b1 3d 3b 0d 61 3e 99 ae 75 bc f5 6d 45 3e
       0.08683677 0.21977703 -0.014995241 0.19280227
0002f0 cc de 0e be 36 ae 91 3d 3f 5d e8 bd ed 6f 9f be
       -0.13952178 0.07113306 -0.1134591 -0.3114008
000300 fc fb a8 3e 4e 24 1c 3e 63 e1 c0 3c e4 0e 43 3e
       0.3300475 0.15248224 0.023544973 0.19048649
000310 44 32 6c be 4f a0 96 3d db 6e e1 3d a3 3e a0 3e
       -0.2306605 0.07354795 0.11007472 0.31297788
