saved_models_ppo/model_ppo.pth (torch, 65717 bytes, 15 tensors)

action_layer.0.weight f4 [200, 11]
0	0xbdf31ecc	-0.118711084
1	0x3eb94c36	0.36190957
2	0xbe9ae804	-0.3025514
3	0xbecc74fb	-0.39933
4	0xbd285cf0	-0.041104257
5	0xbe0d5f77	-0.13805948
6	0x3d6e4f61	0.05818117
7	0x3dacc27f	0.08435535
8	0x3eeb2d10	0.45932817
9	0xbe1233c9	-0.14277567
10	0xbd327b99	-0.043574903
11	0xbdfd4842	-0.12367298
12	0x3ed4263e	0.41435426
13	0xbdcf4661	-0.101208456
14	0x3c854600	0.01626873
15	0x3de2fa2f	0.11082875
16	0xbefcd37c	-0.493801
17	0x3e9f35e7	0.31095812
18	0x3e36f99b	0.17868654
19	0x3e69b93f	0.22824572
20	0x3e6b4e38	0.22979057
21	0xbe53ab09	-0.20670713
22	0x3efacdef	0.4898524
23	0xbe52a1d0	-0.20569539
24	0xbe9f0230	-0.31056356
25	0x3df36030	0.11883581
26	0x3e313e46	0.17308912
27	0xbedde167	-0.4333603
28	0x3ea8d409	0.3297427
29	0xbeac0a7c	-0.3360175
30	0x3e58ed4a	0.21184269
31	0x3e06d53a	0.13167277
32	0x3dbb69e9	0.0915106
33	0xbebf3b1f	-0.37349793
34	0x3d751e2e	0.059843235
35	0x3db08950	0.0861994
36	0x3e88fb73	0.2675434
37	0x3cfa9c06	0.030591976
38	0xbd0289f6	-0.03186985
39	0xbe2f0978	-0.17093456
40	0xbde4cddf	-0.11172079
41	0x3e6910a1	0.2276025
42	0xbdd747e2	-0.105117574
43	0xbe8f8493	-0.28030834
44	0x3e236f62	0.15960458
45	0xbdde14ad	-0.10843787
46	0xbccd43e5	-0.025056789
47	0xbca9f642	-0.020747308
48	0x3e1eb254	0.15497714
49	0xbf1214f4	-0.5706322
50	0x3d5d8450	0.05408126
51	0xbea69b73	-0.32540473
52	0x3dacc716	0.0843641
53	0x3ec8f494	0.39249098
54	0xbeb9b74b	-0.36272654
55	0xbd516ffa	-0.05113218
56	0x3d52f183	0.051499855
57	0x3dda1c69	0.1064995
58	0xbe2dad81	-0.16960718
59	0xbde1f831	-0.11033667
60	0xbeae62b2	-0.34059674
61	0xbeac9ef2	-0.33715016
62	0xbe25b2bf	-0.16181467
63	0x3db1d02a	0.08682282
64	0xbe301c61	-0.17198326
65	0x3c58ff82	0.013244512
66	0x3e23d0a9	0.15997566
67	0xbe2e3f84	-0.17016417
68	0xbe02c0bd	-0.12768836
69	0xbcf14c14	-0.029455222
70	0x3daded2c	0.084925026
71	0xbce0067f	-0.027346848
72	0x3deea205	0.116519965
73	0xbe9d1fa2	-0.30688196
74	0x3e67725b	0.22602217
75	0xbdcf95bb	-0.10135981
76	0xbd978e21	-0.07400156
77	0xbd907288	-0.07053095
78	0xbeef09ec	-0.46687257
79	0x3e616b19	0.22013511
80	0x3eb53135	0.35389104
81	0xbdd61e21	-0.104549654
82	0xbe377638	-0.1791619
83	0x3edaf5e0	0.42765713
84	0x3dab2858	0.08357304
85	0xbe8f3353	-0.27968845
86	0x3e290544	0.16505915
87	0x3e487428	0.1957556
88	0x3ee810dc	0.45325363
89	0x3e01c76c	0.1267373
90	0x3e5367b6	0.20645031
91	0x3e6fa405	0.23402412
92	0x3dc7ec8f	0.09761917
93	0x3ed706af	0.41997287
94	0xbea1c033	-0.3159195
95	0xbe27075c	-0.16311401
96	0xbecf4011	-0.40478566
97	0x3e3922c1	0.18079664
98	0x3e5a32c2	0.21308425
99	0xbe509e40	-0.20372868
100	0x3dbf847d	0.09351442
101	0xbe6e6c8e	-0.23283598
102	0xbdf43e50	-0.11925948
103	0xbdc15f06	-0.094419524
104	0xbe541dd1	-0.20714499
105	0x3f287c0f	0.658143
106	0xbd83e257	-0.06439655
107	0xbe9b3456	-0.30313367
108	0x3e70d03d	0.23516937
109	0x3e230da6	0.15923175
110	0xbf3067ed	-0.6890858
111	0x3ed902fd	0.42385092
112	0x3dbda7f5	0.09260551
113	0x3d9a38df	0.075303786
114	0x3e62442d	0.2209632
115	0xbd36a480	-0.044590473
116	0xbecea405	-0.40359512
117	0x3e885367	0.2662613
118	0xbe5a6bc6	-0.21330175
119	0xbe827437	-0.2547929
120	0xbec58180	-0.38575363
121	0x3e0dd95c	0.13852447
122	0x3e333457	0.17500435
123	0xbe72307a	-0.23651305
124	0xbed7a97d	-0.42121497
125	0x3b4d2102	0.0031300192
126	0x3eb0a410	0.3450017
127	0xb91a6247	-0.00014723196
128	0x3e8674fa	0.2626112
129	0x3e79d564	0.24397808
130	0xbe950c47	-0.2911093
131	0xbdef4687	-0.11683374
132	0xbda8bf35	-0.08239595
133	0xbf0681ee	-0.52542007
134	0x3ede539c	0.43423164
135	0xbeadca57	-0.33943436
136	0x3ec917fe	0.39276117
137	0x3e99e419	0.30056837
138	0xbf015e5a	-0.50534594
139	0xbed3f1ea	-0.41395503
140	0x3dda3fb8	0.10656685
141	0xbe84e1f7	-0.25953647
142	0x3e946dd5	0.28990045
143	0x3f28246f	0.65680593
144	0xbea26d58	-0.31724048
145	0xbeff1638	-0.4982164
146	0xbf0f838d	-0.56060106
147	0x3ebfae85	0.37437835
148	0x3e02d70c	0.12777346
149	0xbcfcdb37	-0.030866249
150	0x3dc05687	0.09391504
151	0x3d48540a	0.04890827
152	0x3ca6da93	0.020367896
153	0x3ed17103	0.40906534
154	0x3efed8f9	0.49774912
155	0xbcbbb471	-0.02291319
156	0xbf000c3d	-0.50018674
157	0xbe9f2070	-0.31079435
158	0x3e75b6dc	0.23995537
159	0x3e9c27a6	0.30499
160	0xbc6b2617	-0.014352343
161	0x3e217773	0.15768223
162	0xbe3b4f7a	-0.18292037
163	0xbe28444a	-0.164323
164	0x3e7bdf0d	0.24596806
165	0x3c990f32	0.018684004
166	0x3f058139	0.52150303
167	0x3e019324	0.12653786
168	0x3e9cd128	0.30628324
169	0xbe473182	-0.1945248
170	0xbd18899b	-0.037240606
171	0x3de40e4b	0.11135539
172	0x3e98934f	0.29799888
173	0x3e9c482f	0.30523822
174	0x3d92aab6	0.07161467
175	0xbe17bf7b	-0.14819138
176	0x3dd4f4e2	0.1039827
177	0x3e7f96f9	0.24959935
178	0xbeb38dff	-0.35069272
179	0xbe725ffd	-0.23669429
180	0x3d677f1d	0.05651771
181	0xbd741347	-0.059588697
182	0x3eee8245	0.46583763
183	0x3d54ea4b	0.05198125
184	0xbcb7de4f	-0.022444872
185	0x3e8d5665	0.27604976
186	0x3ec937d9	0.3930042
187	0xbeb9c991	-0.36286595
188	0x3dcf32f2	0.10117139
189	0xbe8ae64c	-0.27128828
190	0xbe2659a5	-0.16245134
191	0x3ca89c79	0.020582424
192	0xbedd799a	-0.43256837
193	0x3edf52db	0.436179
194	0x3d85515c	0.06509659
195	0x3e01319c	0.1261658
196	0x3e123c3a	0.14280787
197	0x3de830f2	0.113374606
198	0xbe61012f	-0.21973108
199	0xbe13f0f7	-0.1444739
200	0x3ea5f8b6	0.32416314
201	0x3eb5f19f	0.35535905
202	0xbd81708e	-0.06320296
203	0x3e2b0a8c	0.16703242
204	0xbec6fd98	-0.38865352
205	0xbeb93c3c	-0.36178768
206	0x3e9c9e04	0.30589306
207	0x3e894cf8	0.26816535
208	0xbdc10795	-0.09425274
209	0xbe38e8c2	-0.1805754
210	0xbe80f02f	-0.25183246
211	0xbd53a2ff	-0.051669117
212	0xbea52d3d	-0.32261077
213	0xbd919537	-0.071085386
214	0x3e9a9c80	0.30197525
215	0xbe474c4f	-0.19462703
216	0x3e8415f9	0.25798014
217	0xbdaf0a8f	-0.08546936
218	0x3e012473	0.1261156
219	0x3d402ece	0.046919636
220	0xbe88d140	-0.26722145
221	0xbec4298f	-0.38312957
222	0x3eaafd57	0.33396408
223	0x3dc07bd0	0.09398615
224	0x3dcdf0e0	0.10055709
225	0x3e27afbd	0.16375633
226	0xbeb2c129	-0.34912995
227	0x3e03c3f7	0.12867723
228	0xbee7d190	-0.4527707
229	0x3e9892cf	0.29799506
230	0xbded5ba0	-0.11589742
231	0x3e9c9547	0.3058264
232	0xbe145f0e	-0.14489385
233	0x3e0fdc73	0.14048938
234	0xbec568b6	-0.3855645
235	0x3e88c45a	0.26712304
236	0x3f0e49b9	0.5558124
237	0xbec3e70d	-0.38262215
238	0x3ed989cb	0.4248794
239	0xbddfca91	-0.10927308
240	0x3d4f5464	0.05061759
241	0xbcdc9e87	-0.02693106
242	0xbf09e574	-0.5386574
243	0xbdd81880	-0.10551548
244	0xbc6d546d	-0.014485461
245	0x3ed55d23	0.4167262
246	0xbe4dc885	-0.20096023
247	0xbe9ded05	-0.30844894
248	0x3e23d211	0.15998103
249	0x3e334a37	0.1750878
250	0x3e59a2bf	0.21253489
251	0x3e6acd2e	0.22929832
252	0xbe67580e	-0.22592184
253	0xbe8c02f7	-0.27346012
254	0xbd2cd9b6	-0.042199813
255	0x3de435a2	0.11143042

action_layer.0.bias f4 [200]
0	0xbe4d0b2e	-0.20023796
1	0xbc31cad3	-0.01085158
2	0xbe8e85e8	-0.27836537
3	0x3d725bf5	0.05916973
4	0x3e3aa8bd	0.18228431
5	0x3e48be5b	0.19603865
6	0xbdb70dc7	-0.08938175
7	0xbe3fea8d	-0.18741818
8	0xbce19737	-0.027537925
9	0x3e4c329e	0.19941184
10	0x3e020d65	0.12700422
11	0xbc0e13a4	-0.008671675
12	0xbec15aff	-0.37764737
13	0xbd5494f9	-0.051899884
14	0x3ce0fcf0	0.02746436
15	0x3dfc3337	0.12314456
16	0xbe871a8d	-0.26387444
17	0xbe7df1b6	-0.24799237
18	0x3c4499f8	0.0119996
19	0xbe0c5f0d	-0.13708134
20	0x3e6c4a26	0.2307516
21	0x3e7e16dc	0.24813408
22	0xbcf5da9c	-0.030011468
23	0x3e3c647e	0.1839771
24	0xbd33bf01	-0.043883327
25	0x3cd04d27	0.025427414
26	0x3d0fc2f9	0.03509805
27	0xbe847046	-0.25866908
28	0xbd925c94	-0.07146564
29	0xbc6f4f6f	-0.014606341
30	0xbce26137	-0.027634246
31	0x3e8bb3fc	0.27285755
32	0x3e5290ce	0.20563051
33	0xbe4ca0be	-0.19983193
34	0x3e389729	0.18026413
35	0x3d888633	0.066662215
36	0x3c8e7097	0.017387671
37	0x3e01c08a	0.12671104
38	0xbde59057	-0.11209171
39	0xbe04b3d4	-0.12959224
40	0x3de38fff	0.111114495
41	0xbd5401ce	-0.051759534
42	0x3e093db6	0.13402447
43	0x3cb01484	0.021494158
44	0xbe7b3a8f	-0.24534057
45	0x3e20019d	0.15625615
46	0xbddf789a	-0.10911675
47	0xbd330a28	-0.043710858
48	0xbdbd1da6	-0.092341706
49	0x3e1e3938	0.15451515
50	0x3d99ebcf	0.0751568
51	0xbcf68608	-0.030093208
52	0xbdaa4510	-0.08313954
53	0xbd276ab8	-0.04087326
54	0xbe0c2715	-0.13686784
55	0xbd8597c6	-0.06523089
56	0xbe9c7bec	-0.30563295
57	0xbc47c528	-0.012193002
58	0x3eb55d89	0.35422924
59	0xbe3bb7ab	-0.18331783
60	0xbdc6d935	-0.09709398
61	0x3e61642c	0.22010869
62	0xbe6b890f	-0.23001502
63	0xbd000396	-0.03125342
64	0xbd641509	-0.055684123
65	0x3e2eb056	0.17059454
66	0x3e1e11fd	0.1543655
67	0x3cd47e6e	0.025939193
68	0x3d4b6084	0.04965259
69	0x3da8c1a0	0.08240056
70	0x3d83133c	0.06400153
71	0x3e45046a	0.19239965
72	0xbddd1863	-0.10795667
73	0x3e76f890	0.24118257
74	0xbd170b2a	-0.03687588
75	0x3b794052	0.0038032723
76	0x3e1f3ed0	0.15551305
77	0x3e4d3277	0.20038782
78	0x3c30ab1d	0.010782984
79	0xbd407e3c	-0.046995386
80	0x3dd2fefa	0.10302539
81	0xbc812477	-0.015764458
82	0xbd96f9ff	-0.07371902
83	0xbe89432e	-0.26809067
84	0xbb19c7c6	-0.0023465022
85	0xbe454ceb	-0.19267623
86	0xbe4d2d1d	-0.2003674
87	0xbe1d44d6	-0.1535829
88	0xbd6c5632	-0.05769939
89	0xbda7f592	-0.08201136
90	0x3cc9bc69	0.024625974
91	0x3dca71d1	0.0988499
92	0xbe5bbf2f	-0.2145965
93	0x3e8aac38	0.27084517
94	0x3dc08520	0.094003916
95	0xbdf4ab1b	-0.11946698
96	0xbedcb2bd	-0.43105116
97	0x3e334e2b	0.17510287
98	0x3dcf11d3	0.101108216
99	0xbe8f59d3	-0.27998218
100	0x3e762575	0.24037726
101	0xbdc8f69c	-0.09812662
102	0xbcfc8af4	-0.030827977
103	0xbde870d4	-0.11349645
104	0x3e06ced1	0.13164832
105	0x3c733d7d	0.014846203
106	0x3eb84c14	0.35995543
107	0xbd7b236c	-0.061313078
108	0xbc8c291d	-0.017109448
109	0x3e10e82f	0.14151071
110	0xbe071f66	-0.13195571
111	0x3e9ed7ef	0.3102412
112	0xbd8751a0	-0.066073656
113	0x3d4c79e2	0.049920924
114	0x3e8e8558	0.27836108
115	0x3d11379b	0.03545342
116	0xbd8c20e7	-0.06842213
117	0xbe55086c	-0.20803994
118	0x3e63b1c5	0.22235782
119	0xbea44ef5	-0.3209149
120	0xbe30dddb	-0.17272131
121	0xbdcf94ce	-0.10135804
122	0xbdc329d6	-0.09529464
123	0x3cc9ea2e	0.024647798
124	0xbd1a129a	-0.037615396
125	0x3e02bc0f	0.12767051
126	0xbd65bbe6	-0.056087397
127	0x3e18a799	0.14907683
128	0x3e8ffa55	0.28120676
129	0x3e07648e	0.13221952
130	0x3dce83e5	0.10083751
131	0xbe080d8d	-0.13286419
132	0x3d8f9b05	0.070119895
133	0x3be68d0b	0.0070358566
134	0x3dfb8cde	0.12282728
135	0xbe678674	-0.22609884
136	0x3d1e0760	0.038581252
137	0x3ec01d32	0.37522274
138	0xbdcf0439	-0.10108227
139	0xbe84f294	-0.25966322
140	0x3e884a85	0.26619354
141	0xbb39b1f0	-0.0028334819
142	0x3e9c5217	0.3053138
143	0xba1d118a	-0.0005991688
144	0x3eaa2a9f	0.33235642
145	0x3cf3c417	0.029756589
146	0xbe97316c	-0.29529893
147	0xbe58a700	-0.21157455
148	0xbe917cb3	-0.2841545
149	0xbd15f09d	-0.03660642
150	0x3d1ee07f	0.038788315
151	0xbe0b51ef	-0.13605474
152	0x3e81884c	0.252993
153	0x3dd450c2	0.10366966
154	0x3e51a343	0.20472436
155	0x3dfe262d	0.12409625
156	0xbe83fc29	-0.2577832
157	0xbe0225eb	-0.12709777
158	0x3dda9cd8	0.10674447
159	0x3cc2b36b	0.023767194
160	0x3e305b0f	0.17222236
161	0x3d8a6cef	0.06759059
162	0xbdfa9566	-0.12235527
163	0xbdd4beb0	-0.10387933
164	0xbe0c3064	-0.13690335
165	0x3e4fc553	0.20290117
166	0x3e2a2e87	0.16619311
167	0x3d81b08d	0.063325025
168	0x3c3230aa	0.01087586
169	0x3ef66261	0.48121932
170	0x3e8a0968	0.269603
171	0x3dc3b55a	0.095560744
172	0x3e0ac37d	0.13551135
173	0xbdf81e8d	-0.12115202
174	0x3ce9a587	0.028521312
175	0x3df21671	0.118206866
176	0xbe3c51ea	-0.18390623
177	0x3e8d9c11	0.27658132
178	0xbe451aa7	-0.19248448
179	0x3dcd0439	0.10010571
180	0xb9ccd5ba	-0.0003906915
181	0x3dff7dbc	0.12475154
182	0xbeb69f99	-0.35668638
183	0x3c50ef8c	0.012752425
184	0x3e701930	0.23447108
185	0xbc9b807a	-0.01898216
186	0xbe98aac5	-0.29817787
187	0xbe6a3f26	-0.22875652
188	0x3d08d09e	0.033402078
189	0x3d884923	0.06654575
190	0x3d9a4669	0.07532961
191	0x3e6777ff	0.22604369
192	0x3e95688c	0.29181325
193	0x3d5ac677	0.053411927
194	0x3e7cfd3b	0.24705975
195	0xbe90d620	-0.28288364
196	0xbd8ca792	-0.06867899
197	0x3e14655b	0.14491789
198	0xbe4efb75	-0.2021311
199	0xbe995012	-0.299439

action_layer.2.weight f4 [20, 200]
0	0x3da35597	0.07975309
1	0x3da625ed	0.081127025
2	0x3dd04805	0.10169987
3	0x3e6eb7bb	0.23312275
4	0x3d56ab0a	0.05240921
5	0x3d23fc57	0.040035572
6	0x3e8281e9	0.2548974
7	0xbb09b826	-0.0021014302
8	0xbe6ff5a4	-0.23433548
9	0xbe63abb4	-0.22233468
10	0xbf04eee6	-0.5192703
11	0xbc528b04	-0.012850527
12	0x3e6a27ca	0.22866741
13	0x3e83f247	0.2577078
14	0xbda7abc5	-0.08187059
15	0x3d86b54c	0.065775484
16	0xbe144537	-0.14479528
17	0x3caf8953	0.021427786
18	0x3deb0365	0.11475257
19	0xbe9a6ab5	-0.30159536
20	0xbde67f77	-0.11254781
21	0x3e46fa5b	0.1943144
22	0x3e25b847	0.16183577
23	0x3e74047f	0.2382984
24	0xbda63094	-0.08114734
25	0x3dee55ea	0.116374806
26	0xbd22d62b	-0.039755028
27	0x3d891124	0.066927224
28	0x3eab228a	0.3342479
29	0xbf00182e	-0.50036895
30	0xbe3f10aa	-0.186587
31	0x3e840be2	0.25790316
32	0xbdd5e8f1	-0.10444821
33	0xbe90b72d	-0.28264752
34	0x3dbcb714	0.09214607
35	0xbd8a8cbc	-0.06765124
36	0x3ef34bb8	0.47518706
37	0x3ca40496	0.020021718
38	0x3da06089	0.078309126
39	0xbe98e7d6	-0.29864377
40	0xbe274db9	-0.16338243
41	0xbe8a8bce	-0.27059788
42	0x3e87cbb6	0.26522607
43	0x3cbb0f82	0.022834543
44	0x3d8a74f8	0.06760591
45	0x3d95e656	0.07319324
46	0x3cc77908	0.024349704
47	0xbeed75fa	-0.4637907
48	0xbdd46e87	-0.10372644
49	0x3ca7644a	0.020433564
50	0x3da7c1ca	0.08191259
51	0xbd690a5d	-0.05689465
52	0x3d3adba1	0.04561961
53	0x3dcf7e72	0.101315394
54	0xbe06b475	-0.13154776
55	0x3dd2ed6b	0.1029919
56	0xbd8572bc	-0.065160245
57	0xbb374a88	-0.0027968008
58	0xbe9a460e	-0.30131572
59	0x3da8617f	0.08221721
60	0xbe0dbf22	-0.13842443
61	0x3e53948f	0.2066214
62	0x3dd16a7b	0.10225388
63	0x3db984ef	0.09058558
64	0xbd60db33	-0.054896545
65	0xbf17160a	-0.59018004
66	0x3e1f7253	0.15570955
67	0xbe090e06	-0.13384256
68	0xbea7a81d	-0.32745448
69	0xbdda172d	-0.10648952
70	0xbdba4662	-0.09095456
71	0x3e8684c0	0.26273155
72	0xbe22b43a	-0.15889063
73	0x3e2848db	0.16434042
74	0x3e1749dd	0.1477427
75	0x3ea4376e	0.3207354
76	0xbe1e4bf9	-0.15458669
77	0x3e84b83e	0.25921816
78	0x3e8ad50d	0.2711567
79	0x3e8b7888	0.27240396
80	0xbea68f36	-0.32531136
81	0x3e5b13a6	0.21394214
82	0x3d838a6d	0.06422887
83	0xbed37cfc	-0.41306293
84	0x3e884a9d	0.26619425
85	0xbd09e115	-0.03366192
86	0xbe331191	-0.1748717
87	0xbe7d8d6f	-0.24760984
88	0xbe92d365	-0.28676906
89	0xbe8a49a9	-0.27009323
90	0xbe893767	-0.2680008
91	0x3e10ff9a	0.14160004
92	0xbd4fa99c	-0.05069886
93	0xbe202791	-0.15640093
94	0xbdf7143a	-0.12064405
95	0xbf070f8b	-0.5275809
96	0x3e696eb2	0.22796133
97	0xbe7cf566	-0.24702987
98	0x3b45da27	0.0030189843
99	0x3b8f045b	0.004364533
100	0xbdbfb8ab	-0.093613945
101	0xbe7f7cf2	-0.24950007
102	0xbeb5fc77	-0.35544178
103	0xbf09396d	-0.5360325
104	0xbc824b28	-0.015904978
105	0x3c60696b	0.013697009
106	0x3e20e4cb	0.15712278
107	0x3e3051ef	0.17218755
108	0xbd26d183	-0.04072715
109	0x3b57b228	0.0032912586
110	0xbe06327b	-0.13105194
111	0xbe0502dc	-0.12989372
112	0x3e2ab66d	0.16671152
113	0x3e9927e2	0.2991324
114	0x3eae68c0	0.34064293
115	0xbeb18dac	-0.346784
116	0xbe844c34	-0.25839388
117	0xbe04a4bd	-0.12953468
118	0x3da114c2	0.07865287
119	0x3d39aaa5	0.045328755
120	0x3dfbb8ab	0.12291082
121	0xbd2ffee7	-0.042967703
122	0xbcf6784f	-0.030086664
123	0xbe8e5fbc	-0.27807415
124	0xbd0c3c96	-0.034237467
125	0x3e410a08	0.18851483
126	0x3ec6652f	0.38749072
127	0xbe3a7430	-0.18208385
128	0x3f06d840	0.5267372
129	0xbd5e541a	-0.054279424
130	0xbda48e4a	-0.08034952
131	0xbe40d76f	-0.18832181
132	0x3cbc1ebd	0.022963876
133	0x3eeeb6a5	0.46623722
134	0x3c93a826	0.018024515
135	0x3d961bff	0.073295586
136	0x3b463a6f	0.0030247231
137	0x3dc896e2	0.097944036
138	0xbd8365ba	-0.06415887
139	0xbd1a7973	-0.03771348
140	0x3f2a90b8	0.66627073
141	0x3e0f1c78	0.13975704
142	0xbe5efa0b	-0.21775071
143	0xbdd759ba	-0.10515161
144	0xbe9887cd	-0.29791108
145	0xbe162ddc	-0.14665931
146	0x3c54401c	0.012954738
147	0x3d7129b7	0.058877673
148	0xbe3c69b4	-0.18399698
149	0x3e92764d	0.2860588
150	0xbde2b336	-0.11069338
151	0xbd9a406e	-0.0753182
152	0x3c9d529f	0.019204436
153	0x3d07fb12	0.033198424
154	0x3e033e4a	0.1281673
155	0xbd14cf64	-0.036330596
156	0x3ab065a2	0.0013458023
157	0xbd740924	-0.05957903
158	0x3eade4ab	0.33963522
159	0xbd99f945	-0.075182475
160	0xbc76ba90	-0.015059128
161	0xbdd63961	-0.10460163
162	0xbdf974a7	-0.12180453
163	0xbd89ec2e	-0.06734501
164	0xbe188a10	-0.14896417
165	0x3ce76f49	0.028251307
166	0xbd9f3036	-0.077728674
167	0x3e1c129b	0.15241472
168	0x3e56177f	0.209074
169	0xbdefeeba	-0.11715455
170	0xbd2e9291	-0.042620245
171	0x3d6b1534	0.057393268
172	0xbe5889d0	-0.21146321
173	0x3ed9b8ac	0.42523706
174	0x3dca15be	0.09867428
175	0xbec4d03a	-0.38440114
176	0xbdc6ad98	-0.09701079
177	0x3e96a015	0.29419008
178	0xbd568264	-0.052370444
179	0x3e898f3b	0.2686709
180	0x3c338de5	0.010959123
181	0xbc951920	-0.018200457
182	0xbe65fcd3	-0.22459726
183	0xbe0ac365	-0.135511
184	0x3df4492b	0.11928018
185	0x3e5c354f	0.2150471
186	0x3da3b61a	0.079937175
187	0x3e3734d2	0.17891243
188	0xbdf79a4e	-0.12089978
189	0xbdfaa743	-0.12238934
190	0xbd2c7e7d	-0.042112816
191	0xbe06df90	-0.1317122
192	0x3d815c17	0.06316393
193	0xbcc7f9ab	-0.024411043
194	0xbe42919c	-0.19000858
195	0x3dea087f	0.11427402
196	0xbd0ccbf0	-0.034374177
197	0xbc137b2e	-0.009001536
198	0xbbd0bc78	-0.0063701235
199	0xbd8ba7bb	-0.068191014
200	0x3d560b13	0.052256655
201	0x3e8a67e1	0.27032378
202	0x3d888a1b	0.066669665
203	0x3dc55692	0.096356526
204	0x3c025917	0.007955811
205	0xbe01cc54	-0.12675601
206	0x3c9f398e	0.019436624
207	0x3d9e0d45	0.07717375
208	0xbe0af1a9	-0.13568749
209	0x3e654f2a	0.2239348
210	0x3d6e84b7	0.058232035
211	0xbe3ca4c5	-0.1842223
212	0xbf30dee0	-0.6909008
213	0xbd8c706f	-0.068573825
214	0xbe42da39	-0.19028558
215	0x3c073a30	0.008253619
216	0xbde32121	-0.11090303
217	0x3e76c450	0.24098325
218	0xbe25e242	-0.16199592
219	0xbcaf76f6	-0.02141903
220	0xbe0075b2	-0.12544897
221	0xbe84bb06	-0.25923938
222	0x3ed9db35	0.42550054
223	0x3d5c20ba	0.053742148
224	0xbe678ee3	-0.226131
225	0x3e6b8a2b	0.23001926
226	0x3d863e04	0.06554797
227	0xbe9e95d4	-0.30973685
228	0x3e6dd5e6	0.23226127
229	0xbdea75ba	-0.11448236
230	0x3b0a6c17	0.0021121555
231	0x3d5298ac	0.05141513
232	0x3e39f60c	0.18160266
233	0xbda392c6	-0.07986979
234	0x3e99c7f5	0.30035368
235	0x3d32055a	0.043462135
236	0x3d9b1b52	0.0757357
237	0x3ddb0a4c	0.10695323
238	0xbdb13937	-0.08653491
239	0xbd34f499	-0.04417858
240	0x3d356e4e	0.044294648
241	0xbde5ecd8	-0.11226815
242	0x3dad295e	0.08455156
243	0xbc05aac7	-0.008158392
244	0xbe5dc5e9	-0.21657528
245	0xbcc62dee	-0.024191823
246	0xbd58f26d	-0.05296557
247	0xbcfeb6fa	-0.03109311
248	0x3ddc073d	0.10743568
249	0x3e12d8ec	0.14340562
250	0x3e1b6976	0.15176949
251	0xbcb1771d	-0.021663243
252	0xbdc5951e	-0.096475825
253	0xbe29940e	-0.16560385
254	0xbec99222	-0.39369303
255	0xbdda983e	-0.10673569

action_layer.2.bias f4 [20]
0	0x3e47384f	0.19455074
1	0x3d5c8c56	0.053844772
2	0x3c85f5e1	0.016352596
3	0x3deae27d	0.114689805
4	0x3e1502a3	0.14551787
5	0x3d7514e6	0.059834383
6	0x3e2c9559	0.16853847
7	0xbcdd7c1b	-0.027036717
8	0xbe5b751d	-0.21431394
9	0xbd4ae18e	-0.049531512
10	0xbe294853	-0.16531496
11	0xbe2cb6bc	-0.16866583
12	0x3d359283	0.044329178
13	0x3d092c68	0.033489615
14	0xbd836a8a	-0.06416805
15	0x3db3c264	0.087773114
16	0xbdd02467	-0.10163193
17	0x3b5174b9	0.0031960441
18	0x3e22bdf4	0.15892774
19	0xbdc347db	-0.0953519

action_layer.4.weight f4 [50, 20]
0	0x3e96eb76	0.29476517
1	0x3e255083	0.16143994
2	0x3e31943f	0.17341708
3	0x3e124cc2	0.14287093
4	0xbdf43e33	-0.11925926
5	0x3e8416f6	0.25798768
6	0xbe18c8c9	-0.14920343
7	0xbdfdb9a9	-0.123889275
8	0x3e6d6f8b	0.23187082
9	0xbd7ac562	-0.061223395
10	0x3df2dc2b	0.118584
11	0xbe183589	-0.14864172
12	0x3c3645a2	0.011125
13	0xbdd3e48e	-0.10346328
14	0xbe3a864e	-0.18215296
15	0xbe0ccfec	-0.13751191
16	0x3e08ebb3	0.13371162
17	0x3e185b1c	0.14878505
18	0x3f18e0b1	0.5971785
19	0xbe9e22d4	-0.30885947
20	0x3ec7483f	0.38922307
21	0xbc152dbf	-0.009105145
22	0xbe20d9f5	-0.15708144
23	0xbed30afe	-0.41219324
24	0x3e9037e0	0.2816763
25	0x3dc8fc16	0.098137066
26	0xbd04497d	-0.032296646
27	0xbe0b057b	-0.1357631
28	0x3e52d61f	0.20589493
29	0x3dfe28fe	0.124101624
30	0xbd8ca89b	-0.068680964
31	0xbe2971df	-0.16547345
32	0x3d6f90e2	0.05848778
33	0x3ead38cd	0.33832398
34	0xbe62671d	-0.22109647
35	0xbcee083d	-0.029056663
36	0xbe3e4b41	-0.18583395
37	0x3d65b4ae	0.056080513
38	0x3dc06210	0.09393704
39	0xbe41b988	-0.18918431
40	0xbed2c196	-0.4116332
41	0x3e967032	0.29382473
42	0xbd55111b	-0.052018266
43	0xbe0d3f01	-0.13793565
44	0x3e942c98	0.28940272
45	0xbe263cd5	-0.16234143
46	0xbe0de3ea	-0.13856474
47	0xbdd79ba1	-0.10527731
48	0x3c719ced	0.014746887
49	0x3d8cc641	0.068737514
50	0xbeda052a	-0.42582065
51	0x3ecb5f4b	0.3972114
52	0x3e6b82d3	0.22999124
53	0xbd807e0e	-0.06274043
54	0x3ca5f428	0.020258024
55	0xbd0251e3	-0.031816375
56	0xbe79cb50	-0.24393964
57	0xbf0e9d17	-0.5570845
58	0xbf17b0fb	-0.59254426
59	0xbe18058a	-0.14845863
60	0xbba17b8f	-0.0049280594
61	0xbeb7f044	-0.35925496
62	0xbd4da5f6	-0.0502071
63	0x3efdef0f	0.4959645
64	0xbea8bb1f	-0.32955262
65	0x3e8df849	0.2772849
66	0xbeccd963	-0.40009603
67	0x3e7b6a2f	0.24552225
68	0xbd0cb570	-0.03435272
69	0x3cb47c7c	0.022032015
70	0xbeadfe90	-0.33983278
71	0x3c6f5308	0.014607199
72	0xbcef0fdb	-0.029182365
73	0xbe2485cf	-0.16066669
74	0x3e151e7a	0.14562407
75	0xbd323786	-0.043509983
76	0x3e276448	0.16346848
77	0x3e02a15e	0.12756869
78	0x3e3d0183	0.18457608
79	0xbea1a171	-0.31568483
80	0x3f048cf9	0.5177761
81	0xbe5d62c0	-0.21619701
82	0x3e9c9914	0.3058554
83	0xbdfed162	-0.1244228
84	0x3dd60dc4	0.10451844
85	0x3e92077c	0.28521335
86	0x3d8cdaf8	0.068777025
87	0x3e99fd33	0.30075988
88	0x3e8d4cac	0.27597558
89	0xbddb3ffa	-0.10705562
90	0x3eac81d7	0.3369281
91	0xbcf13916	-0.029446166
92	0xbd0368af	-0.032082256
93	0x3e1c4430	0.15260386
94	0xbd366604	-0.044530883
95	0xbe2a8a01	-0.16654207
96	0x3d25173e	0.04030537
97	0x3f014f48	0.505116
98	0x3effa65e	0.49931616
99	0x3dad2472	0.08454217
100	0xbe84b872	-0.2592197
101	0x3e9b8c8e	0.30380672
102	0xbe9cfdcb	-0.3066238
103	0xbe00ff1a	-0.12597314
104	0x3ea860a6	0.32886237
105	0xbee70cb0	-0.45126867
106	0x3eb66814	0.3562628
107	0xbd835e04	-0.064144164
108	0xbd5fb59a	-0.054616548
109	0x3dee69b8	0.11641258
110	0xbe56ac88	-0.20964253
111	0x3cc95a69	0.024579244
112	0x3e99b662	0.3002196
113	0x3eac43f8	0.33645606
114	0x3e0f064b	0.13967244
115	0x3e81ef75	0.25378004
116	0x3da14a58	0.07875508
117	0xbeaef6a7	-0.34172556
118	0x3d58f0e2	0.0529641
119	0x3e90513b	0.28186974
120	0xbe5ac066	-0.21362457
121	0xbd02e8d1	-0.031960312
122	0xbe5b2080	-0.21399117
123	0xbe98f509	-0.29874447
124	0x3e9aba3c	0.3022021
125	0x3d867c87	0.065667205
126	0x3eecf306	0.46279162
127	0xbdc62b22	-0.09676196
128	0x3e92f060	0.28699017
129	0x3d4eec55	0.050518353
130	0x3ea27796	0.31731862
131	0x3dc38ea6	0.095486924
132	0x3ea9d60b	0.33171114
133	0x3d290b41	0.0412705
134	0x3e5b1320	0.21394014
135	0x3e82d702	0.25554663
136	0xbe8ddffb	-0.27709946
137	0xbcbd0e32	-0.023078058
138	0xbe89a366	-0.26882476
139	0x3e0eb713	0.13937025
140	0xbc2d6327	-0.010582722
141	0xbc2ddc3b	-0.010611589
142	0x3dcbd382	0.09952451
143	0x3ddf6859	0.109085746
144	0x3de0ff60	0.10986209
145	0xbe02385c	-0.12716812
146	0xbc8e7d82	-0.017393831
147	0x3df9927a	0.12186141
148	0xbe512ef8	-0.20428073
149	0xbe0b2be7	-0.13590966
150	0x3b9cc0e9	0.004783739
151	0x3e182ffd	0.14862056
152	0x3e1ccab2	0.15311697
153	0xbed4e007	-0.4157717
154	0x3e2a7a88	0.16648304
155	0x3e333c02	0.1750336
156	0x3e97a642	0.29619032
157	0xbed9f91b	-0.42572865
158	0xbe2c6ba3	-0.16837935
159	0x3d0666de	0.032812946
160	0xbf00487b	-0.50110596
161	0x3e379a6b	0.1793
162	0x3dd67ae7	0.104726605
163	0x3cd1b0a1	0.025596919
164	0x3e45dacb	0.19321744
165	0xbda68ed4	-0.08132711
166	0xbd3f69f3	-0.0467319
167	0xbe87d815	-0.26532045
168	0xbe454fe0	-0.19268751
169	0xbe4df325	-0.20112284
170	0xbeb2b569	-0.3490403
171	0x3e90e814	0.28302062
172	0x3dfb38fd	0.12266729
173	0xbe0246bc	-0.12722296
174	0x3efb532b	0.4908689
175	0x3ea3e601	0.32011417
176	0x3c49b701	0.012311698
177	0xbeb17a4c	-0.34663618
178	0xbef4de3b	-0.47825798
179	0xbd28a84e	-0.041176133
180	0xbdd7623a	-0.10516782
181	0x3db2b4d6	0.08725898
182	0xbea5553e	-0.32291597
183	0x3c8fec2c	0.01756867
184	0x3e2ce40d	0.1688387
185	0xbe81c1e9	-0.25343254
186	0x3b578c6d	0.0032890097
187	0x3e1cec77	0.15324579
188	0x3ea67672	0.32512242
189	0xbdea6fd3	-0.1144711
190	0x3bc06f93	0.0058726757
191	0x3da3caeb	0.07997688
192	0x3e8f2d2d	0.27964154
193	0x3eafc5a2	0.3433047
194	0x3cf22ad1	0.029561432
195	0x3e8ac4e8	0.27103353
196	0x3d7fefa3	0.062484395
197	0x3e0c3ca7	0.13695012
198	0x3ea8cb3b	0.32967553
199	0x3dc854b5	0.097817816
200	0x3f0f0c5a	0.5587822
201	0xbe1b1883	-0.15146069
202	0x3e3239c3	0.17404847
203	0x3d3a0287	0.045412567
204	0xbea4115d	-0.32044497
205	0x3e8a7ec2	0.27049834
206	0x3d9235a5	0.07139138
207	0x3eb46269	0.3523133
208	0x3dd8a008	0.105773985
209	0x3e4ca47f	0.19984625
210	0x3ea9803b	0.33105645
211	0xbeeab289	-0.45839337
212	0xbe878716	-0.2647025
213	0x3d9b5a46	0.07585578
214	0xbef4d79d	-0.4782075
215	0xbcb5b2f8	-0.022180066
216	0xbe189c79	-0.1490344
217	0x3f1452da	0.5793892
218	0x3c600823	0.013673815
219	0x3d281064	0.041031256
220	0x3e2905d6	0.16506132
221	0x3d3fe0a6	0.0468451
222	0x3e4faa84	0.2027989
223	0x3e36c7ec	0.17849702
224	0xbe2f72a1	-0.17133571
225	0x3ec1450c	0.3774799
226	0xbe13a090	-0.14416718
227	0x3e890219	0.26759413
228	0x3ec6bcca	0.3881591
229	0x3dcd9b53	0.10039391
230	0x3c04b20f	0.008099093
231	0x3dfab821	0.12242151
232	0x3c1d207a	0.009590263
233	0xbe684c7b	-0.22685425
234	0xbd981020	-0.074249506
235	0xbe1f32e4	-0.15546757
236	0xbe0e5636	-0.13900074
237	0x3ecbc8b4	0.39801562
238	0x3f122b47	0.57097286
239	0xbe1161eb	-0.14197509
240	0xbddd4113	-0.108034275
241	0x3e417b3f	0.18894671
242	0xbec3c458	-0.38235736
243	0xbec46066	-0.38354796
244	0x3e546d8f	0.20744918
245	0xbe39385b	-0.18087904
246	0x3a6d3aed	0.0009049613
247	0xbd202934	-0.039101794
248	0x3e253cc2	0.16136459
249	0x3d6dc984	0.05805351
250	0x3e55f945	0.2089587
251	0xbde97abe	-0.11400364
252	0x3ee2c575	0.44291273
253	0xbc2dc330	-0.010605618
254	0x3e431fc8	0.19055092
255	0x3e9c2ab3	0.30501327

action_layer.4.bias f4 [50]
0	0x3e7b3562	0.24532083
1	0x3caea7ad	0.021320188
2	0xbde6e88d	-0.11274824
3	0xbd2a4378	-0.04156825
4	0xbd98ad44	-0.07454923
5	0xbe02309b	-0.12713854
6	0xbdcedc3d	-0.10100601
7	0x3ea96d01	0.33090976
8	0x3d866d97	0.06563871
9	0x3d1a85f7	0.037725415
10	0x3db5ba0e	0.08873378
11	0x3d54258b	0.051793616
12	0xbd74c199	-0.05975494
13	0xbe80953d	-0.2511386
14	0x3d5bcbc2	0.053661115
15	0x3dfe9e2a	0.12432511
16	0x3dae6ab2	0.08516444
17	0x3e1d7e2b	0.1538016
18	0x3e473383	0.19453244
19	0x3ddd3402	0.10800935
20	0x3de18147	0.11010986
21	0xbd9c3aa4	-0.07628372
22	0x3e16dfda	0.1473383
23	0x3e6739d9	0.22580661
24	0xbe2f7701	-0.1713524
25	0xbe8b3be8	-0.27194142
26	0xbe626fb9	-0.22112931
27	0x3d1e75e8	0.038686663
28	0xbca2fbc3	-0.01989544
29	0xbd5c68bf	-0.05381083
30	0xbe2c489a	-0.1682457
31	0xbea40b05	-0.32039657
32	0xbe230695	-0.1592048
33	0xbe13648e	-0.14393827
34	0xbcccf072	-0.025016997
35	0x3e4ba9c2	0.19888976
36	0xbe3b41e0	-0.18286848
37	0x3d5c2a47	0.053751256
38	0xbe6680f9	-0.22510137
39	0xbea94cc9	-0.33066395
40	0x3ec70658	0.38872027
41	0x3e949e85	0.2902719
42	0x3c4cb552	0.012494402
43	0xbe3e892b	-0.18607013
44	0xbd718e10	-0.058973372
45	0x3defeab1	0.11714686
46	0x3ea5ccf8	0.3238294
47	0xbe2c4ce6	-0.1682621
48	0xbe84dade	-0.25948232
49	0xbd01f5cb	-0.031728547

action_layer.6.weight f4 [3, 50]
0	0x3c931ed1	0.01795903
1	0xbdf2ea3c	-0.11861083
2	0x3d831b09	0.06401641
3	0x3e8dce13	0.27696285
4	0xbe1d1d28	-0.15343153
5	0xbe6526a4	-0.22378021
6	0xbed17a16	-0.40913457
7	0x3d19742e	0.037464313
8	0x3e3fcc60	0.18730307
9	0xbd9abf48	-0.07556015
10	0xbca78208	-0.020447746
11	0x3d8287b3	0.06373539
12	0xbe775b7c	-0.24155992
13	0xbd0572da	-0.032580234
14	0x3e0007ee	0.12503025
15	0xbd1d418e	-0.038392596
16	0xbcb146de	-0.021640237
17	0xbdd6f207	-0.10495382
18	0x3e856434	0.2605301
19	0xbe2fd627	-0.17171536
20	0x3ed1616c	0.4089464
21	0x3bda4d1c	0.006662024
22	0xbe5aa15e	-0.21350619
23	0x3e1e0f22	0.1543546
24	0x3ddd7c1e	0.10814689
25	0xbe640b2f	-0.22269891
26	0xbe23cb6e	-0.15995571
27	0xbd57a835	-0.05265065
28	0x3e5309dd	0.20609231
29	0x3e39172c	0.18075246
30	0xbdf37a0d	-0.11888514
31	0xbedf3b1a	-0.43599778
32	0x3e477707	0.19478999
33	0xbe4414e1	-0.1914859
34	0xbe8b9684	-0.27263272
35	0x3e84112a	0.25794345
36	0x3c2cbc39	0.010542923
37	0xbe3f6ee3	-0.18694644
38	0x3ca42d98	0.020041272
39	0xbe83bd67	-0.2573044
40	0x3dca2f12	0.09872259
41	0x3ed954be	0.42447466
42	0x3e9213fa	0.28530866
43	0xbe9fe495	-0.31229082
44	0x3e1eac72	0.1549547
45	0xbeb56824	-0.35431015
46	0x3df7d8a5	0.121018685
47	0xbe778197	-0.24170528
48	0xbeb7fbc3	-0.35934266
49	0x3e8f5adc	0.27999008
50	0x3e89398e	0.26801723
51	0x3e708f58	0.23492181
52	0xbe985bfb	-0.29757676
53	0x3d97a131	0.07403792
54	0x3ed00caa	0.40634662
55	0xbe445da8	-0.19176352
56	0xbddcaba3	-0.107749246
57	0xbe5b677c	-0.21426195
58	0xbecefab4	-0.40425646
59	0x3d584412	0.052799292
60	0x3e916396	0.2839629
61	0x3ea7b200	0.3275299
62	0xbd474e1e	-0.048658483
63	0xbebefc20	-0.3730173
64	0xbe8a2c15	-0.26986757
65	0x3f030036	0.51172197
66	0xbe78cf9c	-0.24297947
67	0x3e294abb	0.16532414
68	0xbd00b195	-0.031419355
69	0x3e6db5de	0.23213908
70	0xbd84d7b3	-0.06486454
71	0xbea63e57	-0.32469437
72	0xbd8d25b0	-0.06891954
73	0xbe2ee12b	-0.17078082
74	0xbe8fe349	-0.28103092
75	0x3e079e14	0.13243896
76	0x3e0b5502	0.13606647
77	0x3edbe70e	0.42949718
78	0xbe639037	-0.22222982
79	0xbe1aa9dd	-0.1510386
80	0x3e7be66d	0.24599619
81	0xbdb9a459	-0.0906455
82	0xbefcd574	-0.49381602
83	0xbd61d524	-0.055134907
84	0x3e889705	0.2667772
85	0xbddff27d	-0.10934923
86	0xbe1f5fed	-0.15563937
87	0x3ea14f54	0.31505835
88	0xbd88f6b6	-0.066876814
89	0xbe22aa09	-0.15885176
90	0x3df81103	0.1211262
91	0x3d3f7e2c	0.046751186
92	0x3b7d44fd	0.0038645857
93	0x3d273715	0.040824015
94	0xbd26cd39	-0.04072306
95	0x3d4d5514	0.050129965
96	0x3da16777	0.078810625
97	0x3d93575a	0.07194395
98	0xbdd15246	-0.102207705
99	0x3de2af3b	0.11068579
100	0xbde01d87	-0.10943132
101	0xbdda0830	-0.10646093
102	0x3e831bec	0.2560724
103	0xbdb032f3	-0.08603468
104	0xbe848c7e	-0.25888437
105	0x3e9afeb4	0.30272448
106	0x3e9945e2	0.2993613
107	0x3e06f6a9	0.13180031
108	0x3e3ad9a0	0.1824708
109	0x3d2fc29e	0.04291021
110	0xbe84da1c	-0.25947654
111	0xbea7173b	-0.3263491
112	0x3e71f0f0	0.23627067
113	0x3ea8df35	0.32982793
114	0x3e48c552	0.19606522
115	0xbe4f2db2	-0.20232275
116	0x3e45cde5	0.19316824
117	0xbcfc3ddd	-0.030791217
118	0x3d5680df	0.052368995
119	0xbe1c68ee	-0.15274402
120	0xbe6b72a3	-0.22992949
121	0x3c3d8e8f	0.011569633
122	0x3d8bbde1	0.06823326
123	0x3d879cd0	0.066217065
124	0x3dec352f	0.115335815
125	0x3e61ba84	0.22043806
126	0x3db2471c	0.08704969
127	0xbe70a24a	-0.23499408
128	0x3dfba880	0.12287998
129	0x3e42e96e	0.19034359
130	0x3d4c96ae	0.049948387
131	0x3e605eb6	0.2191113
132	0x3e94320c	0.28944433
133	0x3d39ebf8	0.045391053
134	0xbe1482cf	-0.14503025
135	0xbe668c7b	-0.22514527
136	0x3d45d4d8	0.048298687
137	0xbe22f152	-0.15912369
138	0xbc6afdcf	-0.014342739
139	0x3ed6ae2a	0.41929752
140	0xbea15399	-0.31509092
141	0xbea95fbd	-0.33080855
142	0xbe3cf9e8	-0.18454707
143	0x3e026490	0.12733674
144	0xbe654d6b	-0.22392814
145	0x3e501696	0.20321116
146	0xbe5ae6a1	-0.2137704
147	0xbe1e0ba2	-0.15434125
148	0x3e54335d	0.20722719
149	0xbe86c411	-0.26321462

action_layer.6.bias f4 [3]
0	0x3e4138a8	0.18869269
1	0xbe183171	-0.1486261
2	0xbe00d68a	-0.1258184

value_layer.0.weight f4 [200, 11]
0	0x3e40a32c	0.18812245
1	0x3e711fd3	0.23547296
2	0xbed45856	-0.41473645
3	0xbe5e1832	-0.21688917
4	0x3ead017f	0.33790204
5	0xbebf4361	-0.37356094
6	0xbed123ee	-0.40847725
7	0xbf013e9c	-0.5048616
8	0xbe42ca89	-0.19022574
9	0x3f1613b2	0.586238
10	0x3f079862	0.5296689
11	0x3ecb9a71	0.39766267
12	0x3ebfde3c	0.3747424
13	0xbe024af3	-0.12723903
14	0xbf184cf2	-0.5949241
15	0xbc9f951d	-0.019480282
16	0xbd89e77e	-0.06733607
17	0x3bdab90c	0.0066748913
18	0xbec1c435	-0.37845007
19	0x3e84ca51	0.25935605
20	0x3eba774b	0.36419138
21	0xbf036a31	-0.5133391
22	0xbf992587	-1.1964577
23	0x3eccc000	0.39990234
24	0x3ea50351	0.32229093
25	0xbef26f58	-0.47350574
26	0xbe22fab6	-0.15915951
27	0x3e6fa389	0.23402227
28	0x3ed41c5d	0.4142789
29	0x3ce2d812	0.027690921
30	0xbe861c50	-0.26193476
31	0xbf28f743	-0.6600229
32	0xbf3bc15b	-0.7334191
33	0x3f7cb7c3	0.987179
34	0x3f44681c	0.7672136
35	0xbc61056d	-0.013734204
36	0xbe7dde97	-0.24791943
37	0x3df80c1d	0.121116854
38	0x3e1751a1	0.14777233
39	0xbe36f0dd	-0.1786532
40	0xbeaaf33e	-0.33388704
41	0xbe3502de	-0.17676875
42	0xbe08e3cb	-0.13368146
43	0xbf424f20	-0.75901985
44	0x3de9e76b	0.114210926
45	0xbeb4b5a2	-0.35294825
46	0xbd845e01	-0.06463242
47	0x3edd373c	0.43206203
48	0xbeaf76a8	-0.34270215
49	0xbe3bbeb7	-0.1833447
50	0x3ea73fe2	0.32665926
51	0xbf4c72c5	-0.79862624
52	0x3eecd8c7	0.46259138
53	0xbee6fd86	-0.45115298
54	0x3d34270a	0.043982543
55	0x3f2bc014	0.6708996
56	0x3f77d801	0.9681397
57	0xbef26f28	-0.4735043
58	0x3db22f0c	0.0870038
59	0x3cbccf68	0.023048118
60	0xbecdb6b8	-0.40178466
61	0x3ea70ef2	0.3262859
62	0xbf00511a	-0.5012375
63	0xbe66686d	-0.22500773
64	0x3d3f6b0a	0.04673294
65	0xbe34befa	-0.17650977
66	0x3eb0cca9	0.34531143
67	0x3e8978ce	0.2684998
68	0xbe4f9724	-0.202725
69	0xbd60cd6e	-0.054883413
70	0x3f217e2d	0.63083154
71	0x3e115b2f	0.1419494
72	0x3e4bb33e	0.19892594
73	0xbdd74218	-0.10510653
74	0x3f33f7e2	0.70300114
75	0xbe84e6ab	-0.25957236
76	0x3f1490de	0.5803355
77	0xbe83e082	-0.25757223
78	0xbecf4512	-0.40482384
79	0x3f07a00f	0.52978605
80	0x3f103926	0.563372
81	0xbe1cd1fd	-0.15314479
82	0xbf22ead4	-0.6363957
83	0x3e637ee5	0.22216375
84	0x3f108df7	0.5646662
85	0xbe30f5b9	-0.17281236
86	0x3ea133f0	0.31484938
87	0xbe722039	-0.23645104
88	0x3ec42e9b	0.38316807
89	0x3f323c99	0.69623715
90	0xbf3faa75	-0.7486947
91	0xbeeb5060	-0.4595976
92	0x3e431002	0.19049075
93	0x3f30614c	0.68898463
94	0xbe7a8986	-0.24466524
95	0xbee49c8f	-0.44650695
96	0x3c5dcd21	0.013537676
97	0x3e1fd64c	0.15609092
98	0x3e5426e4	0.2071796
99	0xbd44806a	-0.047974028
100	0xbe918051	-0.2841821
101	0xbb14047a	-0.0022585676
102	0xbebfe4f5	-0.37479368
103	0x3f6a3c03	0.9149782
104	0x3e36552b	0.17805927
105	0xbf1c6297	-0.61087936
106	0xbe5a3f6d	-0.21313258
107	0xbf291258	-0.66043615
108	0xbed0ff07	-0.4081957
109	0xbe64d25e	-0.22345874
110	0x3ecabc91	0.3959699
111	0xbcd538b1	-0.02602801
112	0xbeb15bfc	-0.3464049
113	0xbee3c08a	-0.44482833
114	0x3f37d8c3	0.7181513
115	0x3e07f78f	0.1327803
116	0x3e8ad40c	0.27114904
117	0xbf11c02d	-0.5693386
118	0x3ecb9b6a	0.3976701
119	0x3d32b51f	0.04362976
120	0x3f4727b5	0.77794963
121	0xbe5c5eb5	-0.21520503
122	0x3e0c1151	0.1367848
123	0xbe208f78	-0.15679729
124	0x3b39cc0e	0.0028350386
125	0xbedc1240	-0.42982674
126	0x3f29fdc5	0.66402847
127	0xbe158a56	-0.14603552
128	0xbee3629d	-0.44411173
129	0x3e81af72	0.25329167
130	0xbf67ee59	-0.90598065
131	0x3b8a3ee5	0.0042189234
132	0xbe186288	-0.14881337
133	0xbeafa4bd	-0.34305373
134	0xbda2e896	-0.079545185
135	0x3dcbcc4f	0.09951078
136	0xbed493a8	-0.41518903
137	0x3e8d58b5	0.2760674
138	0xbe69bd7a	-0.22826186
139	0x3e95f48d	0.2928814
140	0xbe7f100c	-0.24908465
141	0xbec6bb20	-0.3881464
142	0xbeebc5c3	-0.46049318
143	0x3cbf3082	0.02333856
144	0x3ecdf030	0.4022231
145	0x3ebf8588	0.37406564
146	0xbebf86c1	-0.37407497
147	0xbf2e2158	-0.6801963
148	0xbe10aa6b	-0.1412751
149	0x3c0c9f66	0.008582925
150	0xbd8f7451	-0.070046075
151	0x3ed2cfa5	0.41174045
152	0x3f22aacd	0.6354187
153	0x3e7eec84	0.24894911
154	0xbe8ddb7f	-0.27706525
155	0xbdbe751c	-0.092996806
156	0xbeb7fa29	-0.35933045
157	0xbd0fff99	-0.035155866
158	0x3dce55fc	0.10074994
159	0x3eae39e7	0.3402855
160	0x3df3d8c1	0.11906577
161	0xbe891cf3	-0.267799
162	0x3e8a8c36	0.27060097
163	0xbeb7b249	-0.35878208
164	0x3f441cb9	0.7660633
165	0xbee69e55	-0.45042673
166	0x3f209b48	0.6273694
167	0x3e45fc24	0.19334465
168	0xbef5970f	-0.4796681
169	0x3ec45487	0.3834574
170	0x3e1654f1	0.1468084
171	0x3dcc88bf	0.0998702
172	0xbeedcdbf	-0.46446034
173	0xbddbdbad	-0.10735259
174	0xbe437bbd	-0.19090171
175	0xbee2c2db	-0.44289288
176	0xbf0e2b86	-0.5553516
177	0x3ecfaf7f	0.4056358
178	0x3ecf9506	0.40543383
179	0xbeb3eb1d	-0.35140315
180	0xbe7a4d68	-0.2444359
181	0x3f1dea47	0.61685604
182	0xbd07bc07	-0.0331383
183	0xbca1cb36	-0.019750219
184	0x3f223101	0.63356024
185	0xbefb4252	-0.49074036
186	0x3e93c51f	0.2886133
187	0x3eed563b	0.4635485
188	0xbdff6fe5	-0.12472514
189	0xbce32a1f	-0.027730046
190	0xbd96016e	-0.073244914
191	0x3e85b78e	0.26116604
192	0xbf2720f9	-0.6528469
193	0xbe02a989	-0.12759985
194	0x3e982e66	0.297229
195	0x3ed2a0c2	0.41138273
196	0x3f4af930	0.7928648
197	0xbe7df2d3	-0.24799661
198	0x3d097f99	0.033568952
199	0x3e283e05	0.16429909
200	0x3e8333e7	0.25625536
201	0x3ee8271c	0.45342338
202	0xbdc0ee6c	-0.09420475
203	0x3e257c0a	0.16160598
204	0x3e1f6c8c	0.15568751
205	0xbeced2d2	-0.40395218
206	0xbe98f1a8	-0.2987187
207	0x3e724314	0.23658401
208	0xbf312720	-0.69200325
209	0xbf0454b6	-0.5169176
210	0xbe3896bb	-0.18026249
211	0xbe14650c	-0.14491671
212	0xbe543b2b	-0.20725696
213	0x3f30febc	0.69138694
214	0x3d9d3fb5	0.07678167
215	0xbe09c92a	-0.13455644
216	0xbf3ba64a	-0.7330061
217	0xbef09c42	-0.46994215
218	0x3ebe2112	0.37134606
219	0xbe8b1baf	-0.27169558
220	0x3ee04c14	0.43808043
221	0xbec907c4	-0.39263737
222	0xbed6cbd7	-0.41952392
223	0x3ee406db	0.4453648
224	0xbbbc8fd4	-0.0057544503
225	0xbe1a4697	-0.1506599
226	0x3d103322	0.035205014
227	0x3e825dab	0.25462088
228	0x3f2e6b65	0.6813262
229	0xbe8894d6	-0.26676053
230	0x3fa39038	1.2778387
231	0x3efa75c2	0.48917967
232	0xbe1caa37	-0.15299307
233	0x3f0e6327	0.55620044
234	0x3e9c2903	0.3050004
235	0xbedfcfce	-0.4371323
236	0xbefafcda	-0.49021035
237	0x3e14b8e4	0.14523655
238	0x3e898bf2	0.26864582
239	0xbea85ae5	-0.32881847
240	0xbdaa02d6	-0.08301322
241	0x3e06646e	0.13124248
242	0x3d391cc0	0.045193434
243	0xbf481bca	-0.781674
244	0x3ebd9fdf	0.37036034
245	0x3ecf605e	0.4050321
246	0x3d44697c	0.04795216
247	0x3e1c1e91	0.15246035
248	0xbea6dd04	-0.32590497
249	0xbea7670a	-0.326958
250	0x3ecd63ce	0.40115207
251	0xbf057e53	-0.5214588
252	0x3eccebbc	0.400236
253	0xbe9b554c	-0.30338514
254	0xbd8caa9f	-0.06868481
255	0x3ec2c529	0.38041046

value_layer.0.bias f4 [200]
0	0xbc434904	-0.011919264
1	0xbdc88851	-0.09791625
2	0x3f21da49	0.632237
3	0xbe43e00c	-0.19128436
4	0x3ebe7d14	0.37204802
5	0xbd4c02fb	-0.04980753
6	0x3d91d925	0.07121495
7	0xbebc5c9a	-0.367894
8	0xbed3a32f	-0.41335437
9	0x3ecba8b6	0.39777154
10	0xbdb6f212	-0.0893289
11	0x3efe667a	0.49687558
12	0x3dc84b94	0.097800404
13	0xbee4f7dd	-0.44720355
14	0x3eea64c8	0.45780015
15	0xbe1562f8	-0.14588535
16	0xbdd9e6b1	-0.10639704
17	0xbe83397e	-0.256298
18	0xbe49ad03	-0.19694905
19	0x3dd4cdcc	0.10390815
20	0x3ee061bc	0.43824565
21	0xbe740d09	-0.23833098
22	0x3e1b5bff	0.15171812
23	0xbd56d629	-0.052450333
24	0x3e74472f	0.2385528
25	0x3e467618	0.19380987
26	0x3e81dc28	0.25363278
27	0x3e893c38	0.26803756
28	0xbebba564	-0.3664962
29	0xbe11a23e	-0.14222047
30	0x3ec387ca	0.38189536
31	0x3ecf5f39	0.40502337
32	0x3e53a2ca	0.20667568
33	0x3f395264	0.72391343
34	0xbcbb74ee	-0.022882905
35	0x3da32617	0.079662494
36	0xbe351d98	-0.1768707
37	0x3ede59dd	0.43427935
38	0x3dd8e77a	0.10591026
39	0x3ea9408c	0.33057058
40	0xbe1ba9e3	-0.15201525
41	0x3ea92aee	0.33040565
42	0xbe53e9f0	-0.20694709
43	0xbdd3ae7a	-0.10336013
44	0x3ecf6531	0.4050689
45	0x3e81e809	0.2537234
46	0x3e5a18dd	0.21298547
47	0xbf303d0f	-0.6884317
48	0x3d81740f	0.063209645
49	0xbd80685e	-0.062699065
50	0xbecec8a7	-0.4038746
51	0x3e37ed5a	0.17961636
52	0x3deb966e	0.115033016
53	0xbde89103	-0.11355784
54	0xbc0e8f92	-0.008701222
55	0x3e8e3f23	0.27782544
56	0xbe4931ca	-0.196479
57	0xbde23be6	-0.11046581
58	0x3e087e1e	0.1332936
59	0x3df94177	0.121706896
60	0x3e1845f3	0.14870434
61	0xbe632168	-0.22180712
62	0xbf0a000d	-0.5390633
63	0x3e1091e6	0.14118156
64	0xbe69447c	-0.22780031
65	0xbeb13c91	-0.3461652
66	0xbf161f65	-0.58641654
67	0x3eb3eb66	0.35140532
68	0x3f0c96e1	0.5491772
69	0x3ea11e70	0.31468534
70	0x3b65bbe2	0.0035054614
71	0x3e172d99	0.14763488
72	0x3c98c39e	0.018647965
73	0xbe74c1c4	-0.2390204
74	0xbe2f85f1	-0.17140938
75	0xbdbe7fe8	-0.0930174
76	0x3e26d9b4	0.16293985
77	0x3b869fcd	0.004108405
78	0xbee0154f	-0.43766257
79	0x3c0a2282	0.008431079
80	0xbe804df6	-0.2505948
81	0x3f00a425	0.50250465
82	0x3d896ca0	0.06710172
83	0xbe5edf9d	-0.21764989
84	0x3e55f026	0.2089239
85	0x3e6603b0	0.22462344
86	0x3ed105fe	0.40824884
87	0xbef846bf	-0.48491475
88	0xbe973462	-0.29532152
89	0x3edc12bf	0.42983052
90	0x3de5cb5a	0.11220427
91	0xbdcba4ba	-0.099435285
92	0xbda7fa7c	-0.08202073
93	0x3e033134	0.12811738
94	0x3dde84b6	0.10865156
95	0x3f018e0d	0.5060738
96	0x3e3fac4b	0.18718068
97	0x3e8fa20c	0.2805332
98	0x3d063364	0.032763854
99	0x3e0b0821	0.1357732
100	0xbd9ae64e	-0.075634584
101	0xbdc0d66e	-0.09415899
102	0xbf10c213	-0.56546134
103	0xbb60c324	-0.0034296
104	0x3e1781fc	0.14795679
105	0x3cfd5f50	0.030929238
106	0x3e35a5bc	0.17739004
107	0xbe4812a9	-0.19538368
108	0xbec635e8	-0.38713002
109	0xbec0727a	-0.3758734
110	0xbea63a91	-0.32466558
111	0xbe4bd102	-0.19903949
112	0x3e29eaaf	0.16593431
113	0xbd6a4ee4	-0.057204142
114	0xbede03df	-0.43362328
115	0x3e43a21b	0.19104807
116	0xbd33460c	-0.043767974
117	0x3ed2d62b	0.41179022
118	0xbeb3bccb	-0.35104975
119	0xbf06abdb	-0.5260598
120	0xbe06252d	-0.13100119
121	0x3ea73096	0.32654256
122	0x3b0022d5	0.0019552012
123	0x3dde24fc	0.10846898
124	0xbd919a5c	-0.0710952
125	0x3e30ea7d	0.1727695
126	0x3ec1f2ea	0.3788064
127	0xbee56d25	-0.44809833
128	0xbeeb8026	-0.45996207
129	0xbef0a084	-0.46997464
130	0xbd8315b5	-0.06400625
131	0xbddb0d8a	-0.10695942
132	0x3e8c8664	0.27446282
133	0xbde9620c	-0.11395654
134	0xbe85624f	-0.26051566
135	0xbe822b5e	-0.25423712
136	0xbe1d825e	-0.15381762
137	0xbe97a4c6	-0.296179
138	0xbec20213	-0.37892208
139	0xbdf999d9	-0.12187547
140	0x3e64d5b8	0.22347152
141	0x3e04b14d	0.1295826
142	0x3e973c16	0.2953803
143	0x3cbc2cf1	0.022970648
144	0x3ecdfe0c	0.40232885
145	0x3df34b93	0.11879649
146	0x3e2473e3	0.16059832
147	0xbe9f8382	-0.3115502
148	0xbeee25c1	-0.4651318
149	0xbcd6b919	-0.026211308
150	0x3d7b6e9b	0.06138478
151	0x3ea07935	0.31342474
152	0x3d264759	0.040595386
153	0xbea472b8	-0.32118773
154	0x3e78cdd4	0.24297267
155	0xbec09c39	-0.37619188
156	0xbe8516ae	-0.25993866
157	0xbeaa814c	-0.3330177
158	0xbe9de89a	-0.30841523
159	0x3e8c2939	0.273752
160	0x3e3ffb98	0.18748319
161	0xbef7ed0b	-0.48423037
162	0x3de792a3	0.113072656
163	0xbf2041b6	-0.62600267
164	0xbdc2bb1a	-0.09508343
165	0x3d45a7d9	0.048255775
166	0x3e007c66	0.12547454
167	0xbf054494	-0.52057767
168	0xbe55fc50	-0.20897031
169	0x3ed2e082	0.4118691
170	0xbedc207f	-0.42993543
171	0x3f36e55b	0.7144372
172	0xbe47b503	-0.19502644
173	0x3e0fd010	0.14044213
174	0xbe36e485	-0.17860611
175	0x3dc652bb	0.09683748
176	0x3ebbfe16	0.3671729
177	0x3d349032	0.044082828
178	0xbdf23f54	-0.11828485
179	0x3ecb029a	0.39650422
180	0xbd700427	-0.05859771
181	0xbea0757c	-0.31339633
182	0xbe401ca4	-0.18760926
183	0x3e85d973	0.26142463
184	0xbdb54030	-0.088501334
185	0x3e018972	0.12650087
186	0x3dd57b23	0.10423877
187	0xbe206ce0	-0.15666533
188	0x3c787502	0.015164616
189	0xbdb9fdb4	-0.09081593
190	0x3ee6fba4	0.45113862
191	0x3ea46843	0.32110795
192	0x3dd1e3f9	0.102485605
193	0xbe7ace7d	-0.24492832
194	0xbeb688e9	-0.3565133
195	0x3df28b7e	0.11843012
196	0xbc790489	-0.015198835
197	0xbcd0a8d8	-0.025471136
198	0x3e9e75f4	0.30949366
199	0xbe84ba20	-0.25923252

value_layer.2.weight f4 [20, 200]
0	0x3eacf089	0.33777264
1	0xb93c3af1	-0.00017951035
2	0xbf842d1d	-1.0326267
3	0x3e063758	0.1310705
4	0x3dd6fd6e	0.104975566
5	0x3f164ee7	0.58714145
6	0x3f64b0e0	0.8933239
7	0xbde9997e	-0.114062294
8	0xbe1fc786	-0.15603456
9	0xbeb53a07	-0.35395834
10	0x3f330752	0.69933045
11	0xbe928321	-0.28615668
12	0xbf1210fd	-0.5705717
13	0x3ec27195	0.3797728
14	0xbd010a6a	-0.031504072
15	0xbebe1553	-0.37125644
16	0xbd917955	-0.071032204
17	0x3dd2fa07	0.10301595
18	0xbee86722	-0.45391184
19	0xbda996aa	-0.0828069
20	0x3f0f8d21	0.5607472
21	0xbd02f9a8	-0.031976372
22	0x3d89c3fa	0.06726833
23	0xbed50ab6	-0.41609734
24	0xbeae2688	-0.34013772
25	0x3e32638e	0.1742079
26	0xbdbad6bd	-0.09122989
27	0xbe5a2b5e	-0.21305606
28	0x3e8d7619	0.27629164
29	0x3e8d5c9c	0.27609718
30	0xbe9e2d32	-0.30893856
31	0xbee87dcb	-0.45408472
32	0xbed62f1f	-0.41832826
33	0xbeaeb51c	-0.3412255
34	0xbd96ff5f	-0.07372927
35	0xbe2a2e76	-0.16619286
36	0xbdfa73e1	-0.122291334
37	0x3eba536f	0.3639178
38	0xbe0dda36	-0.13852772
39	0xbe1c30c3	-0.15252976
40	0x3e5242a4	0.20533234
41	0xbdfbc168	-0.12292749
42	0x3d89554d	0.06705723
43	0xbe00821d	-0.12549634
44	0x3c69581a	0.014242196
45	0x3e933216	0.2874915
46	0x3e19c3b7	0.15016066
47	0x3f01bca6	0.5067848
48	0xbe1d31ae	-0.15350983
49	0xbf0a321e	-0.5398272
50	0x3ebd8f0f	0.37023208
51	0x3da10bd0	0.07863581
52	0x3ca4fcdd	0.020140106
53	0xbde8f8a8	-0.113755524
54	0x39ea0643	0.00044636623
55	0xbef77411	-0.4833074
56	0x3e55edac	0.20891446
57	0x3e27cf8d	0.16387768
58	0xbe4fd588	-0.202963
59	0x3e510b86	0.20414552
60	0xbd30e800	-0.043190002
61	0xbdaeba38	-0.08531612
62	0x3ee607c9	0.44927815
63	0x3db14aaa	0.08656819
64	0x3daa2d68	0.08309442
65	0x3d935b8d	0.07195196
66	0x3e1cbf9c	0.15307468
67	0x3e022e00	0.1271286
68	0xbccedff4	-0.025253274
69	0x3ec4e7cc	0.38458097
70	0xbdbb1fa5	-0.09136895
71	0x3e8d3322	0.27578074
72	0x3e4a0208	0.19727337
73	0xbe0f3c4f	-0.1398785
74	0x3edbfc87	0.429661
75	0x3d917c37	0.0710377
76	0x3eb29387	0.3487818
77	0xbdb36818	-0.08760089
78	0x3e8a6c66	0.27035826
79	0x3e2e4212	0.17017391
80	0x3e551ba4	0.20811325
81	0xbebbdb13	-0.36690578
82	0xbf34e89b	-0.7066743
83	0xbdada370	-0.08478439
84	0xbc0c5914	-0.00856616
85	0xbdd683ff	-0.10474395
86	0x3e65b8e5	0.22433813
87	0xbf318cb5	-0.69355327
88	0xbf14b7cb	-0.58092946
89	0x3e8ba6af	0.27275607
90	0xbeaa764c	-0.33293378
91	0x3daebc3a	0.08531995
92	0xbe761d26	-0.24034557
93	0xbe9926e6	-0.2991249
94	0xbe57a604	-0.21059424
95	0xbed2d617	-0.41178963
96	0xbe832dc7	-0.25620863
97	0x3e794d66	0.24345931
98	0xbe831c59	-0.25607565
99	0x3e8954e1	0.2682257
100	0xbed3e46a	-0.41385204
101	0xbdcf4402	-0.10120393
102	0x3e41831a	0.18897668
103	0x3ca3e461	0.02000636
104	0x3e88f791	0.26751378
105	0x3dc6af72	0.09701432
106	0x3de1e34a	0.1102968
107	0x3db0f1c7	0.08639865
108	0xbe1664bb	-0.14686863
109	0xbe0b71fb	-0.13617699
110	0x3dbf9497	0.09354513
111	0x3e8b618d	0.27222863
112	0x3e8df7ba	0.27728063
113	0xbd93b9ad	-0.07213149
114	0xbee08985	-0.4385492
115	0xbd978720	-0.0739882
116	0xbd98c3b0	-0.074591994
117	0xbf46395b	-0.7743127
118	0x3e0d3449	0.13789476
119	0x3e74fa20	0.2392354
120	0x3eb1b4dc	0.34708297
121	0xbf7312aa	-0.94950354
122	0xbdbe38ec	-0.09288201
123	0x3e2c3ff3	0.1682127
124	0x3eaee31b	0.34157643
125	0x3ed7bb4c	0.42135084
126	0x3e28fcd3	0.16502695
127	0x3e12945b	0.14314406
128	0x3dc0abff	0.09407806
129	0x3efc85fe	0.49320978
130	0xbe77ed41	-0.24211599
131	0x3b2c988a	0.0026336038
132	0xbed5e42b	-0.4177564
133	0xbe32900a	-0.17437759
134	0x3eab66fb	0.33477005
135	0x3eafe555	0.34354654
136	0x3ee7a0b5	0.45239797
137	0xbd9c2dee	-0.07625948
138	0xbe5fc0d9	-0.2185091
139	0xbe64667e	-0.22304723
140	0x3d818497	0.06324118
141	0xbeb6948a	-0.356602
142	0x3e4a9a71	0.19785477
143	0xbe922c6f	-0.28549525
144	0xbf24d526	-0.6438774
145	0xbeac7ef4	-0.33690608
146	0x3ec857bf	0.39129445
147	0xbe814e7b	-0.25255188
148	0xbdd4beb6	-0.10387938
149	0xbed652bd	-0.4186
150	0xbea896a7	-0.3292744
151	0xbe34443c	-0.17604154
152	0xbd92bc9a	-0.07164879
153	0xbdde119a	-0.10843201
154	0xbe63c05e	-0.22241351
155	0x3edc2570	0.42997313
156	0xbf55a70f	-0.83458036
157	0x3cad700b	0.02117159
158	0x3f155104	0.58326745
159	0xbd9c50cc	-0.07632598
160	0xbe574c03	-0.2102509
161	0x3f5e70d2	0.868909
162	0xbddddb68	-0.10832864
163	0xbd868da7	-0.06569987
164	0x3e5ea77c	0.21743578
165	0xbe002a56	-0.1251615
166	0x3ed4e4a7	0.41580698
167	0x3e0a3508	0.13496792
168	0x3ea692e8	0.32533956
169	0xbe3122e2	-0.17298463
170	0x3e1e59be	0.15463921
171	0x3e3130a3	0.1730371
172	0x3ee05070	0.4381137
173	0xbe66755c	-0.22505707
174	0xbf5cd43e	-0.86261356
175	0x3e2d1c1f	0.16905259
176	0x3e93468f	0.2876477
177	0xbd668456	-0.05627855
178	0xbd92f5e9	-0.0717581
179	0xbea27b90	-0.31734896
180	0xbf107171	-0.564231
181	0x3e899c80	0.26877213
182	0x3d8a71de	0.0676
183	0xbee7bf62	-0.452632
184	0xbe73a2af	-0.23792528
185	0x3c2ffa0f	0.010740771
186	0xbd7d188b	-0.061790984
187	0xbe2541a3	-0.1613832
188	0xbe29b958	-0.1657461
189	0x3e1349b8	0.1438359
190	0xbd32df4f	-0.043669995
191	0x3def289a	0.11677666
192	0xbe06bd0c	-0.13158053
193	0xbdcfde0f	-0.10149776
194	0xbd9df2c6	-0.07712321
195	0x3ea0f3b3	0.31435928
196	0x3e47c08e	0.19507048
197	0x3e0578d6	0.13034377
198	0xbe3732c7	-0.17890464
199	0x3d494c5a	0.04914508
200	0xbe2fd592	-0.17171314
201	0xbe2786fd	-0.16360088
202	0xbe2a641b	-0.1663975
203	0x3d1ebe17	0.038755503
204	0x3d873884	0.066025764
205	0x3e9087c0	0.2822857
206	0xbd62a342	-0.055331476
207	0x3e0358df	0.1282687
208	0xbe67c1aa	-0.2263247
209	0xbf41bad6	-0.75675714
210	0xbea2b3ca	-0.31777793
211	0x3dee3d47	0.116327815
212	0x3ec98548	0.39359498
213	0x3edbd0ff	0.4293289
214	0x3d9a795c	0.07542679
215	0xbf367bdb	-0.7128274
216	0xbe44f3fe	-0.192337
217	0x3dd49bc4	0.103812724
218	0x3d1c607a	0.038177945
219	0xbf4e2632	-0.8052703
220	0x3f30bcdb	0.6903817
221	0x3e279b9c	0.16367954
222	0xbd54255d	-0.051793445
223	0x3eda5ba3	0.42648038
224	0xbe37413a	-0.17895976
225	0x3e7520f9	0.2393836
226	0xbeee28bc	-0.46515453
227	0xbdb37e34	-0.08764306
228	0xbeb55202	-0.3541413
229	0xbea4219d	-0.32056895
230	0xbdebf1c3	-0.11520722
231	0xbeebd6fe	-0.46062464
232	0xbdd6deb4	-0.10491696
233	0xbe0061b4	-0.12537271
234	0x3f0b06d3	0.5430729
235	0x3f39d0d2	0.7258426
236	0x3e2dadfe	0.16960904
237	0x3f4bc1a1	0.7959233
238	0xbe889e51	-0.26683286
239	0xbe4872cf	-0.19575046
240	0x3e9d2b38	0.30697036
241	0x3ee905eb	0.45512328
242	0xbed90b3a	-0.42391378
243	0x3e0728ec	0.13199204
244	0xbeb76f96	-0.3582732
245	0x3d81a120	0.0632956
246	0xbda363ca	-0.07978018
247	0x3e458559	0.1928915
248	0x3e83a255	0.25709787
249	0xbe9befca	-0.30456382
250	0x3e4656dd	0.19369073
251	0x3e81715f	0.25281808
252	0x3dc30774	0.09522906
253	0x3ead428e	0.3383984
254	0xbea49957	-0.3214824
255	0xbef13b86	-0.47115725

value_layer.2.bias f4 [20]
0	0x3d82c782	0.06385709
1	0x3c5d8c2a	0.013522187
2	0xbdb248d5	-0.08705298
3	0x3e791dd7	0.24327789
4	0x3e9b7fcb	0.30370936
5	0x3e5474cf	0.20747684
6	0xbe8164da	-0.25272256
7	0x3e108416	0.14112887
8	0xbd83d9e7	-0.06438046
9	0xbe4265f0	-0.18984199
10	0x3d00d5ec	0.03145401
11	0xbea5ccdd	-0.3238286
12	0x3dd8cfc5	0.10586504
13	0xbe1eef5b	-0.15520994
14	0x3e2c6d61	0.168386
15	0x3e861e14	0.26194823
16	0x3b822c41	0.0039725606
17	0xbec7c5a0	-0.39017963
18	0x3e6c94a0	0.23103571
19	0xbea94373	-0.33059272
